models_spike/lolcat_head1_NN_syn_02.pt (torch, 158942 bytes, 16 tensors)

encoder.layers.0.weight f4 [64, 499]
0	0xbda0277e	-0.078200325
1	0x3cc47dc8	0.023985758
2	0x3e560bbc	0.20902914
3	0x3d276102	0.040864
4	0x3e4985c4	0.19679934
5	0xbd35113e	-0.044205897
6	0x3e0b96da	0.13631764
7	0xbe40fdae	-0.18846771
8	0xbcd5cfc2	-0.026100043
9	0x3dc431d3	0.09579816
10	0x3cf82cb3	0.030294752
11	0x3d5a45a9	0.05328909
12	0xbcfabe7e	-0.030608412
13	0x3e3c5336	0.18391117
14	0xbd333cc6	-0.04375913
15	0x3d24cecd	0.040236283
16	0x3e423a2e	0.18967506
17	0xbd66c433	-0.056339454
18	0x3da14cbf	0.07875966
19	0xbd0940a7	-0.033508923
20	0x3e1efb9e	0.15525672
21	0xbd97d7b3	-0.07414188
22	0xbd175449	-0.036945615
23	0x3cbbde6e	0.022933211
24	0x3e053cac	0.13011426
25	0xbda84f82	-0.0821829
26	0x3df5d691	0.12003816
27	0x3ac5a7d0	0.0015079919
28	0xbdd1d13c	-0.102449864
29	0x3cbbc141	0.0229193
30	0x3dc36163	0.095400594
31	0xbcb95cc4	-0.022627242
32	0x3d62d594	0.055379465
33	0x3e17ee24	0.14836937
34	0xbd94ae76	-0.07259838
35	0x3e176db5	0.14787944
36	0x3ddecc2f	0.10878789
37	0x3c8bf297	0.01708345
38	0xbe0e82e9	-0.13917126
39	0xbd150d0b	-0.036389392
40	0xbd041fc4	-0.032256857
41	0x3cb40898	0.021976754
42	0x3d64da59	0.055872295
43	0xbd7dbddb	-0.06194864
44	0xbce1de89	-0.027571933
45	0xbd3f710c	-0.04673867
46	0x3d4ec1d8	0.050477833
47	0x3dd67834	0.10472146
48	0x3db7f220	0.089817286
49	0xbbad5aad	-0.0052903504
50	0xbcc95c79	-0.024580227
51	0x3d97c91e	0.07411407
52	0x3bcd8d75	0.0062729665
53	0xbbe3ad47	-0.0069481465
54	0x3dd18705	0.10230831
55	0x3db4633d	0.08807991
56	0xbdbc09fb	-0.09181591
57	0xbcbed679	-0.023295628
58	0x3d561a9a	0.052271463
59	0x3db77a74	0.08958903
60	0xbe104071	-0.14087082
61	0x3d91a3ff	0.07111358
62	0x3dff75b3	0.12473621
63	0xbc59fe99	-0.01330533
64	0x3dcc081b	0.099624835
65	0x3e20a6ef	0.1568868
66	0xbc2f8de2	-0.01071498
67	0xbddda755	-0.10822932
68	0xbd2b9074	-0.041885808
69	0xbdc04c7b	-0.093895875
70	0xbcdea722	-0.027179305
71	0x3cb57d02	0.022154335
72	0xbd52d009	-0.05146793
73	0xbc9c44d3	-0.019075787
74	0xbd4c4705	-0.049872417
75	0x3d1851cf	0.037187394
76	0x3da40abd	0.08009861
77	0x3c3adca6	0.011405146
78	0xbe194a28	-0.14969695
79	0xbdba40ab	-0.09094366
80	0x3d3b38b7	0.045708384
81	0xbdbfdfdb	-0.09368869
82	0xbdfb8e81	-0.1228304
83	0xbdefd486	-0.117104575
84	0xbd95b8a3	-0.07310607
85	0xbd71eb21	-0.059062127
86	0xbd1eb8bd	-0.0387504
87	0xbdd54634	-0.10413781
88	0xbd20421d	-0.03912555
89	0xbd9c0a79	-0.07619185
90	0xbd866ff3	-0.06564321
91	0xbd9f8622	-0.07789256
92	0xbd7c8884	-0.06165363
93	0xbdf9796c	-0.121813625
94	0x3b0c01dd	0.0021363415
95	0xbe17679b	-0.14785616
96	0xbcd238de	-0.025661882
97	0xbdceda5a	-0.10100241
98	0xbc875a28	-0.016522482
99	0xbdee7446	-0.11643271
100	0xbe1fc608	-0.15602887
101	0xbdc55682	-0.09635641
102	0xbd3156dc	-0.043295726
103	0xbd096bef	-0.0335502
104	0xbddf64a0	-0.109078646
105	0xbcaea38c	-0.02131822
106	0x3d2cf6b6	0.04222747
107	0x3d781987	0.06057122
108	0xbd9e3374	-0.07724658
109	0x3d03f13c	0.03221248
110	0xbd0f068a	-0.034918346
111	0xbdd482a1	-0.10376478
112	0xbb133e54	-0.002246757
113	0x3d99d155	0.0751063
114	0x3cc66ee8	0.024222806
115	0xba9e4157	-0.0012073916
116	0xbd8d67a8	-0.069045365
117	0x3d482044	0.048858896
118	0xbc8d5032	-0.017250154
119	0xbc2cee21	-0.010554821
120	0xbd97c62b	-0.074108444
121	0x3cf715b7	0.030161722
122	0x3c4d4190	0.012527838
123	0xbcb7e4f2	-0.022448037
124	0x3a374a19	0.00069919374
125	0x3daa4b90	0.08315194
126	0x3bf24990	0.0073940232
127	0xbc8b5e73	-0.01701281
128	0x3d335f7f	0.043792244
129	0x3e0a0360	0.1347785
130	0xbd06c877	-0.032906022
131	0x3d80ce81	0.062893875
132	0x3ddaaad9	0.10677118
133	0x3cc64cc3	0.024206525
134	0x3d831f22	0.064024225
135	0xbb96732e	-0.004591367
136	0x3d6bc007	0.05755618
137	0x3962d9c4	0.00021634164
138	0x3cdebecc	0.027190588
139	0x3dccf23f	0.10007142
140	0xbd7896dc	-0.060690746
141	0x3dfef85e	0.12449716
142	0x3c948533	0.01812992
143	0xbb0fed2b	-0.0021961431
144	0x3e3b0e4e	0.18267176
145	0x3e04472f	0.1291778
146	0x3bcc0a40	0.006226808
147	0x3cd0756c	0.025446616
148	0x3d6fe642	0.0585692
149	0x3cb8f4a7	0.022577597
150	0x3e08aed5	0.13347943
151	0x3de57e41	0.11205722
152	0x3dc59892	0.09648241
153	0x3df54e54	0.119778305
154	0x3dac45d1	0.08411754
155	0x3e050099	0.12988509
156	0x3de2e6d0	0.1107918
157	0x3dc6729c	0.09689829
158	0x3e1d0cec	0.1533696
159	0x3e03cd3e	0.12871262
160	0x3dba29ea	0.09090026
161	0x3da19c30	0.078911185
162	0x3e4193ff	0.18904112
163	0x3e51b512	0.20479229
164	0x3e01b3da	0.12666264
165	0x3e5d9af9	0.21641149
166	0x3dbf33f1	0.09336079
167	0x3de274fb	0.110574685
168	0x3e12acef	0.14323781
169	0x3df426a6	0.11921434
170	0xbc021546	-0.007939642
171	0xbc7952f4	-0.0152175315
172	0x3d9274b7	0.07151168
173	0x3df030f9	0.11728091
174	0x3da6160c	0.08109674
175	0x3d7eb9a3	0.062188756
176	0x3db98812	0.090591565
177	0x3d7def7f	0.06199598
178	0x3db0f00c	0.08639535
179	0x3e3a9592	0.18221119
180	0x3e29ace4	0.16569859
181	0xbb968823	-0.0045938655
182	0x3cdc2e5d	0.026877576
183	0x3d69d294	0.05708559
184	0x3d40450b	0.046940845
185	0x3e0cddbe	0.13756463
186	0x3d8fb030	0.07016027
187	0x3e0e9271	0.1392305
188	0x3da9bf8e	0.08288489
189	0x3d63c334	0.055606082
190	0x3d7acd3c	0.061230883
191	0x3da81f6e	0.0820912
192	0x3d9e5581	0.07731152
193	0x3e0bcca4	0.13652283
194	0x3dd1cef6	0.10244553
195	0x3d142427	0.03616729
196	0x3d7ca9ae	0.061685257
197	0x3cc29e3d	0.023757095
198	0xba83f9c4	-0.0010068943
199	0x3ddb2f59	0.1070239
200	0x3d19fd9a	0.03759537
201	0x3da5f482	0.08103277
202	0xbd1b121a	-0.03785906
203	0x3c26d364	0.010182235
204	0x3dbcaf1a	0.092130855
205	0x3db73578	0.08945745
206	0x3d532b69	0.05155507
207	0x3cf3e595	0.02977256
208	0xbd90d09c	-0.07071039
209	0x3bc8be84	0.006126227
210	0x3dca7fa7	0.09887629
211	0xbc7d5e0e	-0.015464319
212	0x3c5e556f	0.013570174
213	0xbbcc73e6	-0.006239402
214	0x3d372599	0.04471359
215	0x3c45044b	0.012024949
216	0x3e02fa8a	0.12790886
217	0x3dc57485	0.09641365
218	0xbd115118	-0.035477728
219	0x3db6c6f9	0.0892467
220	0x3d6768f1	0.056496564
221	0xbd45596f	-0.048180994
222	0xbbe7d66a	-0.0070751207
223	0x3ca6ab32	0.020345304
224	0xbc6eb246	-0.014568871
225	0xbc8f11a1	-0.01746446
226	0xbcc81d5b	-0.02442806
227	0xbd197cd7	-0.037472572
228	0xbd997149	-0.074923106
229	0x3ce4c4a4	0.027925797
230	0x3da192ce	0.07889329
231	0xbd05e31e	-0.0326873
232	0x3dd9ef33	0.10641327
233	0xb95df6d0	-0.00021168147
234	0x3dc16983	0.09443953
235	0x3d827c15	0.06371323
236	0x3b11d106	0.0022249832
237	0x3dbf0674	0.09327403
238	0xbd814852	-0.06312622
239	0xbb9076c5	-0.0044086897
240	0xbd1b2c2c	-0.037883922
241	0x3e0c026b	0.13672797
242	0x3d437570	0.04771942
243	0xbd3ca740	-0.04605794
244	0x3b71826f	0.0036851426
245	0x3c465ee6	0.0121075865
246	0xbc9073c0	-0.017633319
247	0x3d3577b2	0.044303603
248	0x3d8c439b	0.06848832
249	0xbc9088c3	-0.017643338
250	0x3dd3a92b	0.103350006
251	0xbc25101d	-0.0100746425
252	0x3dd80965	0.10548667
253	0x3d948fe1	0.07254005
254	0x3dee0e10	0.11623776
255	0x3e14d96a	0.14536062

encoder.layers.0.bias f4 [64]
0	0x3d1ab6ab	0.037771862
1	0x3d0b68c2	0.03403545
2	0x3d40bc55	0.047054607
3	0x3ca889ce	0.020573523
4	0x3cd304f5	0.0257592
5	0x3d5df483	0.054188263
6	0x3d40f4dd	0.04710852
7	0x3d6920be	0.05691599
8	0x3d1c8718	0.038214773
9	0x3d9ace87	0.07558923
10	0x3ce4cbbe	0.027929183
11	0x3d8d4ab0	0.06899011
12	0x3d322e8e	0.04350143
13	0x3d0ecbd5	0.034862358
14	0x3d0ef8c6	0.034905218
15	0x3d56687b	0.052345734
16	0x3d39aef1	0.045332853
17	0x3d43a09d	0.047760595
18	0x3d43f22f	0.047838386
19	0x3d352e12	0.04423339
20	0x3d7d7da7	0.06188741
21	0x3d1c89c1	0.03821731
22	0x3d011236	0.031511508
23	0x3d925093	0.071442746
24	0x3d9e89de	0.0774114
25	0x3ce87f35	0.02838097
26	0x3d3655e8	0.04451552
27	0x3d4129e8	0.047159106
28	0x3d26fd28	0.040768772
29	0x3d878ced	0.06618676
30	0x3cc39234	0.023873426
31	0xbd3f320f	-0.0466786
32	0x3d450355	0.04809888
33	0x3da7950e	0.08182727
34	0x3de4e09f	0.111756556
35	0xbd67c1d2	-0.056581326
36	0x3d0c749c	0.034290895
37	0x3d94b8f5	0.0726184
38	0x3d00408e	0.031311564
39	0x3cfa8526	0.030581068
40	0x3caa98a4	0.020824738
41	0x3db0c0ee	0.086305484
42	0x3d57fdd4	0.052732304
43	0x3d0cf1af	0.034410175
44	0x3d498860	0.049202323
45	0x3c8bd42e	0.017068949
46	0x3d35b2be	0.044359915
47	0xbd47c70b	-0.048773807
48	0x3cf6e6d5	0.030139366
49	0x3c1eeb35	0.009699632
50	0x3d029a49	0.03188542
51	0x3d5bd4ae	0.053669624
52	0x3cd0b8e7	0.025478793
53	0x3d05ed20	0.032696843
54	0x3d633a42	0.05547548
55	0xbd3687db	-0.044563156
56	0x3d2a9346	0.041644357
57	0x3db0e397	0.08637159
58	0x3d595e3c	0.053068385
59	0x3d55f537	0.05223581
60	0x3d543cd5	0.051815826
61	0x3d018acd	0.03162651
62	0x3d536c79	0.05161712
63	0x3d9254a5	0.07145051

encoder.layers.2.weight f4 [32, 64]
0	0x3d99b078	0.07504362
1	0x3d939c97	0.072076015
2	0x3da5dcb2	0.08098735
3	0xbdb77f57	-0.08959835
4	0xbe037c53	-0.12840395
5	0x3e00da6c	0.12583321
6	0xbd1f842b	-0.038944405
7	0xbda7e382	-0.081976905
8	0x3dacdf44	0.08441022
9	0xbb255146	-0.0025225445
10	0xbdabf3be	-0.083960995
11	0xbdb0cfa8	-0.08633357
12	0x3e236d3e	0.15959641
13	0xbc535c7d	-0.012900469
14	0x3d85b7ff	0.06529235
15	0x3de0cc05	0.10976414
16	0x3d8ab8ba	0.06773515
17	0xbdb04d4f	-0.086084954
18	0x3e72e5ee	0.23720524
19	0x3e7ee7f8	0.24893177
20	0xbcfb9090	-0.030708581
21	0xbde189c0	-0.11012602
22	0x3cb3fae3	0.021970218
23	0x3daf2a14	0.08552948
24	0x3cd828b9	0.026386606
25	0x3e408d3b	0.18803875
26	0x3e65cfd0	0.22442555
27	0x3e3bbc51	0.18333556
28	0x3e8af090	0.2713666
29	0x3dbbae4a	0.091641024
30	0x3d982c0f	0.074302785
31	0xbde88ff2	-0.113555804
32	0x3e6870ca	0.22699276
33	0x3dc25a27	0.094898514
34	0x3e0e6e8b	0.13909356
35	0x3df104d0	0.11768496
36	0x3c0c1df6	0.008552065
37	0xbb3dcdcc	-0.0028961776
38	0x3d4bf1be	0.04979109
39	0x3e584be9	0.21122707
40	0xbdfe47ac	-0.12416014
41	0x3d6fd7b7	0.05855533
42	0x3dd64890	0.10463059
43	0xbdbc440f	-0.09192669
44	0x3e43d930	0.19125819
45	0xbd86fdd4	-0.065913826
46	0x3e515f50	0.20446515
47	0x3dc21cb4	0.09478131
48	0x3e578f5d	0.21050783
49	0xbdb20f57	-0.08694332
50	0xbd1707d7	-0.03687271
51	0x3e7f4607	0.24929057
52	0xbe151e98	-0.14562452
53	0x3e6c6274	0.23084432
54	0x3e3d0e40	0.18462467
55	0xbddb28c6	-0.10701136
56	0x3d257984	0.04039909
57	0xbc11cb19	-0.00889852
58	0x3d2418d2	0.040062733
59	0x3d625a38	0.05526182
60	0x3dda05d5	0.106456436
61	0x3d990d44	0.07473233
62	0x3d978d10	0.073999524
63	0xbdaa85ce	-0.083263025
64	0xbd04334a	-0.032275476
65	0x3ea4b9f2	0.32173115
66	0x3d543023	0.05180372
67	0xbc7036d6	-0.014661511
68	0xbb62c6b8	-0.003460331
69	0xbcb05e70	-0.021529406
70	0xbe0dc0c4	-0.13843066
71	0xbd8d04e6	-0.068857
72	0x3e714bc0	0.23564053
73	0xbc4c6309	-0.012474784
74	0xbd82cdd3	-0.06386914
75	0x3dfcbcb1	0.123406775
76	0x3e83ba83	0.25728235
77	0xbe27ce12	-0.16387203
78	0x3db335d7	0.087505035
79	0xbcd9c206	-0.026581775
80	0x3e745698	0.23861158
81	0xbdd439dd	-0.10362599
82	0x3e843d0b	0.25827822
83	0x3d5b3f83	0.053527366
84	0xbcf23b12	-0.029569183
85	0x3cecc11d	0.028900677
86	0xbe1fdb2c	-0.15610951
87	0xbda0643d	-0.07831619
88	0xbdf9bcbf	-0.121942036
89	0x3e3d338e	0.18476698
90	0x3e9a5c14	0.30148375
91	0x3d851714	0.064985424
92	0x3e12a275	0.14319785
93	0x3dce0fa4	0.10061577
94	0x3e190964	0.14944988
95	0x3db56925	0.08857945
96	0x3d9273f1	0.0715102
97	0x3c0308bb	0.007997687
98	0x3dbd7729	0.092512436
99	0xbdbeddc1	-0.0931964
100	0x3da1d834	0.079025656
101	0x3d82122f	0.063511245
102	0x3e01a0a9	0.12658943
103	0x3e225b32	0.15855101
104	0x3b8fd4ca	0.00438938
105	0x3d8c01a3	0.0683625
106	0x3e6db110	0.23212075
107	0x390af2b0	0.00013251114
108	0x3e9b5907	0.3034136
109	0x3c9e62a7	0.01933415
110	0x3ea45160	0.32093334
111	0x3c72cd68	0.0148194805
112	0x3ea8889a	0.3291672
113	0xbd9c4414	-0.07630172
114	0xbdbf9819	-0.09355182
115	0x3e7cd019	0.24688758
116	0x3d2f5af7	0.04281136
117	0x3e347846	0.17624006
118	0x3e12cc68	0.14335787
119	0x3d66499e	0.05622255
120	0xbe1b5f9a	-0.15173188
121	0x3cea88e7	0.028629733
122	0xbe0d1e34	-0.13781053
123	0x3e86b9db	0.2631367
124	0x3e8cce52	0.2750116
125	0x3e74bc18	0.23899877
126	0x3e7c539f	0.24641274
127	0xbc49fa07	-0.012327678
128	0x3d8e6b55	0.06954066
129	0xbe600d05	-0.21879967
130	0xbe383c03	-0.17991643
131	0x3e62bc25	0.22142084
132	0x3e21a10b	0.1578409
133	0x3e1ce91e	0.15323302
134	0x3e5bf692	0.21480778
135	0x3e161e1f	0.14659928
136	0xbe216488	-0.15761006
137	0x3dbe6b7a	0.09297843
138	0x3db8e1a2	0.09027411
139	0xba7dbc5a	-0.00096792507
140	0xbe8081b7	-0.25098965
141	0x39260dd0	0.00015836139
142	0xbe7c1f2b	-0.24621265
143	0x3d5c12fe	0.05372905
144	0xbdb8b901	-0.09019662
145	0xbbd64d67	-0.006539989
146	0xbe42906c	-0.19000405
147	0xbe1972a3	-0.14985137
148	0x3e586cae	0.21135208
149	0x3e0f1e4e	0.13976404
150	0x3e7dd9e1	0.24790145
151	0x3c38a350	0.0112694055
152	0x3e452788	0.19253361
153	0xbe5653fd	-0.20930476
154	0xbe6b44dc	-0.22975487
155	0xbe908430	-0.2822585
156	0xbe1096f9	-0.14120091
157	0x3e23f05d	0.1600966
158	0xbd87c54b	-0.066294275
159	0xbbb5b163	-0.005544828
160	0xbe8638e5	-0.26215282
161	0x3d7572c3	0.0599239
162	0x3e34f864	0.17672879
163	0x3d8db273	0.06918802
164	0x3e00dd83	0.125845
165	0x3e53ff7f	0.20702933
166	0xbd34b9a1	-0.044122342
167	0xbe39bc02	-0.18138126
168	0x3dce2c42	0.10067035
169	0xbd045528	-0.032307774
170	0xbdf21687	-0.11820703
171	0x3c364547	0.011124915
172	0xbd05203b	-0.03250144
173	0x3e21956b	0.15779655
174	0xbe4f38cf	-0.20236515
175	0x3de7a018	0.11309832
176	0xbe92acfe	-0.28647608
177	0x3eb8c046	0.36084193
178	0x3b381e32	0.002809417
179	0xbded6049	-0.115906306
180	0x3e6dafb1	0.23211552
181	0xbe15f022	-0.14642385
182	0xbda71031	-0.08157385
183	0xbdc186a0	-0.09449506
184	0x3e3ef9ff	0.18650053
185	0x3d82e3e9	0.06391127
186	0x3e75d943	0.2400866
187	0xbe524fbc	-0.20538229
188	0xbce29339	-0.027658092
189	0xbe6af239	-0.22943963
190	0xbe37b743	-0.17941003
191	0x3e61125f	0.21979664
192	0x3e1e86d0	0.15481114
193	0xbe901db2	-0.28147656
194	0xbe7520a0	-0.23938227
195	0xbd956896	-0.07295339
196	0x3db4907d	0.088166215
197	0x3d9ee842	0.077591434
198	0x3e1d1260	0.15339041
199	0x3e4ccf37	0.20000921
200	0xbd3ed6ff	-0.046591755
201	0x3dd68b02	0.104757324
202	0x3d892689	0.06696803
203	0x3bb8498f	0.0056240032
204	0xbe865934	-0.26239932
205	0x3ddb8e00	0.10720444
206	0xbe60690a	-0.21915069
207	0xbc5d8c05	-0.013522153
208	0xbe56bfe3	-0.20971636
209	0x3d941902	0.07231332
210	0xbe7b30be	-0.24530312
211	0xbe5ae38a	-0.21375862
212	0x3c1aec61	0.009455771
213	0x3daa325a	0.08310385
214	0x3e125479	0.14290036
215	0x3dcfe3a0	0.10150838
216	0xbc97d5e0	-0.0185346
217	0xbd411428	-0.047138363
218	0xbe1e0236	-0.15430531
219	0xbda55a87	-0.08073907
220	0xbd70d817	-0.05879983
221	0xbc8525bb	-0.016253343
222	0xbdb238f8	-0.08702272
223	0x3d934bc4	0.071921855
224	0xbde5dcaf	-0.11223733
225	0x3e03e955	0.12881978
226	0x3ddfc7a3	0.109267496
227	0x3db4c659	0.08826894
228	0x3e272e12	0.16326168
229	0x3db4b80f	0.08824169
230	0xbe82eaf6	-0.25569886
231	0xbe83c5ea	-0.25736934
232	0x3e952ce7	0.2913582
233	0x3dad5fcc	0.084655374
234	0xbd2332bd	-0.03984331
235	0xbd026bcf	-0.031841096
236	0xbde79871	-0.11308373
237	0x3e796d1a	0.24358025
238	0xbe3fd19e	-0.18732306
239	0xbc79ee08	-0.015254505
240	0xbe3fb51a	-0.18721429
241	0x3dc94ea2	0.09829451
242	0x3e647e81	0.22313882
243	0xbdcfc168	-0.10144311
244	0x3dc83558	0.097757995
245	0x3cdea768	0.027179435
246	0xbe61a254	-0.2203458
247	0x3d92e54d	0.07172642
248	0x3e310074	0.17285329
249	0x3dc5ae90	0.09652436
250	0x3b5cfed0	0.0033721216
251	0xbe8a5f89	-0.27026013
252	0xbe2ab70e	-0.16671392
253	0xbdd9fa52	-0.10643448
254	0xbe7de82d	-0.247956
255	0x3bff9ca8	0.0078006573

encoder.layers.2.bias f4 [32]
0	0x3cb76356	0.022386234
1	0x3de58fd3	0.11209073
2	0x3dfa39c6	0.12218051
3	0x3e03d89b	0.12875597
4	0x3d89cee3	0.06728914
5	0x3dfade67	0.12249451
6	0x3d9b2b26	0.07576589
7	0xbddab330	-0.106787086
8	0x3d409f21	0.047026757
9	0x3d73d9e0	0.059533954
10	0x3dec2b18	0.11531657
11	0xbd8858d0	-0.06657565
12	0xbcd88958	-0.026432678
13	0x3d528936	0.051400386
14	0x3da39f85	0.0798941
15	0x3e1b406d	0.15161295
16	0x3d8d887e	0.069107994
17	0x3d47a52c	0.048741505
18	0x3e136d54	0.14397174
19	0x3c67011b	0.014099385
20	0x3ce233a4	0.027612515
21	0x3d050afa	0.03248117
22	0xbceef119	-0.029167699
23	0x3e27ac32	0.16374281
24	0xbdb843d8	-0.08997315
25	0x3dfaae3b	0.12240263
26	0xbd187d8a	-0.0372291
27	0xbdabcdf8	-0.08388895
28	0x3e14cf2b	0.14532153
29	0x3dd64e79	0.10464186
30	0x3e1374ba	0.14399996
31	0xbdad1a32	-0.08452262

encoder.layers.4.weight f4 [16, 32]
0	0xbdd1a4f3	-0.1023654
1	0xbe53c895	-0.20681985
2	0x3e3e0fde	0.1856074
3	0x3e3260d0	0.17419744
4	0x3d1129c1	0.03544021
5	0xbc601c3b	-0.013678606
6	0x3d8ac650	0.06776106
7	0xbdcde634	-0.100536734
8	0xbd038a10	-0.03211409
9	0xbe672df6	-0.22576126
10	0x3d7f492c	0.06232564
11	0x3dd878b3	0.105698965
12	0x3bdbfd7d	0.006713568
13	0x3c5589e8	0.013033368
14	0x3cbb4d8e	0.02286413
15	0x3ce65269	0.028115468
16	0xbe37a83c	-0.1793527
17	0x3e78d294	0.24299079
18	0x3e8ed762	0.278987
19	0xbd79b9d5	-0.06096824
20	0xbe2260c4	-0.15857226
21	0xbb0bec28	-0.0021350477
22	0xbe12afc6	-0.14324865
23	0xbd1dde3f	-0.03854203
24	0xbcc17958	-0.023617432
25	0x3d3c1b8b	0.045924705
26	0x3d8a6561	0.06757618
27	0x3b11e5bc	0.0022262176
28	0x3dd8891d	0.10573027
29	0x3e7e7642	0.248498
30	0x3e8f66e9	0.28008202
31	0xbe06c099	-0.13159408
32	0x3bbf93db	0.005846483
33	0xbe1ae85e	-0.15127704
34	0xbcc93274	-0.02456019
35	0x3ca612ba	0.020272601
36	0xbe394fd9	-0.18096866
37	0xbe15ed74	-0.14641362
38	0xbe2aeb3e	-0.166913
39	0xbc903386	-0.017602693
40	0xbea127d6	-0.31475705
41	0xbdeba098	-0.1150524
42	0xbe44bdf2	-0.19213083
43	0xbe30df53	-0.17272691
44	0xbe39e6b4	-0.18154413
45	0xbd817c6d	-0.063225605
46	0xbe277507	-0.16353236
47	0xbea095a1	-0.31364158
48	0x3ba79744	0.005114468
49	0xbe62dd39	-0.22154702
50	0xbd7f81fb	-0.06237982
51	0xbdd2ade4	-0.10287073
52	0xbc29415a	-0.010330522
53	0x3e06e0c6	0.13171682
54	0x3d5bd125	0.053666253
55	0xbe287876	-0.16452202
56	0xbd8a9d52	-0.06768288
57	0xbcfd07d1	-0.030887516
58	0xbe1267a6	-0.14297351
59	0x3e076b3b	0.13224499
60	0x3cce5373	0.025186276
61	0xbde33953	-0.11094918
62	0xbea5151d	-0.3224267
63	0xbca7eb5d	-0.020497972
64	0x3e5c124c	0.21491355
65	0x3e6ead77	0.23308359
66	0xbe62afbf	-0.22137354
67	0x3b670dd6	0.003525605
68	0x3deb83b0	0.11499727
69	0xbe8d6a37	-0.27620098
70	0xbe578907	-0.21048366
71	0xbd11bf87	-0.035583045
72	0xbe3afa74	-0.18259603
73	0x3e529d76	0.20567879
74	0xbccd53fe	-0.025064465
75	0x3db17d93	0.086665295
76	0xbda4c7a8	-0.08045894
77	0x3d97e0de	0.07415937
78	0xbe5e48e9	-0.217075
79	0xbe7c6793	-0.24648885
80	0x3e7d10b8	0.24713409
81	0xbb5f8754	-0.0034107761
82	0xbd17d9a9	-0.03707281
83	0x3db7e97f	0.08980083
84	0x3e163004	0.14666754
85	0x3e792f88	0.24334538
86	0x3cc67864	0.024227329
87	0xbe451daa	-0.19249597
88	0xbe2abf99	-0.16674651
89	0xbd109c4d	-0.03530531
90	0x3d892536	0.066965505
91	0x3da909ee	0.08253847
92	0xbe63dbb3	-0.22251777
93	0xbe474c3f	-0.1946268
94	0xbe8cc1c5	-0.27491584
95	0x3db27ac4	0.08714822
96	0x3e2587e2	0.16165116
97	0x3d2ac173	0.041688394
98	0xbe5aec35	-0.21379168
99	0xbe84520f	-0.25843856
100	0x3db71f06	0.08941464
101	0xbe0fa263	-0.1402679
102	0xbe8003df	-0.25002953
103	0xbdb52f36	-0.088468954
104	0xbe6d1379	-0.2315196
105	0x3ea49360	0.32143688
106	0xbe456ab1	-0.19278981
107	0x3d380259	0.044924114
108	0x3e3ba2fd	0.18323894
109	0x3cb35683	0.021891838
110	0xbe8bf1df	-0.2733297
111	0x3d0f7af4	0.035029367
112	0x3ea2212a	0.31665927
113	0xbe4d8b89	-0.2007276
114	0xbe880792	-0.26568276
115	0x3ebe307a	0.3714636
116	0x3e80a80d	0.25128213
117	0x3e3ea851	0.18618895
118	0x3dddca26	0.108295724
119	0xbb7f3428	-0.0038941
120	0xbcebc035	-0.028778175
121	0xbe82b4f3	-0.25528678
122	0xbd07b68e	-0.033133082
123	0xbdce2aa6	-0.10066728
124	0xbda7292a	-0.08162148
125	0x3d2fe20d	0.04294019
126	0xbe6e0164	-0.23242718
127	0xbdecd73c	-0.1156449
128	0xbd26cccc	-0.040722653
129	0xbe14bb5e	-0.145246
130	0xbe200bfa	-0.15629569
131	0xbd88c399	-0.06677932
132	0xbe271a7a	-0.16318694
133	0xbe93940d	-0.2882389
134	0xbcf73210	-0.030175239
135	0x3e2b5ec3	0.16735367
136	0xbeaa448d	-0.33255425
137	0xbe471f89	-0.19445623
138	0xbd79c1e9	-0.060975943
139	0x3e015ffc	0.12634271
140	0xbd117ab7	-0.03551742
141	0xbe3ca27c	-0.18421358
142	0xbe8a10b7	-0.26965877
143	0xbe7ed6a5	-0.24886568
144	0x3d499098	0.04921016
145	0xbe859849	-0.26092747
146	0xbdbcaa28	-0.09212142
147	0x3da01687	0.07816797
148	0x3d3cfb64	0.046138182
149	0xbd3e74b3	-0.04649801
150	0x3df0a783	0.117507
151	0xbc5e6dbc	-0.013575967
152	0x3d98be72	0.074581996
153	0xbd3e4543	-0.046452772
154	0xbca68b4c	-0.020330094
155	0xbe1d077d	-0.15334888
156	0xbe85d2d4	-0.26137412
157	0xbe5c8058	-0.21533334
158	0xbe5d36b9	-0.21602906
159	0x3ded4331	0.11585081
160	0x3d8a7a3d	0.06761596
161	0x3d63a3b4	0.05557604
162	0xbd93e31c	-0.07221052
163	0xbd64090c	-0.05567269
164	0x3e9c0794	0.30474532
165	0xbe1cfb3d	-0.15330215
166	0xbde01e63	-0.10943296
167	0xbd318336	-0.043338023
168	0x3d185f5b	0.037200313
169	0xbc59f2e5	-0.0133025395
170	0x3cb9db14	0.022687472
171	0xbe29b68d	-0.16573544
172	0x3e162905	0.14664085
173	0x3df93c54	0.1216971
174	0x3d4861ad	0.048921276
175	0xbdb23c62	-0.08702923
176	0xbd1bf122	-0.03807176
177	0xbe1b628c	-0.15174311
178	0x3cd0ca9b	0.025487235
179	0x3d973a55	0.07384173
180	0x3dec24f4	0.11530486
181	0xbca4ad49	-0.02010216
182	0xbd90f7c1	-0.07078505
183	0xbe7678b7	-0.24069487
184	0xbded1115	-0.11575524
185	0xbd869125	-0.06570653
186	0x3d3fd326	0.046832226
187	0x3d208c40	0.039196253
188	0xbe3cfdf0	-0.18456244
189	0xbdb99495	-0.09061543
190	0x3d2c6954	0.042092636
191	0x3d83cc2a	0.064354256
192	0xbde2d681	-0.110760696
193	0xba279cd6	-0.0006393915
194	0xbd5cc6f7	-0.053900685
195	0x3e90e239	0.28297594
196	0x3d524ac2	0.051340826
197	0xbd3cd03a	-0.046097018
198	0x3e6edade	0.23325679
199	0xbdc1d461	-0.09464336
200	0x3e860358	0.26174426
201	0xbe8c1a75	-0.27363935
202	0x3e4addf3	0.1981123
203	0xbe0ce115	-0.13757737
204	0xbe2d2755	-0.16909535
205	0xbe0115d0	-0.12605977
206	0x3e1ca69e	0.15297934
207	0x3d3f5d85	0.046720047
208	0xbe11e63e	-0.14247987
209	0x3e4fbe1d	0.20287366
210	0x3d5fb614	0.054617003
211	0xbe31621e	-0.17322585
212	0x3d572749	0.0525277
213	0xbe7e03d0	-0.24806142
214	0x3bd7c356	0.006584565
215	0x3e122fba	0.14276019
216	0xbd8ae903	-0.06782725
217	0x3d190b0e	0.03736406
218	0xbe02aaa1	-0.12760402
219	0x3cd37604	0.02581311
220	0x3e2f3f93	0.17114095
221	0x3d15bea9	0.03655878
222	0x3dfc9da9	0.12334759
223	0x3e0348f3	0.12820797
224	0x3e8e09fc	0.27741992
225	0x3e3eaa49	0.18619646
226	0x3b963eba	0.0045851143
227	0xbe256271	-0.16150834
228	0x3e350b9c	0.1768021
229	0xbd760c6a	-0.060070433
230	0xbe5d1e93	-0.21593694
231	0x3da6b59e	0.081401095
232	0xbd503614	-0.050832823
233	0x3e0a3879	0.13498105
234	0x3d4049ef	0.04694551
235	0x3e04165f	0.12899159
236	0xbcf0e291	-0.02940491
237	0x3c1acf65	0.009448861
238	0xbe397efa	-0.18114844
239	0xbe749f14	-0.23888808
240	0xbd064954	-0.032784775
241	0xbeb14351	-0.3462167
242	0xbe3b8b77	-0.1831492
243	0x3e8ca5f9	0.27470377
244	0xbd29fab9	-0.041498873
245	0x3de1ca51	0.11024917
246	0xbd178f1d	-0.037001718
247	0xbe277ae1	-0.16355468
248	0xbdd71d46	-0.1050363
249	0xbe8f78ee	-0.2802195
250	0xbd988291	-0.074467786
251	0x3da0f03d	0.07858322
252	0xbe41cc00	-0.18925476
253	0xbe65766a	-0.22408453
254	0xbe03f8d2	-0.12887886
255	0xbdd4a88f	-0.103837125

encoder.layers.4.bias f4 [16]
0	0xbdcf7f57	-0.1013171
1	0xbe22036d	-0.1582162
2	0xbe378fd5	-0.17925961
3	0xbe0d3d1d	-0.13792844
4	0xbe2a5a17	-0.16635929
5	0x3b9b8de6	0.00474714
6	0x3d576af6	0.05259224
7	0x3e05f3ff	0.13081358
8	0x3dbc9c15	0.09209458
9	0xbcf39a75	-0.029736737
10	0xbd61b63d	-0.055105437
11	0x3e091815	0.13388093
12	0x3e3cecc3	0.18449692
13	0x3e4dec53	0.20109682
14	0xbdcfbcad	-0.10143409
15	0x3c88d5b9	0.016703473

classifier.layers.0.weight f4 [16, 160]
0	0x3d4b600d	0.049652148
1	0xbd143a13	-0.036188196
2	0xbe0464d3	-0.12929086
3	0x3d8772fd	0.06613729
4	0xbd970ee3	-0.07375886
5	0xbdb45d20	-0.08806825
6	0x3d35ba48	0.044367105
7	0xbbc2f916	-0.0059501035
8	0x3d399395	0.04530676
9	0xbbf9c2f8	-0.007622119
10	0x3c7c379c	0.015394118
11	0xbe13e2c1	-0.14441969
12	0x3d145807	0.036216762
13	0xbd085318	-0.03328237
14	0x3e157fde	0.14599559
15	0x3bb539f0	0.0055305883
16	0x3daeb6bd	0.08530948
17	0xbc33015c	-0.010925617
18	0xbdbcbacc	-0.09215316
19	0x3d8e9fb4	0.06964055
20	0xbc88a1bf	-0.016678689
21	0xbc777440	-0.0151034
22	0x3d741d2a	0.059598126
23	0xbd54def9	-0.051970456
24	0x3d74a829	0.059730683
25	0x3d248f25	0.040175576
26	0xbca28640	-0.019839406
27	0xbd204e8c	-0.039137408
28	0x3dd4f5f0	0.10398471
29	0xbcf39b73	-0.02973721
30	0x3df8b25e	0.12143396
31	0x3d6c2eef	0.057661947
32	0x3d7a97fa	0.061180092
33	0xbd0590fa	-0.032608964
34	0xbd9d23fc	-0.07672879
35	0x3dc9c543	0.09852078
36	0xbd48050f	-0.04883295
37	0xbd172b31	-0.036906425
38	0x3c8738e9	0.016506629
39	0x3dd5f711	0.10447515
40	0x3ccd1e49	0.025038855
41	0x3cd6005b	0.026123216
42	0x3d7b8836	0.061409198
43	0xbdb5f135	-0.08883897
44	0x3d6ee983	0.058328163
45	0xbbc6b89e	-0.0060644886
46	0x3bdb5bc4	0.006694289
47	0x3cb892c7	0.022530926
48	0x3d75893e	0.059945337
49	0x3b1f29e7	0.002428645
50	0xbd382d55	-0.044965107
51	0xba936afc	-0.0011247094
52	0x3d55f000	0.052230835
53	0xbd952393	-0.07282176
54	0x3daf63d1	0.0856396
55	0xbcf643d8	-0.030061647
56	0x3b4e05d5	0.0031436582
57	0x3b96419b	0.0045854575
58	0x3b878eb2	0.0041368837
59	0xbc9f205f	-0.019424615
60	0xbd069a4c	-0.032861993
61	0xbd183939	-0.037163947
62	0x3ddcd526	0.10782842
63	0x3d870cf5	0.06594268
64	0x3c95ea9a	0.018300343
65	0xbc413cc5	-0.011794274
66	0xbcdb6131	-0.026779743
67	0x3d2a576e	0.041587286
68	0xbd962f99	-0.07333297
69	0xbdf537bf	-0.11973523
70	0x3c3ad301	0.011402846
71	0xbd109832	-0.035301395
72	0x3dc3f52d	0.09568248
73	0x3c2aee99	0.010432863
74	0x3d03602d	0.032074142
75	0xbe101a87	-0.1407262
76	0x3d83745f	0.064186804
77	0x3db5452b	0.08851083
78	0x3e09e6d5	0.13466962
79	0x3dd6d03f	0.104889385
80	0x3d3b2c62	0.045696624
81	0x3c3e1d5c	0.0116036795
82	0xbda181ea	-0.07886107
83	0x3d8fdb4a	0.07024248
84	0xbdcad8ce	-0.099046335
85	0xbd7d3d54	-0.061826065
86	0x3dcfe463	0.10150983
87	0xbcf63b24	-0.030057497
88	0xbcf09a0b	-0.029370328
89	0xbd0d15ac	-0.034444496
90	0x3d82bd1e	0.063837275
91	0xbdc4d554	-0.096110016
92	0x3bc22117	0.005924355
93	0x3c7dfe66	0.015502548
94	0x3cd08ede	0.02545875
95	0x3d2e76d5	0.042593796
96	0x3dafe534	0.08588639
97	0x3d5a906e	0.053360395
98	0xbe05a95c	-0.13052887
99	0xbc9943b4	-0.018709041
100	0xbdd11af6	-0.102102205
101	0xbcc56c8b	-0.024099609
102	0x3cdb13df	0.026742874
103	0xbd24cf93	-0.04023702
104	0x3de6189e	0.11235164
105	0x3d4b2c65	0.049602885
106	0x3daf1dac	0.08550581
107	0xbdf7e443	-0.12104084
108	0xbb9eea4f	-0.004849709
109	0x3d1ffd0e	0.03905969
110	0x3db07dfe	0.08617781
111	0x3d9127c1	0.070876606
112	0x3c8f3e88	0.017485872
113	0x3cd56d67	0.026053144
114	0xbda5a3d6	-0.0808789
115	0x3d422401	0.047397617
116	0xbda2c7ba	-0.07948251
117	0xbc7ae882	-0.015314223
118	0x3d755653	0.05989678
119	0x3cda1c1e	0.026624735
120	0xbd53d010	-0.051712096
121	0x3d01deb5	0.03170653
122	0xb928f150	-0.00016111624
123	0x3c990d52	0.01868311
124	0x3d423326	0.04741206
125	0x3d2194a4	0.039448395
126	0x3bfa4d38	0.0076385997
127	0xbd22eabd	-0.039774645
128	0xbd2c9a2c	-0.042139217
129	0x3c5dd7a5	0.013540183
130	0xbda4f434	-0.080543905
131	0x3d0c243c	0.034214243
132	0xbcc9d71e	-0.024638709
133	0xbd1a6e29	-0.037702713
134	0x3d94493a	0.07240529
135	0x38af5b50	8.3616585e-05
136	0xbcd3956d	-0.025828088
137	0x3be55880	0.0069990754
138	0x3dbf1d92	0.09331812
139	0xbd4236bc	-0.04741548
140	0xbb8a69c4	-0.004224034
141	0x3db13242	0.08652164
142	0x3d82e5f0	0.06391513
143	0xbd115e1c	-0.03549014
144	0xbd5774e5	-0.052601714
145	0x3c98fd12	0.01867536
146	0x3c1c2f75	0.009532799
147	0xbd2ed0a7	-0.042679455
148	0xbc950573	-0.018191075
149	0xbc5fc2f2	-0.013657318
150	0x3d222acd	0.0395916
151	0x3d64bbe7	0.05584326
152	0xbb84b797	-0.004050206
153	0x3ca139e8	0.019680932
154	0x3ceb4627	0.028719975
155	0x3b0dcb30	0.0021636002
156	0xbcdd0d36	-0.026983839
157	0xbd62f7ce	-0.055412106
158	0x3defb2b7	0.11704009
159	0xbb4d1f38	-0.0031299125
160	0x3d21f54f	0.039540585
161	0x3b80e1c9	0.0039331657
162	0xbaec2b3b	-0.0018018255
163	0xbc89dbe3	-0.016828483
164	0x3dace527	0.08442145
165	0xbd8f33e2	-0.06992318
166	0xbcb86ea9	-0.022513704
167	0x3df141ac	0.11780104
168	0x3ddc8519	0.10767574
169	0xbe024c28	-0.12724364
170	0x3d9c61a1	0.07635809
171	0xbca3a234	-0.019974805
172	0xbcc3cd55	-0.02390162
173	0x3ba57a8a	0.005050008
174	0x3c33da43	0.010977331
175	0xbc9dafef	-0.01924893
176	0xbc9e0129	-0.019287663
177	0x3d7fffc3	0.062499773
178	0x3c39fb48	0.011351414
179	0x3d7e5524	0.062092915
180	0x3d6c5794	0.05770071
181	0xbd157502	-0.03648854
182	0xbd506505	-0.05087759
183	0xbc76ed1a	-0.015071178
184	0xbceaadc7	-0.028647317
185	0xbd8189e1	-0.063251264
186	0xbba40bcc	-0.005006289
187	0xbc80ab1e	-0.015706595
188	0x3c1ca90c	0.009561788
189	0x3cbf263e	0.023333665
190	0xbd24c60d	-0.04022794
191	0xbbeef75f	-0.0072926725
192	0xbc1016e2	-0.008794518
193	0x3d02e02b	0.031952064
194	0xbdc507e0	-0.09620643
195	0x3ba6ec4b	0.0050940863
196	0x3d905607	0.070476584
197	0x3d7c5490	0.061604083
198	0x3c697f70	0.014251575
199	0xbceae0cb	-0.028671643
200	0x3dacf9be	0.08446072
201	0xbd09aa3d	-0.033609618
202	0xbcaef369	-0.021356301
203	0xbda9c7ce	-0.08290063
204	0x3bfaeaac	0.0076573696
205	0x3d63449b	0.05548535
206	0x3ca33280	0.019921541
207	0x3dbde517	0.09272211
208	0xbc83b197	-0.016075892
209	0x3c869933	0.016430473
210	0xbd6d4890	-0.05793053
211	0xb9a8b1c2	-0.00032175897
212	0x3e08729f	0.13324974
213	0xbda1feeb	-0.0790995
214	0x3c79930d	0.015232814
215	0x3d1b5640	0.03792405
216	0x3db907ef	0.09034716
217	0xbd579a37	-0.052637305
218	0x3db29563	0.087198995
219	0xbd2d5a59	-0.04232249
220	0x3d09d336	0.033648692
221	0x3d95918c	0.073031515
222	0xbca7d8a7	-0.02048905
223	0x3c6a78a2	0.014310988
224	0x3d693e11	0.056943957
225	0xbcc0272d	-0.02345618
226	0xbdbfea1f	-0.09370827
227	0xbc90f7f3	-0.017696356
228	0x3dbbc9c3	0.09169342
229	0xbd49dc5e	-0.049282424
230	0x3c1a5e53	0.009421903
231	0xbd09a1a0	-0.033601403
232	0x3d22a74a	0.03971032
233	0xbe015dd3	-0.12633447
234	0x3da5ea2a	0.08101304
235	0xbd8745bf	-0.066051
236	0x3db8abec	0.090171665
237	0xbd422322	-0.047396787
238	0x3d3fbfe2	0.046813853
239	0x3c961767	0.018321706
240	0xbceb89b1	-0.02875218
241	0x3da3a377	0.07990163
242	0x3c30144a	0.010747025
243	0xbb96417d	-0.0045854435
244	0xbc4c4444	-0.012467448
245	0xbdb92dfd	-0.09041975
246	0x3dd9af7b	0.10629173
247	0x3dae0cf9	0.08498568
248	0x3df34d08	0.11879927
249	0xbde96153	-0.11395516
250	0x3cf3c5e0	0.02975744
251	0xbd53b251	-0.051683728
252	0x3dad9b00	0.084768295
253	0x3d8aef40	0.067839146
254	0x3cac383e	0.021022912
255	0x3d61364e	0.05498343

classifier.layers.0.bias f4 [16]
0	0xbcc78432	-0.024355028
1	0x3df3a297	0.11896246
2	0xbdbb07ea	-0.09132369
3	0x3d8da18f	0.069155805
4	0xbdee431f	-0.11633896
5	0x3ca6a0e8	0.020340398
6	0x3d0ba8e9	0.034096632
7	0x3d9a194b	0.075243555
8	0x3c832575	0.016009072
9	0xbdc0a22a	-0.0940593
10	0x3ce6eef3	0.028190112
11	0x3ae95870	0.0017802846
12	0xbd3aeaa2	-0.04563392
13	0xbd3a5d51	-0.04549915
14	0x3d6c3669	0.057669077
15	0xbbce43f2	-0.006294721

classifier.layers.2.weight f4 [5, 16]
0	0xbd7e6d96	-0.062116228
1	0x3e59fbf2	0.21287516
2	0xbe7c8796	-0.24661097
3	0xbc9a7016	-0.018852275
4	0xbdf469ac	-0.11934218
5	0xbd9ae01e	-0.07562278
6	0xbe18e363	-0.14930491
7	0xbd505971	-0.050866548
8	0xbe5bec36	-0.21476826
9	0x3defa274	0.11700907
10	0x3da18c88	0.07888132
11	0x3e126379	0.14295758
12	0x3dfec7af	0.124404304
13	0x3e6fb66d	0.23409434
14	0xbdf727ba	-0.12068124
15	0x3e1106f5	0.1416281
16	0xbe2cf45d	-0.16890092
17	0xbe3c0cb9	-0.18364228
18	0x3dec86bc	0.11549136
19	0xbe765a86	-0.2405797
20	0xbe6e82bd	-0.2329206
21	0x3e2f77a2	0.1713548
22	0xbd1b4982	-0.0379119
23	0xbe965102	-0.2935868
24	0xbcf82361	-0.030290307
25	0xbe84c502	-0.25931555
26	0x3d71f962	0.05907572
27	0xbd445ab2	-0.047938056
28	0x3d9fec45	0.07808737
29	0x3e7d32ff	0.24726485
30	0xbe21334e	-0.15742227
31	0x3e28ff32	0.165036
32	0x3d2b990f	0.041894015
33	0xbe29a14e	-0.16565439
34	0xbe7329a2	-0.2374635
35	0xbded87b6	-0.115981504
36	0x3c4fa951	0.0126746455
37	0x3e3154f0	0.17317557
38	0xbe0f71a3	-0.14008193
39	0x3e130591	0.14357592
40	0xbd456aa4	-0.048197404
41	0x3d98d795	0.07462994
42	0x3e757e2c	0.23973912
43	0x3d99f103	0.075166725
44	0x3dd9c8ce	0.106340036
45	0x3e88aef5	0.26695982
46	0xbdcaf427	-0.099098496
47	0x3e55fd95	0.20897515
48	0xbd83d548	-0.064371645
49	0x3e68a977	0.22720896
50	0x3e38ac33	0.18034439
51	0xbd3517e6	-0.044212244
52	0xbe2d96fc	-0.16952127
53	0x3e5c07b6	0.21487316
54	0x3e5c247d	0.21498294
55	0xbe4fe05a	-0.20300427
56	0xbda5b26a	-0.080906704
57	0x3c1570d2	0.009121137
58	0x3dde69e2	0.10860039
59	0xbd813b2c	-0.06310114
60	0x3d7ca35d	0.061679233
61	0xbe8f0b77	-0.27938434
62	0xbea6cc95	-0.3257796
63	0x3d978205	0.07397846
64	0x3ddfa6f0	0.10920513
65	0x3e3a34dc	0.18184227
66	0xbc9ff75a	-0.019527126
67	0x3e032b20	0.1280942
68	0x3e4d576d	0.20052882
69	0xbdb5fe4c	-0.08886394
70	0x3e6cd045	0.23126324
71	0xbe329bc5	-0.17442234
72	0xbe5ccf70	-0.21563506
73	0x3e62dabd	0.22153755
74	0xbe4dd24c	-0.20099753
75	0xbe8bc9c7	-0.2730238
76	0xbdb66442	-0.089058414
77	0xbdae7446	-0.08518271
78	0xbe687d18	-0.2270397
79	0x3d09b45b	0.033619266

classifier.layers.2.bias f4 [5]
0	0x3d424f80	0.0474391
1	0x3c5f1b31	0.013617323
2	0xbd865ffe	-0.06561278
3	0x3d12ce39	0.0358412
4	0xbd69b624	-0.05705847

pool.gate_nn.0.weight f4 [16, 16]
0	0xbe398ba4	-0.18119675
1	0x3dbd76ec	0.09251198
2	0x3e2b7066	0.16742095
3	0xbd7376a8	-0.05943933
4	0x3e231222	0.15924886
5	0xbdfb8f44	-0.12283185
6	0x3e058fb2	0.13043097
7	0x3e0a6bde	0.1351771
8	0x3e157f64	0.14599377
9	0xbe75aabe	-0.23990914
10	0x3e6d80d8	0.23193681
11	0x3d39d098	0.045364946
12	0x3e0420f6	0.12903199
13	0xbdc360b4	-0.09539929
14	0x3e328b10	0.1743586
15	0x3d5e4d68	0.05427304
16	0xbe01d062	-0.12677148
17	0xbe380e86	-0.1797429
18	0xbe1f8782	-0.15579036
19	0x3e1fb1d8	0.15595186
20	0x3e3d5f5c	0.18493408
21	0xbe67db02	-0.22642139
22	0xbd659c90	-0.056057513
23	0xbe30f814	-0.17282134
24	0x3e3de6d8	0.18545091
25	0xbe13faba	-0.14451113
26	0xbbd9fd40	-0.006652504
27	0x3e31f5ac	0.17378873
28	0x3e38d388	0.18049443
29	0x3d46ff00	0.04858303
30	0xbdb10dd4	-0.08645216
31	0x36f00000	7.1525574e-06
32	0x3d15c388	0.036563426
33	0xbcca3740	-0.024684548
34	0x3c8b2930	0.016987413
35	0x3a5aa800	0.0008341074
36	0x3c8aa3a0	0.016923726
37	0xbdaaa754	-0.083326966
38	0xbe347d2c	-0.17625874
39	0x3e79a750	0.24380231
40	0xbe4ad720	-0.19808626
41	0x3e6926fe	0.2276878
42	0xbd61e530	-0.05515021
43	0xbe58ed06	-0.21184167
44	0xbd30a7f0	-0.043128908
45	0x3e12e640	0.14345646
46	0x3defcbb8	0.11708778
47	0xbe5e0a8e	-0.21683714
48	0x3e7dff76	0.24804482
49	0xbbf3a9c0	-0.0074360073
50	0xbd80169c	-0.062543124
51	0x3d8e47c8	0.06947285
52	0xbd3144a0	-0.043278337
53	0xbd2fe640	-0.042944193
54	0xbdec3cbc	-0.11535022
55	0x3e27d756	0.16390738
56	0x3d10f6c0	0.03539157
57	0xbe257d2e	-0.16161034
58	0x3e5f4ff2	0.2180784
59	0xbd569178	-0.052384824
60	0xbdb45cf8	-0.08806795
61	0xbe03b9b8	-0.12863815
62	0x3e328c8c	0.17436427
63	0x3e530794	0.2060836
64	0x3e6eaeba	0.2330884
65	0x3dd73724	0.10508564
66	0x3d907f00	0.07055473
67	0xbe28fad6	-0.16501936
68	0x3e0c1b44	0.13682276
69	0x3e56cff6	0.20977768
70	0xbe1fb8bc	-0.15597814
71	0xbc5019e0	-0.012701482
72	0x3e6ef29e	0.23334739
73	0xbe3eca96	-0.18631968
74	0x3e45d372	0.19318941
75	0x3cacc4e0	0.021089971
76	0x3e0d7406	0.1381379
77	0x3ddf677c	0.1090841
78	0x3d06e390	0.032931864
79	0x3d81ed98	0.063441455
80	0x3e7eaf2a	0.24871507
81	0x3db78544	0.08960965
82	0x3e49ed2e	0.19719383
83	0xbe6ccd9c	-0.23125309
84	0xbd8d8628	-0.06910354
85	0x3d8723e8	0.065986454
86	0x3e5e0df6	0.21685013
87	0xbe21594c	-0.1575672
88	0x3d278388	0.040896922
89	0xbe12f292	-0.14350346
90	0xbe778d52	-0.24175003
91	0x3c07d4a0	0.00829044
92	0xbde4bd24	-0.11168888
93	0xbe153070	-0.14569259
94	0xbdaa46a4	-0.08314255
95	0xbe2c5c30	-0.16832042
96	0x3de1d3d8	0.11026734
97	0x3e5cd488	0.21565449
98	0xbc64d260	-0.013966173
99	0x3e6ff026	0.23431453
100	0x3e7614c2	0.24031356
101	0x3dabf818	0.083969295
102	0x3e597da2	0.21239331
103	0xbcd13ed0	-0.025542647
104	0x3e4a9758	0.19784296
105	0x3d95b7b8	0.07310432
106	0x3e1dd4d8	0.15413225
107	0xbd30e518	-0.04318723
108	0xbe39cee4	-0.18145329
109	0x3e5c6880	0.21524239
110	0x3e2567bc	0.16152853
111	0xbd827750	-0.06370413
112	0xbe5eb238	-0.21747673
113	0xbdd3c020	-0.10339379
114	0x3e6cf9ae	0.2314212
115	0x3e7a6bfa	0.24455252
116	0xbdf9ce80	-0.1219759
117	0x3e20d274	0.15705281
118	0x3d86b8a4	0.06578186
119	0x3e6c8920	0.23099184
120	0xbe3f6872	-0.18692186
121	0xbc8d4cc0	-0.017248511
122	0x3e6b4136	0.22974095
123	0xb9821800	-0.00024813414
124	0x3e2758d6	0.16342482
125	0xbda24d5c	-0.079249114
126	0x3e799a56	0.2437528
127	0x3e190a66	0.14945373
128	0xbdd3c94c	-0.10341129
129	0xbd9155ac	-0.07096419
130	0x3e455a4c	0.19272727
131	0x3da51ca8	0.08062106
132	0xbda405a8	-0.08008891
133	0xbe1e137e	-0.15437123
134	0x3db92f18	0.090421855
135	0x3cd2e7a0	0.025745213
136	0x3e59ab64	0.21256787
137	0x3e10ff00	0.14159775
138	0x3e1fb9ae	0.15598175
139	0xbd8f8ff8	-0.07009882
140	0xbe038e20	-0.12847185
141	0xbd9ab494	-0.07553974
142	0xbcfe15e0	-0.03101629
143	0x3e39c90c	0.181431
144	0x3db064a8	0.08612949
145	0x3e3167c0	0.17324734
146	0xbe09d842	-0.13461402
147	0xbd18cc48	-0.037304193
148	0x3e2bea66	0.16788635
149	0xbe52cdb6	-0.20586285
150	0x3d86cdd8	0.0658223
151	0x3e00659c	0.12538761
152	0xbda1b9b8	-0.07896751
153	0x3e53034e	0.2060673
154	0x3e55ac2e	0.20866463
155	0xbe3279cc	-0.17429274
156	0x3e59aa72	0.21256426
157	0x3e2af8a2	0.16696408
158	0x3e6cf24a	0.23139301
159	0x3df7cb0c	0.12099275
160	0x3e42b572	0.19014528
161	0xbda0abd8	-0.078452766
162	0xbe3e09ee	-0.18558475
163	0xbe7ceac8	-0.24698937
164	0xbe50e880	-0.20401192
165	0xbd18c2a8	-0.037295014
166	0xbc927c20	-0.017881453
167	0x3c376320	0.011193067
168	0x3db71d38	0.0894112
169	0x3da3e308	0.08002287
170	0x3d8c40a0	0.06848264
171	0x3de1c0e4	0.11023119
172	0xbd2bcb70	-0.04194206
173	0x3df23778	0.11826986
174	0xbc17aa20	-0.00925687
175	0xba0b6a00	-0.00053182244
176	0x3dfc1960	0.123095274
177	0xbe573cb0	-0.21019244
178	0xbb6bd900	-0.0035987496
179	0x3e6f7646	0.23384961
180	0xbe6b8d76	-0.23003182
181	0x3c2e3680	0.010633111
182	0xbe4656c6	-0.19369039
183	0xbe7bb410	-0.24580407
184	0xbe6a941c	-0.22908062
185	0x3e096d76	0.13420662
186	0xbd606a20	-0.05478871
187	0xbe6ca408	-0.23109448
188	0x3e7a7d4a	0.24461856
189	0xbd1ba030	-0.037994564
190	0xbd440038	-0.04785177
191	0xbe21ca84	-0.1579991
192	0x3e796f94	0.2435897
193	0x3e54fd06	0.20799646
194	0xbdb17690	-0.08665192
195	0xbd14dfa0	-0.036346078
196	0x3d06c588	0.032903224
197	0x3d8c4d6c	0.068507046
198	0xbe4e43a0	-0.20142984
199	0x3ddb4214	0.10705963
200	0xbb65d200	-0.0035067797
201	0x3de5b7b0	0.11216676
202	0x3d699120	0.057023168
203	0xbe4a1b64	-0.19737011
204	0x3e4ddb92	0.2010329
205	0x3dc0bab0	0.09410608
206	0x3dc4fe14	0.09618774
207	0xbe2e9310	-0.17048287
208	0xbe432c80	-0.19059944
209	0x3e1e7812	0.1547549
210	0x3e4ad33e	0.19807145
211	0x3e63e3c2	0.22254851
212	0xbce7f400	-0.02831459
213	0x3d835750	0.06413138
214	0xbdf9eb34	-0.122030646
215	0xbe0a78d8	-0.1352266
216	0x3e5f73a6	0.2182146
217	0x3e1185aa	0.14211145
218	0x3e772942	0.24136832
219	0x3e3fe106	0.18738183
220	0xbd5e7570	-0.054311216
221	0xbe6d0d72	-0.2314966
222	0x3e1c3432	0.15254286
223	0xbe1eddc6	-0.15514287
224	0xbd9d229c	-0.07672617
225	0x3dbc0008	0.091796935
226	0xbdc53100	-0.09628487
227	0xbdb5dc10	-0.08879864
228	0x3e3eb800	0.18624878
229	0xbe674dd4	-0.22588283
230	0xbd56b8a8	-0.052422196
231	0x3e6a730c	0.2289545
232	0x3df2d57c	0.11857125
233	0xbe129e60	-0.14318228
234	0x3daa1e04	0.08306506
235	0xbe6459ea	-0.22299924
236	0xbdf279c0	-0.11839628
237	0xbe3272b0	-0.17426562
238	0x3cd9a320	0.026567042
239	0x3e229888	0.15878499
240	0x3e2332d4	0.15937358
241	0xbb34a480	-0.002756387
242	0x3e25cfb2	0.1619251
243	0xbd82b8cc	-0.063829035
244	0x3e5a3b4c	0.21311682
245	0x3e324bf0	0.1741178
246	0x3e103512	0.14082745
247	0xbe1e0abc	-0.15433782
248	0x3e1ebf4e	0.15502664
249	0xbcf0ba60	-0.029385746
250	0xbd7463e0	-0.05966556
251	0xbe207100	-0.15668106
252	0xbc2b9b00	-0.010473967
253	0xbe72e5a4	-0.23720413
254	0xbe545858	-0.20736825
255	0x3e4485cc	0.19191664

pool.gate_nn.2.weight f4 [1, 16]
0	0xbd939f6c	-0.07208142
1	0xbe0da30a	-0.13831726
2	0x3e4c08ea	0.19925275
3	0x3e285bfe	0.16441342
4	0xbd304fa0	-0.043044686
5	0x3d5737f0	0.05254358
6	0xbd566440	-0.0523417
7	0xbe0c6ca0	-0.13713312
8	0xbd373bf8	-0.044734925
9	0xbda39f30	-0.07989347
10	0xbe660c64	-0.22465664
11	0x3dfba2dc	0.12286922
12	0xbe6aceb4	-0.22930413
13	0xbe163618	-0.14669073
14	0x3e3387fc	0.17532343
15	0xbd09f8c0	-0.033684492

pool.nn.layers.0.weight f4 [16, 16]
0	0xbccdf975	-0.025143364
1	0xbd31f760	-0.043448806
2	0xbd566500	-0.052342415
3	0xbe353de9	-0.17699398
4	0xbdc759ee	-0.097339496
5	0x3dfdba34	0.12389031
6	0x3e5f9fa1	0.21838237
7	0xbe89464f	-0.26811454
8	0x3db220c8	0.08697659
9	0xbc0b33fa	-0.008496279
10	0xbe77c15f	-0.24194859
11	0xbe4b5f28	-0.19860518
12	0xbe27d051	-0.1638806
13	0x3d9fb523	0.07798221
14	0xbd810f8d	-0.06301794
15	0xbe4ca548	-0.19984925
16	0x3e95430e	0.2915272
17	0xbd109b0e	-0.03530412
18	0xbeaa0d5e	-0.33213323
19	0xbe930484	-0.28714383
20	0xbcc0af74	-0.023521163
21	0xbe31eb6e	-0.17374966
22	0x3e12cf09	0.1433679
23	0xbeb2c052	-0.34912354
24	0x3e8805df	0.2656698
25	0x3e818c2e	0.2530226
26	0xbea7bc0c	-0.32760656
27	0x3db11363	0.08646276
28	0x3e63bfce	0.22241136
29	0x3e93e4a1	0.28885368
30	0xbbaec798	-0.005333852
31	0xbe9d3c25	-0.3070995
32	0x3db25a13	0.087085865
33	0xbe821709	-0.254082
34	0x3e9d2c3e	0.30697817
35	0x3e724b92	0.2366164
36	0xbe8bd70f	-0.27312514
37	0x3ca1e3e9	0.019761996
38	0xbe661942	-0.22470573
39	0x3eb4abf3	0.35287437
40	0xbeb141ec	-0.34620607
41	0xbea7dcd4	-0.32785666
42	0xbc077d92	-0.008269684
43	0xbeaa86cd	-0.3330597
44	0xbe7d7af1	-0.2475393
45	0x3d60b0e8	0.05485621
46	0xbe1f937e	-0.15583608
47	0x3d2a7225	0.041612763
48	0x3e84fc8c	0.25973928
49	0x3d12db89	0.035853896
50	0xbd5adf05	-0.053435344
51	0xbe7036a9	-0.23458351
52	0xbdd8f955	-0.10594431
53	0xbe504d0e	-0.20341894
54	0x3de442c3	0.11145546
55	0xbeaf4936	-0.34235543
56	0xbd6f962e	-0.058492832
57	0x3cde279e	0.0271185
58	0xbdb6667b	-0.08906265
59	0x3bc33e96	0.0059583886
60	0x3e8e592f	0.27802417
61	0xbe16b8dc	-0.14718956
62	0xbe855140	-0.2603855
63	0xbe94e572	-0.29081303
64	0x3db26943	0.08711483
65	0xbe92545d	-0.2857999
66	0x3ce6583c	0.028118245
67	0x3e5b60b2	0.21423605
68	0xbe187394	-0.1488784
69	0x3df55af2	0.11980237
70	0xbe8922b4	-0.2678429
71	0x3e6c34f7	0.2306708
72	0xbe878c91	-0.2647443
73	0x3d5edda5	0.054410595
74	0xbe25a35a	-0.16175595
75	0xbe166acd	-0.14689179
76	0xbd9237ad	-0.071395256
77	0x3da0cbac	0.07851347
78	0x3e27d5a4	0.16390091
79	0xbc9203cd	-0.017824078
80	0xbc03be28	-0.008040942
81	0xbd5d6d3a	-0.054059245
82	0xbd134f3c	-0.035964236
83	0xbe16eeaf	-0.14739488
84	0xbd5d5645	-0.05403735
85	0x3cbc8d68	0.023016647
86	0xbc4c0d0e	-0.012454284
87	0x3e6c61de	0.23084208
88	0xbcf25ea7	-0.02958615
89	0x3ad1cec0	0.0016007051
90	0xbd640047	-0.055664327
91	0xbc2f4901	-0.010698558
92	0xbe602f3f	-0.21893023
93	0x3dd700fc	0.10498235
94	0x3bcb5269	0.0062048924
95	0xbd86f8aa	-0.06590398
96	0x3e8a5a58	0.27022052
97	0x3c1e7bf4	0.009673107
98	0xbc760589	-0.015015968
99	0xbe423e9d	-0.18969198
100	0xbe061ff8	-0.13098133
101	0xbe9249bc	-0.2857188
102	0x3e8820a4	0.26587403
103	0xbe08fda4	-0.13378006
104	0x3c96351a	0.018335868
105	0x3e071acb	0.13193814
106	0xbe8500e3	-0.2597724
107	0xbc8775b4	-0.016535617
108	0xbe1d1fe2	-0.15344194
109	0xbdfa99c7	-0.12236362
110	0xbd705b94	-0.058681086
111	0xbe9f48b1	-0.31110147
112	0x3d27b7a4	0.040946618
113	0xbe6802b9	-0.22657289
114	0xbe616373	-0.22010593
115	0xbe84165b	-0.25798306
116	0xbe78a2fc	-0.24280924
117	0xbcac1723	-0.021007126
118	0x3eb4997c	0.3527335
119	0xbe26c77a	-0.16287032
120	0xbd2490e1	-0.04017723
121	0x3e89ec1e	0.26937956
122	0x3d8b8ed2	0.0681435
123	0x3e9b7fc8	0.30370927
124	0x3eaff7eb	0.34368834
125	0x3e882e85	0.26597992
126	0xbe8c304c	-0.27380598
127	0xbd1ddf24	-0.03854288
128	0xbe8ac857	-0.27105972
129	0xbe75a784	-0.23989683
130	0x3d36ffa1	0.04467738
131	0x3c1f5424	0.0097246505
132	0xbca33aad	-0.01992544
133	0xbe0834b3	-0.13301353
134	0xbd7d3e2d	-0.061826874
135	0x3e6b29fa	0.22965232
136	0x3e516f10	0.20452523
137	0xbec3c221	-0.38234046
138	0x3e4150c3	0.18878464
139	0xbeb5fdcf	-0.35545203
140	0x3e477b42	0.19480613
141	0x3dd54a11	0.10414518
142	0x3d2921a2	0.04129184
143	0x3e4727d0	0.19448781
144	0x3e00bf08	0.12572873
145	0xbe116d31	-0.1420181
146	0xbea424f6	-0.3205945
147	0x3adae6cc	0.0016700863
148	0xbe97aa14	-0.29621947
149	0xbd6bdd08	-0.05758384
150	0xbd6e66d4	-0.058203533
151	0xbe7bce2e	-0.2459037
152	0x3e970387	0.2949488
153	0x3e473c0c	0.194565
154	0xbd83391a	-0.06407376
155	0x3e85d6b7	0.26140377
156	0xbddfa61e	-0.10920356
157	0x3ea56a0e	0.32307476
158	0xbd90fa78	-0.07079023
159	0xbcce3161	-0.02517003
160	0x3e178b8a	0.14799324
161	0x3e1b4234	0.15161973
162	0xbdf0fa74	-0.1176652
163	0x3dc5182c	0.09623751
164	0xbe2e7678	-0.1703738
165	0xbe0105d8	-0.12599885
166	0xbe579e24	-0.2105642
167	0xbd3bfd00	-0.045895576
168	0x3d375ef8	0.044768304
169	0xbad8e400	-0.0016547441
170	0x3e5128b8	0.20425689
171	0xbc90d8c0	-0.01768148
172	0xbe10e106	-0.1414834
173	0x3e69fd9a	0.22850648
174	0x3dc7af90	0.09750283
175	0xbd8ef0dc	-0.06979534
176	0x3e2e3322	0.17011693
177	0x3db45591	0.08805383
178	0x3db46fa2	0.08810355
179	0xbe6e3d4e	-0.23265573
180	0x3dad19c0	0.08452177
181	0xbe89e338	-0.26931167
182	0xbe2308b8	-0.15921295
183	0xbc80fd31	-0.015745731
184	0x3e5a29a2	0.21304944
185	0xbe194f3d	-0.14971633
186	0xbe5a034c	-0.2129032
187	0xbd2e684f	-0.042579945
188	0xbdc5a272	-0.096501246
189	0x3cffe82b	0.031238636
190	0x3df7f2d0	0.1210686
191	0xbe88a86f	-0.26691005
192	0xbeaacd16	-0.33359593
193	0xbd3c499e	-0.045968644
194	0x3c796fd4	0.015224416
195	0x3e97fecd	0.29686585
196	0xbe43b091	-0.19110323
197	0x3e3fa680	0.18715858
198	0xbdeb8e56	-0.11501758
199	0x3e9a8d34	0.30185854
200	0xbe672dbe	-0.22576043
201	0xbe90f727	-0.28313562
202	0x3e1a9325	0.15095194
203	0xbd1fe7bc	-0.03903936
204	0xbe8f03c8	-0.27932572
205	0xbe6ac040	-0.229249
206	0xbe024ba8	-0.12724173
207	0x3e9999da	0.30000192
208	0xbe25c87a	-0.16189757
209	0x3d9e6b55	0.07735316
210	0xbdefac13	-0.117027424
211	0x3e170f3d	0.14751907
212	0xbe047231	-0.12934186
213	0xbe7a473a	-0.24441233
214	0xbe271949	-0.1631824
215	0xbddd770a	-0.108137205
216	0xbe5d8232	-0.21631697
217	0xbc79805b	-0.015228356
218	0x3e510557	0.20412193
219	0x3e37247e	0.17885014
220	0xbd96b712	-0.07359137
221	0xbd963d33	-0.073358916
222	0x3e84a966	0.2591049
223	0xbe092fc1	-0.13397123
224	0xbdeb484d	-0.114884
225	0xbcda09fd	-0.02661609
226	0x3e5f1492	0.2178519
227	0x3eae66a1	0.34062675
228	0xbe238061	-0.15966941
229	0x3ebccd27	0.3687527
230	0xbe86d301	-0.26332858
231	0x3e25b275	0.16181357
232	0xbe3d3af3	-0.18479519
233	0xbe9622d4	-0.29323447
234	0x3cffd266	0.031228255
235	0xbea6b7a2	-0.32561976
236	0xbdcef4fe	-0.10105322
237	0xbe29f634	-0.16597825
238	0x3d85ccf6	0.06533234
239	0x3ebf5718	0.37371135
240	0x3d68526e	0.056719236
241	0x3de5c0b5	0.112183966
242	0x3e85b706	0.26116198
243	0x3e724a3b	0.23661129
244	0x3d6730dd	0.056443084
245	0xbe0ad831	-0.13559033
246	0xbeb02e48	-0.3441031
247	0x3de3474c	0.11097583
248	0x3dad722d	0.08469043
249	0xbe8e6c84	-0.27817166
250	0x3de78294	0.11304203
251	0x3d96d27b	0.07364365
252	0xbe1ad8d0	-0.1512177
253	0xbe45b206	-0.19306192
254	0x3e18061a	0.14846078
255	0x3d213abf	0.039362665

pool.nn.layers.0.bias f4 [16]
0	0xbdd1962e	-0.102337226
1	0x3e8891f2	0.26673847
2	0x3cba8c46	0.022771966
3	0xbe34b69b	-0.17647783
4	0x3cd2f662	0.02575225
5	0xbe54a9e7	-0.20767938
6	0xbc306e74	-0.010768522
7	0x3da5b0a2	0.08090331
8	0x3cd7e21d	0.026352936
9	0xbb644d4e	-0.0034836116
10	0xbe767044	-0.24066263
11	0x3e29bdb3	0.16576271
12	0xbe45e72d	-0.19326468
13	0xbe880d7b	-0.26572785
14	0x3cf51e99	0.029921817
15	0x3de680fa	0.11255069
