models_spike/lolcat_head1_AD_HF03_2.pt (torch, 158942 bytes, 16 tensors)

encoder.layers.0.weight f4 [64, 499]
000000 4f 4c ac 3b 3c a5 0e bd aa a5 cc 3d 5e 4a 26 bc
       0.00525812 -0.03482555 0.099925354 -0.010149566
000010 1a fb 27 3e 97 f4 98 3c 17 ef b0 bd 73 89 37 3c
       0.16404381 0.018671317 -0.08639353 0.011202204
000020 ac 46 96 bc b1 11 0d bd 07 69 f2 3c 5a fb b3 bd
       -0.018344246 -0.0344407 0.029591097 -0.08788176
000030 81 6c 87 3c 01 ef a4 3c e2 9e 0f bd 8b ef 21 bd
       0.01653123 0.020133497 -0.03506363 -0.039535087
000040 bc e6 e3 bb d8 8e 7d 3c b9 b9 93 3c ec 2d 46 bb
       -0.006954996 0.015475951 0.018032895 -0.0030239774
000050 dd de b7 3d 8b cc 27 3d c9 cc 11 3d f1 a7 6e 3b
       0.08978055 0.04096655 0.03559569 0.003641602
000060 bd 0c 3f 3e c4 70 d4 bd 65 77 12 be bf 19 3e 3e
       0.18657203 -0.10373071 -0.14303358 0.18564509
000070 16 9f a9 3d 03 2b 17 3c a9 b7 35 3e 82 c8 01 3d
       0.08282296 0.009226563 0.17745842 0.03168536
000080 54 1c 2a bd 71 84 1e bc 90 6c d0 bd f2 27 4c bd
       -0.041530922 -0.009675131 -0.10176957 -0.049842782
000090 fa 56 78 bd 38 6d f6 bd 67 57 86 bb 53 b2 18 3e
       -0.060629822 -0.120325506 -0.0040997746 0.14911775
0000a0 55 31 b3 bd ff 4a bc bd e0 a2 9b bd 16 44 3a bd
       -0.08749644 -0.09193992 -0.07599425 -0.045475088
0000b0 07 8d 12 3e 64 b1 35 3c fe fb f5 3c f9 85 75 3d
       0.1431161 0.0110896565 0.030027386 0.05994222
0000c0 0a d5 d6 3d ed d5 2c bd 05 6b b2 bd 3b d0 de 3d
       0.10489853 -0.042196203 -0.087118186 0.108795606
0000d0 c6 d9 a4 bd a0 8f 62 3e a6 ba e6 bc 5b 60 73 3d
       -0.080493495 0.22125101 -0.028165173 0.059418064
0000e0 72 00 b5 3d 32 d0 bc bc 30 cb 16 3c a4 0c a2 3d
       0.088379756 -0.023048494 0.009203717 0.07912567
0000f0 f0 e2 97 bd 98 5b 1c 3d 6d e2 d2 bd 4a 2b be bc
       -0.07416332 0.038173288 -0.102970935 -0.023214001
000100 20 56 4d 3d 9d a2 75 bc 3e 20 82 3a 9d 1b bf 3d
       0.050130963 -0.014992383 0.0009927822 0.09331439
000110 36 16 1e 3d 62 b6 0a bd 0d af f7 3c c6 6f ec bc
       0.0385954 -0.03386534 0.030234838 -0.028861891
000120 47 4c aa bd 0c 9b 97 3d 89 d3 c8 bd 7b e1 94 3c
       -0.0831533 0.0740262 -0.09805972 0.018173924
000130 a4 26 1d bd 8e 22 04 be 3d 25 48 3c 55 e7 49 3d
       -0.03836693 -0.12903807 0.01221591 0.04929288
000140 50 70 9d 3c 76 55 90 bc c9 e3 fd bd 9e a1 f5 bc
       0.019218594 -0.017618876 -0.12396962 -0.029984292
000150 da f9 ae 3d 45 cc a9 3c 2a c0 e3 bd ec dc 02 3d
       0.08543749 0.020727286 -0.11120637 0.03194897
000160 42 a6 36 bd e0 4c 86 bd 48 b8 d9 b9 d0 68 8c bc
       -0.04459215 -0.065576315 -0.00041526766 -0.017139822
000170 b1 a3 33 be 00 c6 02 bd 9d 0f 67 3c b2 3f b7 bd
       -0.17542912 -0.03192711 0.014102844 -0.08947696
000180 71 0e 8e bc e3 cf a3 3c 28 1d 9f bb 45 76 24 bc
       -0.01734087 0.019996589 -0.0048557706 -0.010037963
000190 ae 6c bd 3b 4d 59 a0 bc d7 b2 d1 3d 15 ef 72 3c
       0.005780778 -0.019573832 0.10239189 0.014827509
0001a0 01 ae ac bc 58 54 06 bc 54 26 ba 3b 7a 32 13 bd
       -0.021079065 -0.00819882 0.0056808386 -0.03593681
0001b0 b2 92 d0 3c 02 9b 1a bb e4 f8 35 bd b9 df 12 bd
       0.025460575 -0.0023590927 -0.044426814 -0.03585789
0001c0 6c db 8c bd 9f 55 82 3d 37 72 7e bc db ab f9 bc
       -0.06877789 0.06363987 -0.015530161 -0.030477455
0001d0 3e e7 d9 3a 64 df 95 3c 84 9f 14 ba 43 d8 0c 3b
       0.0016624702 0.018294998 -0.00056695216 0.0021491207
0001e0 84 f4 32 bc 51 a1 ba 3b f8 18 57 bd 6f 9f 1e bd
       -0.010922555 0.0056955 -0.052514046 -0.038726266
0001f0 9c 2b 8e 3d b3 b0 cd 3d 1f bf 88 3d 41 50 17 bd
       0.069419116 0.10043468 0.066770785 -0.03694177
000200 4e 08 d8 bd ab 72 90 3c 14 fc 06 be 73 58 21 be
       -0.10548459 0.017632803 -0.13182098 -0.15756397
000210 95 c2 27 3d fd 1c 98 3c 27 47 8b 3b bb e0 6d 3c
       0.040957052 0.01856851 0.0042504254 0.014518912
000220 35 c2 3b 3d bd 24 cb 3d b6 25 0c 3d a7 ad 8b bd
       0.045839507 0.09919117 0.03421565 -0.06820231
000230 84 10 d3 3c 37 28 13 bd ff ec 40 bd 59 a6 b1 bd
       0.025764711 -0.035927024 -0.047101017 -0.086743064
000240 76 12 8f bd 69 00 86 bd c5 ea bc bd 79 01 0a be
       -0.06985943 -0.06543047 -0.09224466 -0.13477124
000250 66 98 cf 3c a9 4a 01 bd 0e f1 9b 3d d2 51 9c bd
       0.025341224 -0.031565342 0.07614337 -0.076327935
000260 28 87 d9 bb ad a2 85 3c de 03 f5 3c 5b b5 c7 3d
       -0.0066384263 0.016312921 0.02990907 0.09751388
000270 a6 d8 c1 bc f7 49 78 bd 91 23 07 3d d0 be c9 3b
       -0.023662876 -0.060617413 0.032992903 0.00615678
000280 82 33 c9 3c 42 71 66 bb be ef 12 bd 3c ef 01 3d
       0.024560694 -0.0035162722 -0.035873167 0.031722292
000290 f2 d1 21 bd 39 0e 9d bd 0b c0 df bc 02 54 9a bb
       -0.03950686 -0.076687284 -0.027313253 -0.0047097215
0002a0 44 09 c4 bd 19 3e e9 3d fc 3d bb bc 41 8a 41 bd
       -0.0957208 0.11388797 -0.022856705 -0.04725099
0002b0 67 73 cb 3c 02 56 6f 3d 02 89 73 3d 68 04 76 bb
       0.024835302 0.058431633 0.059456833 -0.0037539247
0002c0 ef f7 23 bd 37 be 33 3b e6 47 38 3c 77 d3 58 3d
       -0.04003137 0.002742661 0.011247611 0.052936044
0002d0 31 51 c6 bc dc 99 50 bd c3 13 e3 3b cd 79 92 bd
       -0.024208637 -0.05092798 0.006929846 -0.07152138
0002e0 e7 d7 3c 3d a8 25 46 3d fe 1d 11 3e 96 a7 c4 3c
       0.046104338 0.048375756 0.14171597 0.024005692
0002f0 8b f2 34 3b 5f 92 80 bc 94 74 95 bc 88 d5 93 b9
       0.0027610387 -0.015694795 -0.018244065 -0.00028197118
000300 bb 00 1f be 60 36 ea 3d de 43 18 3d fc 16 41 3d
       -0.15527622 0.114361525 0.0371741 0.04714106
000310 b2 0f cd bb 59 8d aa 3c 12 bc 06 bb 4d 11 f5 3c
       -0.0062579745 0.020819353 -0.0020558876 0.029915476
000320 bc 39 e7 bc 25 53 29 bd 54 7b c9 bd 96 41 16 bd
       -0.028225772 -0.04133906 -0.09837976 -0.03668364
000330 69 15 84 bd ac 66 64 bd 8c d4 10 3d 57 07 d2 bd
       -0.06449396 -0.055761978 0.03535895 -0.10255306
000340 3a 2b 79 bd 17 d8 1a bd 4d 31 d5 bd 34 3e bf 3d
       -0.06083224 -0.037803736 -0.10409794 0.09338036
000350 83 7b 0a 3d 33 94 1e 3e 3e 34 5c 3e 0a bd a6 bc
       0.033809196 0.15486221 0.21504304 -0.020353813
000360 4f 59 11 ba 0f 76 b6 3d b5 04 57 bd de 12 95 3c
       -0.0005544619 0.08909237 -0.052494723 0.018197473
000370 da 11 24 3e c2 9a dd 3c 68 56 14 3d 0d e9 92 3c
       0.16022435 0.027051333 0.036215216 0.017933393
000380 30 ff e0 3d d9 a0 41 3e c7 a7 9b 3d 0b e5 01 3e
       0.10986173 0.18909015 0.0760036 0.12685029
000390 92 72 2b bd bf e2 39 3e 23 b3 fb 3d 07 55 5a 3d
       -0.04185731 0.18152903 0.12290027 0.053303745
0003a0 99 21 38 bd 5a 7c 63 3d 1b 65 39 3c 99 99 f1 bc
       -0.044953916 0.055538513 0.011315609 -0.029492186
0003b0 4e af e0 3c 4b c0 2d bc 6e a2 b1 3d d7 ed 4d 3d
       0.027427342 -0.010604928 0.08673559 0.05027565
0003c0 11 a7 d7 3c 93 76 0b bd 9a ae 6d 3c 4c 82 b1 bd
       0.02632478 -0.034048628 0.01450696 -0.0866743
0003d0 88 ff be 3b 00 39 df bc 38 5f ad 3c 24 23 7e 3c
       0.0058288015 -0.02724886 0.021163568 0.015511308
0003e0 63 91 9e 3d 20 87 b7 3c 05 4e a0 3c 39 e7 89 bd
       0.07742574 0.0224033 0.019568453 -0.06733555
0003f0 a9 77 8d 3d eb 7c 1a bd 89 03 17 be e3 be fc 3c
       0.06907589 -0.037716787 -0.14747442 0.03085274

encoder.layers.0.bias f4 [64]
000000 8a 98 0f 3d a0 aa ca 3d 42 4b 9f 3d 08 69 25 bd
       0.035057582 0.098958254 0.07778026 -0.04038337
000010 3d 12 53 3d b0 62 aa 3d dd 58 a8 3d 08 a0 ab 3d
       0.051531065 0.083196044 0.08220074 0.08380133
000020 46 13 2f bd 8a 58 ba 3d 00 4e 11 3d 92 0c a7 3d
       -0.04274299 0.09098919 0.035474777 0.081566945
000030 a3 60 c3 3d 2d 65 43 3d fc 70 2c bd be cc 1a 3d
       0.09539916 0.04770391 -0.042099938 0.037792914
000040 ec ff 32 3d 05 85 ed bb 60 93 ac 3d 1f ef 96 3d
       0.043701097 -0.007248523 0.08426547 0.073698275
000050 d0 b5 2c 3d 81 ee 7a 3d 0e 32 ab 3d a4 12 d5 3d
       0.042165577 0.06126261 0.083591565 0.10403946
000060 91 b2 6a 3d ce 54 3c 3d 84 b0 15 3d 02 51 1d 3d
       0.0572992 0.045979314 0.03654529 0.038407333
000070 7d f8 b9 3d 49 04 1a 3d 93 12 30 3d ac 57 d6 3d
       0.090805985 0.037601743 0.042986464 0.10465941
000080 f3 96 29 bd 8a 9a ef 3c e7 b0 3e 3d 35 f2 2c 3d
       -0.041403722 0.029248495 0.046555426 0.042223174
000090 bd 72 0c 3d c7 7a b1 3d d1 98 72 3d 74 69 af 3d
       0.03428911 0.08665996 0.05922777 0.085650355
0000a0 f1 ca 6e bd b5 90 34 3d ed 68 c4 3d 48 ae 7f 3d
       -0.05829901 0.044083316 0.095903255 0.062422067
0000b0 75 e2 12 3d ca 76 68 3d 31 2d 9b 3d 63 60 0a 3d
       0.035860498 0.05675391 0.07576979 0.033783328
0000c0 8c 19 17 3d ff 4f 26 3d 9a 63 39 bd 50 e0 13 3d
       0.036889598 0.040603634 -0.045261003 0.036102593
0000d0 3e 3d 37 3d e7 ba a9 3d bb d1 18 bd d5 67 89 3d
       0.04473614 0.08287602 -0.03730939 0.067092575
0000e0 fd 20 0f 3d 12 2f 63 3d ac a8 86 3d f4 a6 2e 3d
       0.03494357 0.05546481 0.0657514 0.042639688
0000f0 3a 4b 92 3d 75 a9 53 3d 05 d1 65 3d 04 b2 ab 3d
       0.071432546 0.05167528 0.05610754 0.08383563

encoder.layers.2.weight f4 [32, 64]
000000 6b 30 f2 3c a7 d8 5b 3d 43 bc 5f 3e 1c a5 9c bd
       0.029564103 0.053673413 0.2184916 -0.076486796
000010 a6 34 ab 3e 2f dc ea bc 90 3d 5b be 48 e6 5f be
       0.33438605 -0.028669445 -0.21410203 -0.21865189
000020 00 4f f6 3b b9 2b 1a be 25 52 b4 3e 36 43 81 be
       0.0075167418 -0.15055741 0.3521892 -0.2524659
000030 fd 5f 10 3e 57 8b 6b 3d f6 ee ed 3d d0 be 7a 3d
       0.14099117 0.05750593 0.11617844 0.06121713
000040 a7 2b b4 3d 8f d6 17 bd f8 a4 96 be 6e 6a 2b 3e
       0.087973885 -0.037069853 -0.29422736 0.16739818
000050 a0 23 c0 3e 4e 89 af 3e 72 29 5c 3e 6c 5f 48 3e
       0.3752718 0.34284443 0.21500185 0.1956765
000060 f2 56 24 3e 55 c3 f5 3d e7 b5 90 3e 39 85 5b 3e
       0.16048792 0.12000147 0.2826378 0.21437539
000070 f6 2e 85 be 30 6b d6 3e 80 c7 5b 3e f5 18 dd 3d
       -0.2601239 0.41878653 0.21462822 0.10795776
000080 c5 c2 c0 bc 11 ee 58 3e 79 a4 0b 3d cf 86 53 3e
       -0.023530373 0.21184565 0.0340924 0.20656894
000090 30 49 7a 3e f9 7e 12 3e 11 d6 d1 3d fd cb 60 3e
       0.24441981 0.14306249 0.10245908 0.21952815
0000a0 ef db b9 bd 3c 8f 86 be b5 a4 4a 3e 8f 0d 46 3e
       -0.09075152 -0.26281154 0.19789393 0.1934111
0000b0 fc 12 7d 3e ab 44 51 3e e2 2f 21 3e 60 37 36 3e
       0.24714273 0.20436351 0.15740922 0.17794561
0000c0 14 a0 e6 bd 1a 3d bd 3b f0 dc 8a bd e0 31 51 3e
       -0.11261001 0.005775106 -0.06780422 0.20429182
0000d0 33 e6 a5 3d 27 fe 5f 3e 58 5e 7b bd 83 d5 19 3e
       0.08100548 0.21874295 -0.06136927 0.15022855
0000e0 c3 e5 93 3e 10 88 d6 3c a7 77 cf 3d cd 47 46 3e
       0.28886232 0.026187927 0.10130244 0.19363327
0000f0 7c 89 7c 3d fc 70 73 3e fe e3 f4 3d 0d c6 bd be
       0.061654553 0.23773569 0.119575486 -0.37065163
000100 14 35 73 3e e9 32 94 bc 26 c0 8a 3d 04 31 6f bd
       0.23750716 -0.018090682 0.06774931 -0.058396354
000110 92 18 00 3e 86 3e 5c 3e 6e 16 ac bd f6 ac 50 be
       0.12509373 0.21508226 -0.084027156 -0.2037848
000120 7f c4 cb bd 0d 98 87 be 7a 47 80 3e 1f 6d 3f be
       -0.09949588 -0.26483193 0.25054532 -0.1869397
000130 76 32 18 3d eb fe 4b 3e e0 3b 90 3d c9 f3 f9 3d
       0.0371575 0.19921462 0.0704267 0.122047015
000140 82 91 22 3e 43 df 8c bd 29 31 87 be 75 8c 27 3e
       0.1587582 -0.06878521 -0.26404694 0.16362174
000150 b0 00 64 3e 07 37 61 3e b2 86 7e 3d 42 da 56 3e
       0.22265887 0.21993648 0.062140174 0.20981696
000160 26 6e 68 3d ba e9 88 3e f4 29 3b 3e ca 4e 49 3e
       0.05674567 0.2674082 0.18277723 0.19658962
000170 bf 03 44 be 88 11 b9 3e 10 32 76 3e d2 26 8f 3d
       -0.19142054 0.36146188 0.24042535 0.06989826
000180 b9 a8 4c bd 9f 07 08 3e b4 b9 79 3e 7f 82 1d 3c
       -0.049965594 0.13284157 0.24387246 0.009613632
000190 5a 05 1f 3e 31 27 0d 3d ca 99 2f 3e 40 1a 2f 3e
       0.15529385 0.034461204 0.1714851 0.17099857
0001a0 e5 23 cc 3d 80 d0 6c bd 6f 93 01 3e 7a e1 6b 3e
       0.09967784 -0.05781603 0.12653898 0.23035231
0001b0 67 28 9c 3e ab 7e 4b 3e f4 ad 6a 3c ac 48 68 3e
       0.30499575 0.19872539 0.0143237 0.22683972
0001c0 06 f5 40 be fa c4 3e 3e ea 24 c7 bd 3c dc 7c 3d
       -0.18843469 0.18629828 -0.09723838 0.06173347
0001d0 62 ab 37 3e 4f 17 68 3e 8c c9 0e bd f1 63 5b 3d
       0.17936471 0.22665142 -0.03486018 0.05356211
0001e0 94 65 73 3e 96 54 ea 3d be 80 57 3d b5 3e 0b 3e
       0.23769218 0.11441915 0.052613012 0.1359814
0001f0 1f cf 47 3c b8 f8 f3 3d 52 82 79 3d 35 50 37 be
       0.012195378 0.11912674 0.0609153 -0.1790169
000200 70 26 c1 3d b4 94 2c 3d 05 b5 09 3d 0c 38 66 bd
       0.094311595 0.042134 0.0336199 -0.056205794
000210 81 fc 0e be 7f 63 d8 3c b0 c8 de 3d 5c 0c e0 3d
       -0.1396351 0.026414631 0.10878122 0.10939857
000220 6e c6 bb 3d 36 81 96 3d ca b4 1d be d9 c1 66 3e
       0.09168707 0.07348864 -0.15400997 0.22534885
000230 01 6b 0c bd eb 12 df bc 80 c9 c9 bb 20 07 05 be
       -0.034281734 -0.0272307 -0.006158054 -0.12990999
000240 be d1 ed bd fb 81 1a 3e 78 75 80 3e 3d 39 cb 3d
       -0.11612271 0.15088646 0.25089622 0.09923027
000250 28 bf 96 ba 28 f9 40 be 44 51 8d 3d ca 0c 9a 3c
       -0.0011501061 -0.18845046 0.06900266 0.018804926
000260 01 c2 0f bd d3 bf 83 bd df af 92 3c d8 aa 1e be
       -0.035097126 -0.06433072 0.017906127 -0.15494859
000270 62 8c 88 3e fc 02 24 3c cd 29 47 be 77 b7 f2 3d
       0.26669604 0.010010477 -0.1944954 0.118513994
000280 3c f3 8b bd 15 e3 09 be 06 7e a2 bd 6c d7 19 bd
       -0.06833503 -0.13465531 -0.07934193 -0.037558958
000290 fe a2 e0 3b 39 69 ec 3d 04 61 61 bd 6e 98 18 3e
       0.0068553677 0.11543507 -0.055024162 0.14901897
0002a0 20 7f b3 3d 97 d0 45 3e e1 7c 70 3d 47 53 0a 3e
       0.087644815 0.19317852 0.058712844 0.1350833
0002b0 11 d4 47 be 77 de cd bd 00 22 12 3e 6b a5 16 be
       -0.1951449 -0.100521974 0.14270782 -0.1471154
0002c0 65 c8 c0 3d 9d ae f7 bc 80 46 c7 bd 81 da f4 3c
       0.09413222 -0.03023463 -0.09730244 0.029889347
0002d0 ab b8 91 bb f6 3b 93 3b b0 3f cf bc 77 dd 3c bd
       -0.004447063 0.004493232 -0.025298923 -0.046109643
0002e0 82 90 21 be 39 5d a2 bd dc c0 a8 bd c0 a8 fe bd
       -0.15777782 -0.07927937 -0.0823991 -0.1243453
0002f0 41 d1 4e bd 88 29 ee bd 16 72 8d 3d 49 14 0b 3e
       -0.05049253 -0.11629015 0.06906526 0.13581957
000300 92 dc 89 3d 00 a5 c2 3a f6 24 f2 3d 28 ee 3b bd
       0.067315236 0.0014850199 0.11823456 -0.04588142
000310 14 bf 30 bd 76 20 ed bd 40 4f 96 3b c0 86 78 bd
       -0.043150976 -0.11578457 0.004587084 -0.060675383
000320 fe 4e 80 3d f8 fd b7 3d ac d2 d4 3d ee 5c ca 3d
       0.062650666 0.089839876 0.10391745 0.09881006
000330 cc 03 b8 bd b0 e3 1c bc 3c 5e a1 3d fe f7 d9 3d
       -0.08985099 -0.009575769 0.07879302 0.10643004
000340 7a 1a 97 bd 84 74 7e 3d 86 09 a1 bd 88 05 ef 3c
       -0.07378097 0.062122837 -0.078631446 0.029177442
000350 38 82 c5 3d e8 7d ee 3d 4c 48 27 3d 6c 4b d1 bd
       0.09643978 0.116451085 0.040840432 -0.10219464
000360 32 93 f8 bd 1e 0f a4 bd 88 81 b6 3d 00 2f b3 bb
       -0.1213745 -0.08010696 0.08911425 -0.0054682493
000370 e0 20 a3 3b f4 89 db bd fc 86 0d 3d f4 dc fc bd
       0.0049782842 -0.10719672 0.03455256 -0.12346831
000380 5a 03 e5 3d 02 4e ff 3d de 5d 97 bd d4 ee a2 3d
       0.1118228 0.12466051 -0.073909506 0.07955709
000390 0a 28 d1 bd d6 dd ba bd 12 72 fe 3d 64 fe 06 bd
       -0.10212715 -0.09124343 0.12424101 -0.03295745
0003a0 34 eb b5 3d 9c 1a bd bd d2 d1 ef bd a0 51 a1 bc
       0.08882752 -0.09233591 -0.11709942 -0.019692242
0003b0 78 75 84 bc 2c 24 01 bd b0 47 d6 bc 18 80 ca bd
       -0.016169295 -0.031528637 -0.02615723 -0.09887713
0003c0 b4 99 44 3d c0 98 ae bc 0a fc 84 3d 44 b5 61 3d
       0.047998145 -0.021313071 0.06493385 0.05510451
0003d0 74 a0 23 3d 00 54 3d bb 20 02 91 bb 9e 96 9a bd
       0.039947942 -0.002888918 -0.004425302 -0.07548259
0003e0 b0 68 b2 3c 7a 19 83 3d 22 3a c6 bd 10 1c 8b 3c
       0.021778435 0.06401344 -0.09679057 0.016981155
0003f0 52 a1 ee bd 88 80 9b 3d dc d9 e5 bd ee d3 f0 bd
       -0.11651863 0.07592875 -0.11223194 -0.117591724

encoder.layers.2.bias f4 [32]
000000 02 bc 15 3d 11 46 d5 3d b0 93 b0 3d a0 51 f5 bb
       0.03655625 0.10413755 0.08621919 -0.007486537
000010 18 5f c3 3d df db 87 3d 1f fc ba 3d 1d 17 c6 3d
       0.09539622 0.06633734 0.091301195 0.09672377
000020 69 ef 23 3e bc 4b 29 3e 9b 52 7b bd 16 f0 ba bd
       0.16009296 0.16532797 -0.061358076 -0.09127824
000030 b0 be ea bc b2 c6 04 3e 50 f8 a2 bc 1c c6 c2 3d
       -0.02865538 0.12966421 -0.019893795 0.095104426
000040 f8 53 27 3e b6 e4 fd 3d d4 eb f1 3c 24 2f 85 bd
       0.16340625 0.12397139 0.029531397 -0.06503132
000050 55 b7 2f 3e c6 c1 ff bd ce 33 d3 3d 6f d6 b2 3d
       0.1715978 -0.12488131 0.10312615 0.08732306
000060 26 63 d1 bc 00 7f 97 3d f6 bb b3 bd e5 7e 17 3e
       -0.025559973 0.0739727 -0.08776085 0.147945
000070 e1 4b 73 bd 34 1c 0c bd 4f 29 ce 3d 3b f9 eb 3d
       -0.059398536 -0.034206584 0.10066473 0.11522146

encoder.layers.4.weight f4 [16, 32]
000000 5d 88 8b be 64 c4 77 bd 69 7a 07 3e b5 4c 32 3e
       -0.27252474 -0.060490027 0.1323029 0.17412074
000010 99 de 31 3e dd 65 09 3d ba 7f 90 3e 1b f4 b2 3e
       0.1737007 0.03354441 0.28222448 0.34951863
000020 56 a6 88 bd c8 01 58 3d d9 d9 0d be 46 f1 88 bd
       -0.06672351 0.052736074 -0.13852634 -0.06686644
000030 d1 0d 0a 3c 84 83 4d be 4a 46 80 be 63 10 a1 be
       0.008426146 -0.200697 -0.25053626 -0.31457815
000040 02 2a 0a be 90 41 84 be 36 cd 9b be 60 39 a4 bd
       -0.13492587 -0.2583127 -0.3043 -0.08018756
000050 8f 85 3a bd 8d af c8 b9 94 1e f0 bd c2 6e 7d be
       -0.045537528 -0.00038277768 -0.11724582 -0.24749282
000060 b7 f5 1c be 85 49 e9 bc 17 1a 0e 3e d8 b0 80 be
       -0.15328108 -0.02847744 0.1387714 -0.2513492
000070 ce 03 22 3e 56 44 8d 3d d2 46 36 be 3b 0a 2b 3d
       0.15821764 0.068978 -0.17800453 0.041757803
000080 52 7e 6d be 1c df 72 be 90 5c fe 3d e1 31 21 be
       -0.23192719 -0.23717922 0.12419999 -0.15741684
000090 67 69 34 3e c9 6a 93 3e 0e 8e 83 3e 92 38 19 3e
       0.17618333 0.28792408 0.25694317 0.14962986
0000a0 30 09 44 be b2 c0 3a be c1 98 4b be 9d c6 c8 3d
       -0.1914413 -0.1823757 -0.1988249 0.098035075
0000b0 02 47 19 be 1e 92 9c be 14 d2 67 be c8 97 98 bc
       -0.14968494 -0.3058023 -0.22638732 -0.018627062
0000c0 dd 76 07 be 3d 87 de 3c a3 e0 a5 be 94 9e 2b 3d
       -0.13228936 0.027164096 -0.32397947 0.04189928
0000d0 d4 e6 59 be e7 3d cf 3d 71 0e 40 be 57 df 3b bd
       -0.2127946 0.10119229 -0.18755509 -0.04586729
0000e0 0b 73 3d bc 97 9d a3 bd 01 e9 d0 3d b0 8e 3b bd
       -0.011563073 -0.07989042 0.10200692 -0.045790374
0000f0 fb c0 28 3e d4 0d 98 bd 17 ac 93 be d2 34 bd bd
       0.16479866 -0.074245125 -0.28842232 -0.0923859
000100 63 22 e5 bd 35 fb bc bd ec ee f6 3c 43 26 02 3e
       -0.11188199 -0.092276014 0.030143224 0.12709908
000110 f4 a3 83 3e 0f eb 88 3e 3d c3 2b bd 69 72 91 3e
       0.25711024 0.26741835 -0.04193424 0.284076
000120 ca a6 86 be 68 a7 2a be b1 db a8 be 4d e5 26 be
       -0.26299125 -0.16665423 -0.3298011 -0.16298409
000130 2b b7 94 bd d0 da 6c be 95 08 7b be 33 e3 9b bd
       -0.07261499 -0.23130345 -0.24514993 -0.07611694
000140 17 32 d6 bd 03 2d 8a be 58 49 79 be 2f 1b 22 3e
       -0.10458773 -0.26987466 -0.24344385 0.15830682
000150 b5 99 b8 bd f4 99 28 3e e0 57 45 3d a8 b8 04 be
       -0.09013692 0.16464978 0.048179507 -0.12961066
000160 04 75 ec bd 2d e1 65 3d 77 07 10 3c 91 ab 40 be
       -0.115457565 0.056122947 0.008790842 -0.18815447
000170 62 e6 b7 3d 0d 90 f6 3d 39 17 cf ba 63 38 a1 bd
       0.08979489 0.12039194 -0.0015799768 -0.07872083
000180 9b b6 d8 3b fd fc 85 3e 25 1b 13 be 9e 44 b4 ba
       0.006613565 0.26169577 -0.14365824 -0.001375336
000190 5f 84 97 bd 39 c2 07 be 08 f1 44 3c 55 98 c7 bd
       -0.07398295 -0.13257684 0.012020357 -0.09745852
0001a0 e4 a4 7b 3e 2e 95 8a 3e 0d 47 d7 3e 14 3e 1b bd
       0.2457462 0.2706694 0.42046395 -0.037901
0001b0 7f 28 19 bd b6 d6 a4 3e 4a 17 79 3e c9 04 6c 3d
       -0.037392136 0.3219506 0.2432529 0.05762175
0001c0 36 a2 5f 3e 3d 58 25 3e 3a bd 5a 3e 0b 61 15 bb
       0.21839222 0.16146941 0.21361247 -0.0022793438
0001d0 27 2a 4a 3e 5a 63 b0 3d ef d7 8f 3e bb 87 74 3e
       0.19742642 0.086127 0.28094432 0.23879902
0001e0 c3 fb c3 bd a1 49 0b 3d 8a bc ea 3c b5 ec 68 3e
       -0.09569504 0.034005765 0.028654356 0.22746547
0001f0 dc 69 d4 3d 7a 1c 58 3c 7d ed 77 3e 31 fb 0d be
       0.103717536 0.013190383 0.24211688 -0.13865353
000200 b8 92 43 be e9 ef 87 bd 3d be a4 3e 74 bd 1d be
       -0.19098938 -0.06637556 0.3217639 -0.15404302
000210 5b 34 a6 3e 73 bc 2d 3e ab 0d a5 3d 3c 1a a0 3e
       0.3246182 0.16966419 0.080592476 0.31270015
000220 3c 09 7c be f2 97 12 be 10 e9 ac be 9d d9 55 3c
       -0.24612898 -0.14315775 -0.33771563 0.013052371
000230 ff b1 56 bd c6 70 81 be d1 59 75 be 8b cb 87 be
       -0.052415844 -0.25281352 -0.23960043 -0.26522478
000240 24 9d a2 be ce da 1c be bb 5b e8 bd 9d de ab 3d
       -0.31760514 -0.15317842 -0.11345621 0.083920695
000250 fd a8 8e be 51 d6 c6 3c 03 80 bb bd ec 91 00 be
       -0.27863303 0.024272116 -0.09155276 -0.12555665
000260 e2 48 61 3d d2 6c 9a 3d b3 e1 b5 bd d0 46 33 3c
       0.055001147 0.07540287 -0.08880939 0.010942176
000270 5b 54 48 3c ce db 30 be 5e a7 92 be c5 8f 06 3e
       0.012227143 -0.17271349 -0.28643316 0.13140781
000280 c5 f4 25 be 55 16 28 bd a5 24 e7 3d c9 5e 5d bd
       -0.16206653 -0.041036922 0.11286286 -0.054045472
000290 88 52 9d 3c 69 6e 8f 3e 2a 97 e7 3d a2 d8 bd 3e
       0.019204393 0.28013924 0.11308129 0.3707934
0002a0 6b 51 9a 3c 48 6c 80 3b 67 3a 48 be d5 87 0a 3e
       0.018837651 0.003919158 -0.19553529 0.13528378
0002b0 69 2c 92 bd 9d dc db bd 2d d2 79 be 73 c1 65 be
       -0.07137377 -0.10735438 -0.24396582 -0.22437076
0002c0 a1 a8 90 bd d2 be 4a bd 22 17 ee bc 84 8b 08 be
       -0.070634134 -0.049498387 -0.029063765 -0.13334471
0002d0 17 cc 8e bd 07 8f aa 3d 66 7a 19 be 96 82 7f be
       -0.06972521 0.083280616 -0.14988098 -0.24952158
0002e0 93 49 b7 bd 24 72 8c bc 24 21 0d be 11 a2 9d bd
       -0.0894958 -0.01714427 -0.13782173 -0.07696927
0002f0 6f 66 1a bd f6 5e fd bd 6e 85 65 be 7d 9e a8 3d
       -0.037695345 -0.12371628 -0.2241418 0.08233354
000300 b7 48 b4 3b e5 f9 c2 bd f4 9e 84 3e 5d 7a 54 bc
       0.0055018323 -0.0952032 0.25902522 -0.012968627
000310 4b 77 a9 3e 8c 48 50 ba b4 1e 24 3e 0c 7c 78 3e
       0.33098826 -0.00079453806 0.16027337 0.2426607
000320 10 91 c5 bd 4b 52 4e 3d 9e a7 e2 bd ad d3 fd 3c
       -0.09646809 0.05037145 -0.11067127 0.030984724
000330 19 8e f8 3d 39 c7 0c bd 2d ec 82 bc 4d 05 cc bd
       0.12136478 -0.03436968 -0.015981758 -0.099619485
000340 6b fe b2 bc 87 77 8e 3c 3b 35 8d bd 27 14 f8 3d
       -0.021849832 0.01739098 -0.068949185 0.12113219
000350 c9 c2 da bd c3 f0 27 3e 36 be 8f ba 8e 93 6c be
       -0.106816836 0.16400437 -0.0010966721 -0.23103163
000360 2b a7 09 be f0 ce f4 bd 75 aa ca bc 98 06 80 be
       -0.13442676 -0.11953533 -0.024739483 -0.2500503
000370 43 6b 00 3e d3 59 d9 bd a7 b5 bf bd e9 f8 e2 3c
       0.12540917 -0.10612836 -0.09360819 0.02770658
000380 d6 c8 c0 bb a1 38 09 be 85 b2 a7 3e 64 9e 25 be
       -0.0058833165 -0.13400508 0.32753387 -0.16173702
000390 b3 ca 9e 3e 0a 7a 95 bc b3 62 90 3e 66 94 bb 3e
       0.31014022 -0.01824667 0.28200302 0.36636657
0003a0 c6 17 e1 bd c8 97 15 be 6d 70 e3 bd 50 76 2a 3d
       -0.109908625 -0.14608681 -0.11105428 0.041616738
0003b0 fa 36 d5 3d be d8 12 3d 56 66 1c be c9 15 b2 bd
       0.104108766 0.035851233 -0.15273413 -0.086955614
0003c0 9b 1e 48 be 99 75 42 be 9a 3e ff bd c1 0c 97 bc
       -0.19542925 -0.18990172 -0.12463112 -0.018438699
0003d0 e0 4e 89 be 4a 97 e5 3c 25 7b fb 3c 90 8c ba bd
       -0.2681799 0.028026242 0.030698368 -0.091088414
0003e0 5c 21 2d 3e d9 9b f3 3c 34 3d 13 3e 23 b6 5f be
       0.16907257 0.0297374 0.14378816 -0.21846823
0003f0 4d 1a be 3d e0 cf 2f 3e 14 86 95 3c 9b 4c 14 3e
       0.0928236 0.17169142 0.01825241 0.14482348

encoder.layers.4.bias f4 [16]
000000 3d 1a 05 be f0 00 47 be a9 68 54 be 6f 4b 62 3e
       -0.1299829 -0.19433951 -0.2074305 0.22099088
000010 9e 9b 10 bd 5f 80 f1 bd e9 71 16 bd a0 6c a6 bd
       -0.035304658 -0.11792063 -0.036729727 -0.08126187
000020 b5 87 11 3d 4d 08 03 3e 68 60 cd bc 7d d0 ab 3d
       0.03552981 0.12796135 -0.025070384 0.08389375
000030 b6 d9 c5 3d e2 0c 90 bd 78 9f f0 bd 46 ea 2a be
       0.09660666 -0.07033707 -0.11749166 -0.1669093

classifier.layers.0.weight f4 [16, 160]
000000 d5 95 82 bd c3 65 5d bc 20 0d f2 3c c0 90 27 bd
       -0.063762344 -0.013513031 0.029547274 -0.04090953
000010 02 e5 27 bd ab 13 76 bd 14 72 34 3d ff 03 d1 bb
       -0.040989883 -0.06007735 0.044054106 -0.00637865
000020 9b 25 d8 bc 25 9f 1a bd bf 01 d7 ba 95 31 3f 3d
       -0.02638512 -0.03774943 -0.0016403719 0.046678144
000030 61 cd 83 3d aa 57 38 bc e6 a7 2b bc c1 10 73 3d
       0.06435657 -0.0112513695 -0.010477042 0.05934215
000040 a1 e3 b2 bd 8f 60 7c 3d 32 e5 97 bd a2 eb 6d 3d
       -0.08734823 0.061615523 -0.074167624 0.058086045
000050 3d 27 93 3d 7a d2 97 bd 02 02 34 bd 01 6d b0 3d
       0.071852185 -0.07413192 -0.043947227 0.08614541
000060 b6 74 55 bd cd 82 af bd c1 19 57 bd 13 d3 33 bd
       -0.052113257 -0.0856987 -0.052514795 -0.043902468
000070 68 e0 e3 ba 78 a8 8f 3d 70 50 67 3d cb da 31 3d
       -0.0017385604 0.07014555 0.056473196 0.043421548
000080 1c 20 e1 3c 84 de f3 bc 99 10 7a bd da 81 2c bd
       0.027481131 -0.02976919 -0.061050985 -0.042116024
000090 5d 9d 75 bb 66 27 1e bd 19 ce 4a 3d 47 e9 25 bc
       -0.003747783 -0.038611792 0.049512956 -0.010126418
0000a0 21 1b 0a bd 01 62 2f 3d fc 0c 43 bc c2 22 8c bc
       -0.03371728 0.042818073 -0.011904951 -0.017106418
0000b0 fa ef a6 3d 40 34 16 bd a0 98 26 bd 99 56 07 3d
       0.08151241 -0.036670923 -0.0406729 0.03304157
0000c0 9e c1 5b 3d b0 80 03 3a 01 4b 80 3d 98 f3 96 3d
       0.053651445 0.00050164293 0.06264306 0.073706806
0000d0 18 68 c5 3c bf c1 89 bd ac b6 39 bb c5 e4 39 3d
       0.024097487 -0.06726407 -0.002833764 0.045384187
0000e0 89 c6 1c 3c 4a 55 79 3d 62 bd 32 3c 54 4e 42 3c
       0.009568819 0.060872354 0.01090941 0.011859495
0000f0 4a 2b 1e bd 1e f1 d8 3c ff b5 da 3c 50 4c 05 bb
       -0.038615502 0.026482161 0.02669811 -0.0020339675
000100 a1 d0 ab bd 6b b6 2f b9 f8 b2 b0 bd 2d 9b cc bb
       -0.08389402 -0.00016757257 -0.086278856 -0.0062440843
000110 e5 13 40 bd d8 b2 1d bd ba fa 8a ba e1 61 05 3d
       -0.046893973 -0.038500637 -0.0010603287 0.032564048
000120 6b a0 15 bc 1e df 9e 35 f2 89 3c 3d 7b 62 a0 3d
       -0.009132485 1.1836853e-06 0.046029992 0.07831284
000130 1b 3e 64 3d e3 de d8 bc 68 e6 2d bb 9e c8 f2 bc
       0.05572329 -0.026473468 -0.0026535038 -0.029636677
000140 5a a7 6a bd d5 02 84 3d 4c d0 61 3d 27 2a 7e bd
       -0.057288505 0.06445853 0.055130288 -0.06205192
000150 90 6b c9 bb 26 a5 0c bc 03 3d a1 3c 95 0d 76 bd
       -0.0061468557 -0.008584296 0.019682413 -0.060071547
000160 1f 6d 4e 3d 6a d7 03 3c 1a 6e 01 bd d9 8b 2e bd
       0.050397035 0.008046964 -0.03159914 -0.042613838
000170 3c a6 8d 3c 4c 3f 01 bd 9c dd b4 3d 4a 2c 3c 3d
       0.01729118 -0.031554505 0.08831331 0.045940675
000180 cd 90 51 3d 3d e3 d2 bc 98 68 62 bd b2 08 9b 3d
       0.051163483 -0.025743121 -0.05527553 0.07570018
000190 27 61 8e bd 3f 3f b9 3c f5 e1 5e bd c2 d2 c4 bc
       -0.06952124 0.022613166 -0.05441471 -0.024026278
0001a0 63 fa ca bc 78 e2 30 bc 96 d8 4f bd a5 e0 93 3d
       -0.024777597 -0.010796182 -0.05074366 0.07220582
0001b0 16 a8 9a 3c 59 71 3f 3d 4d 12 86 bd 7f be 98 bd
       0.018878978 0.046738956 -0.06546459 -0.07458209
0001c0 de f5 87 bd 21 b0 a0 bd 9f 5c 69 3b 51 17 dc 3c
       -0.06638692 -0.07846094 0.0035608185 0.026866587
0001d0 c1 00 23 3d 31 a8 8d 3c 34 b1 95 3d 62 9d 5a 3c
       0.03979564 0.017292114 0.073091894 0.013343187
0001e0 fe 81 67 3d 15 46 57 3d bf 87 46 3d a1 92 a2 bc
       0.056520455 0.05255707 0.0484693 -0.019845309
0001f0 92 74 9a 3d 33 d0 0f bd d9 0a 41 3c e3 25 64 3d
       0.07541765 -0.035110664 0.011782371 0.055700194
000200 38 e4 94 bd b2 90 2e 3d 4a 05 2c bc ad 7d b1 3d
       -0.07270092 0.04261846 -0.010499308 0.08666549
000210 85 66 0b 3d d1 5f b4 3c 32 21 b1 bc 37 f2 a5 3d
       0.034033317 0.022018345 -0.021622274 0.081028394
000220 4b b6 e1 3c bd 7d 06 bd 79 88 6a 3b 54 35 a8 bc
       0.027552744 -0.032834757 0.003578691 -0.020533241
000230 04 f9 3c bd 8f 7f 4d 3d 34 20 89 3d e3 51 63 3d
       -0.046135917 0.050170477 0.066955954 0.055498015
000240 39 c9 c7 bc bd 6b 1a 3d 7b a4 b7 bb 0b e4 7e 3d
       -0.024387943 0.037700403 -0.0056043244 0.062229197
000250 46 80 ee 3a 65 70 74 bc a7 85 14 3d 34 6f 27 3d
       0.0018196187 -0.014919375 0.036260273 0.040877536
000260 85 89 88 bc 6a 90 7c 3d 32 8b 46 3d ff 68 76 bd
       -0.016667137 0.06166116 0.04847259 -0.060158726
000270 b2 ef a9 3d a8 38 8e bc 72 69 8e bd 37 d1 2f bd
       0.082976714 -0.017361 -0.06953706 -0.042924132
000280 a8 ed da 3b 36 2c 13 bd 10 a1 8c bd af af ad 3d
       0.006681163 -0.035930835 -0.06866658 0.084807746
000290 1c e0 b4 3c 3b 99 da bc a6 d2 44 bd c5 54 9b 3d
       0.02207952 -0.026684394 -0.048052453 0.07584528
0002a0 ab 96 ac 3c 08 1a 86 bc 31 ae cd 3c 6f 92 8a bb
       0.021067938 -0.016369835 0.025107475 -0.004228882
0002b0 b3 b5 1c 3d 67 a4 29 bc c7 07 ac 3d 7a 4b a6 bd
       0.03825922 -0.010354138 0.08399921 -0.08119865
0002c0 e5 a2 ca 3c 50 ac 8b bc ad 6a b3 bd f6 a6 c5 3c
       0.024735877 -0.017049938 -0.08760581 0.024127465
0002d0 f8 e5 30 bd d7 dc 8d bc 6e 95 14 bc bb 2b 51 3c
       -0.043188065 -0.017317219 -0.00906883 0.012766774
0002e0 ce 20 81 bc 6a 10 83 3c 80 9f 06 3d da 6b 35 bd
       -0.015762713 0.015999038 0.032866955 -0.04429231
0002f0 5c 21 12 bb 58 f0 1f bd f6 f6 6d 3d 0a ef 96 bd
       -0.0022297716 -0.03904757 0.05809685 -0.07369812
000300 df d6 26 bc dd 0a 34 bd e5 f1 90 bd ba 3d 3b bb
       -0.010183065 -0.043955673 -0.07077388 -0.0028570727
000310 b4 d6 01 3d 51 b3 b7 bb dc 08 69 3d 6a df 71 bd
       0.031698897 -0.005606093 0.056893215 -0.059050955
000320 c7 f5 69 3d 87 2f a1 bd 50 f3 06 bd 00 cd 17 bd
       0.057119157 -0.07870393 -0.032946885 -0.037060738
000330 47 f5 b6 3c a9 2f 8e 3d ca d1 1b bd dd 11 69 3d
       0.022333754 0.06942684 -0.038041867 0.0569018
000340 45 9a 61 3d 02 a0 30 bc af 20 63 bd 42 cd 1e 3d
       0.055078764 -0.010780336 -0.05545109 0.038769968
000350 f7 bf 00 3d db 4c f6 3c 8d 1f 53 3d 38 e6 6e 3d
       0.031433072 0.030065944 0.05154376 0.058325022
000360 17 f8 65 bc 76 df a2 bd 85 13 10 bd b0 8e 44 3d
       -0.0140362 -0.07952778 -0.035174865 0.04798764
000370 4d 1a 0b bd 17 84 44 3d a8 10 5d bd f9 54 74 3c
       -0.03396063 0.047977533 -0.053970963 0.014912837
000380 57 ae b3 bd ab b8 b4 3c c8 c3 02 3c 6a c2 eb bc
       -0.08773487 0.022060713 0.007981248 -0.028779227
000390 74 de 8c 3d ea 24 bd bd d7 da a0 3d 3b ac 7d 3d
       0.06878367 -0.092355564 0.078542404 0.06193183
0003a0 0e 6a b1 bc 5a 41 02 3d 42 21 45 3d db 62 83 bc
       -0.021657016 0.031800605 0.04812742 -0.016038349
0003b0 27 87 c7 bc fe 1d 91 3c 15 4d 9d 3d c8 8a ad bd
       -0.024356438 0.017714497 0.07680718 -0.08473736
0003c0 0e 45 6a 3d 37 c8 cb bc 09 3b 05 bd 90 f0 8b 3d
       0.057194762 -0.024875743 -0.032527003 0.06832993
0003d0 39 fb 15 3d 63 11 a9 bd be f5 ae 3c 0a dc 4a bd
       0.036616538 -0.082552694 0.021357413 -0.04952625
0003e0 e6 dc d8 bb 0a 9e bd bc 3a f3 aa bd 47 45 46 bd
       -0.00661813 -0.023146648 -0.08347173 -0.04840591
0003f0 61 3e 6e 3d 4d d8 4b 3c 32 4e 79 3b 7e 7a 50 3d
       0.058164958 0.012441707 0.0038040993 0.050898068

classifier.layers.0.bias f4 [16]
000000 5e ac 92 bd a1 44 00 bd 26 80 92 3d 59 09 1e 3d
       -0.07161783 -0.03131545 0.071533486 0.038583133
000010 9f 3e 55 bb 05 77 cc 3c d0 22 49 3d b1 c8 75 3d
       -0.0032538546 0.024959097 0.049105465 0.060005847
000020 ad ae 3a 3d d4 59 4d bd af 52 89 bd ce 77 58 bc
       0.04557674 -0.050134495 -0.06705224 -0.013212157
000030 e4 87 81 3c 0c ec ca bc 31 87 6a bd 7b e3 8e bd
       0.015811868 -0.024770759 -0.057257835 -0.06976982

classifier.layers.2.weight f4 [5, 16]
000000 52 fd 20 3b 11 22 31 be 86 24 34 3e 9e 8b d7 3c
       0.0024565053 -0.17298152 0.17592058 0.026311692
000010 2a f6 a4 bd e1 ee 3d 3e 1c ad 68 3e 8a a0 e0 3d
       -0.080547646 0.18548156 0.22722286 0.109681204
000020 4f 64 66 be e2 07 45 bd 70 78 94 bd bf df 67 be
       -0.22499202 -0.04810322 -0.07249534 -0.22643946
000030 53 31 66 bd 7e d7 eb bc 9e 33 04 be 90 c4 85 3d
       -0.056199383 -0.028789278 -0.12910315 0.06531632
000040 77 55 0d 3e ee 79 9f 3d 5c 10 51 3c 39 02 0a 3e
       0.13802134 0.07786928 0.012760248 0.1347741
000050 f6 4e 63 3e 5f 83 27 be 47 67 11 be f4 05 26 be
       0.2219809 -0.16358708 -0.14199553 -0.16213208
000060 45 fa 28 be 59 73 7d be 14 af c5 3d 38 90 21 3e
       -0.1650172 -0.24751033 0.09652534 0.15777671
000070 ca e8 82 3d c9 05 a8 be 70 2f c1 bc f0 7e 7c 3d
       0.06392057 -0.32816914 -0.02358219 0.061644495
000080 39 ac 42 3e ba 84 a8 3c 01 ab 09 be 1c cd 2a 3d
       0.1901101 0.020571101 -0.13444139 0.041699514
000090 6e be 23 3d 8e d5 aa 3c d4 5e 6e 3d 1b 9a a1 3d
       0.03997653 0.020853784 0.058195904 0.078907214
0000a0 46 40 0d bb ba 9e 07 be 8b be 1b 3e d1 e2 9c 3d
       -0.0021553203 -0.13244143 0.15209405 0.07660449
0000b0 67 3f 8d bd 43 e9 1d be 50 5d c6 3c 9c 52 9b bd
       -0.06896859 -0.15421014 0.024214417 -0.07584116
0000c0 26 ec 0c be 2d c7 56 be f5 9d 74 bd 75 d9 c7 3d
       -0.13761958 -0.20974417 -0.059720952 0.097582735
0000d0 a1 96 22 3e 89 ff dd 3d 18 dd e8 3d ff ed f2 3d
       0.15877773 0.10839755 0.11370295 0.118618004
0000e0 8f d2 90 3d 85 6a ad be 0d ce 1f 3d a6 3a 20 be
       0.07071411 -0.3387033 0.039014865 -0.15647373
0000f0 c7 d7 a7 bd aa 27 99 be 44 d1 7a be a0 f0 0d 3e
       -0.08195453 -0.29913074 -0.24493891 0.13861322
000100 fa 4b c2 3a 54 78 22 3e a3 57 ae 3d f4 e2 5c be
       0.0014823668 0.15866214 0.08512809 -0.21570951
000110 d1 0d 2f be 65 bf 2e be dc 77 00 be 1b 56 57 3e
       -0.17095114 -0.17065199 -0.12545723 0.2102894
000120 45 8c 8e 3d 7c 90 3e bd 88 b3 3d bd 66 7e cc bd
       0.06960348 -0.04652451 -0.046313792 -0.09985046
000130 e9 b5 67 3e 50 9b 0c 3e 54 7e 03 be 88 c6 25 3d
       0.22627987 0.13731122 -0.12841159 0.040472537

classifier.layers.2.bias f4 [5]
000000 0f 9e db bd e9 13 8b bd 92 73 10 3d f5 47 97 be
       -0.10723507 -0.06790907 0.035266466 -0.29547086
000010 db 03 0a bc
       -0.008423771

pool.gate_nn.0.weight f4 [16, 16]
000000 72 c5 38 3e 82 e6 21 3e 38 20 14 3e c0 2e a5 3d
       0.1804407 0.15810588 0.14465415 0.080655575
000010 0e 2a 48 3e 7a 7e 64 3e c0 92 8d 3c d0 d1 fe bd
       0.19547293 0.22313872 0.01728189 -0.12442362
000020 b6 3e 6a be 80 3e 27 3d 02 24 32 3e 40 3c c5 bd
       -0.22875485 0.04083109 0.17396548 -0.096306324
000030 c4 53 56 3e 5c dd 96 3d 90 30 e6 bd 5a 33 6c 3e
       0.20930392 0.0736644 -0.11239731 0.23066464
000040 e8 18 7e 3e e0 87 11 3e e0 82 41 bd c4 01 8c 3d
       0.24814188 0.14211988 -0.047243953 0.06836274
000050 c0 1c 68 be 60 ce e9 bc 84 bc d6 3d b0 10 b3 bc
       -0.22667217 -0.02854079 0.10485175 -0.021858543
000060 da 24 58 3e 50 9f 92 bd 8a 45 43 3e 88 f4 d2 bd
       0.21107808 -0.07159293 0.19069496 -0.10300547
000070 d6 2e 3b 3e 7a 05 7e 3e 18 f3 61 be 8a e4 39 be
       0.18279585 0.24806777 -0.22065389 -0.18153587
000080 ca 8b 47 3e 3e 40 41 3e c4 37 ec bd 80 5f 40 bd
       0.19486919 0.18872163 -0.11534074 -0.046966076
000090 94 13 2b be 28 f6 69 3e 04 d7 4b 3e 38 f3 67 3e
       -0.16706687 0.22847807 0.1990624 0.22651374
0000a0 42 6d 0e 3e d0 cc 96 bd e6 dd 75 3e 52 c7 5f 3e
       0.13908866 -0.07363284 0.24010429 0.21853378
0000b0 30 5f 99 bd a4 58 98 3d 8c 5b 64 3e 08 5b e1 bd
       -0.07488859 0.07438782 0.22300547 -0.11003691
0000c0 7c 78 29 be c8 8f e5 bd c2 f2 24 be a0 d3 3c 3d
       -0.16549867 -0.11209065 -0.1610823 0.04610026
0000d0 40 b4 4a 3c b6 17 0f be e0 85 14 3c 1c 8e 47 be
       0.0123720765 -0.13973889 0.009065121 -0.19487804
0000e0 8e ac 3b 3e ac 41 1c 3e 84 26 2e 3e e8 0e 0c bd
       0.18327543 0.15259427 0.1700688 -0.034193903
0000f0 a8 76 6d bd 70 7c 86 bc a6 97 67 3e b2 02 2c be
       -0.057974488 -0.016416758 0.22616443 -0.16797903
000100 80 0a 61 bd 1e 37 27 be c0 0e 6e 3e 96 38 3b be
       -0.054941654 -0.1632962 0.23247814 -0.18283305
000110 10 4c e3 bd 24 3c 7e be f8 b0 61 be 38 ff 79 3d
       -0.11098492 -0.2482763 -0.22040164 0.06103441
000120 52 33 38 3e 58 b1 12 be 8a 87 34 be c0 59 b6 3c
       0.17988327 -0.14325464 -0.17629829 0.022259593
000130 0a 55 77 be 88 0d 52 bd ac 9c b0 3d 82 75 4a be
       -0.24153534 -0.051282436 0.08623633 -0.19771388
000140 a0 89 c9 3d 00 96 cf bb bc ac 57 3e 5e e6 4f 3e
       0.09840703 -0.00633502 0.21061987 0.20302722
000150 a6 d3 09 be 66 79 44 be 18 4a 6f 3d 10 23 ce bc
       -0.13459644 -0.19186935 0.05842027 -0.025163203
000160 e8 ee 9d 3d 74 0f 84 bd 42 cc 02 3e 7a 2f 69 3e
       0.077115834 -0.0644826 0.1277323 0.22772017
000170 d0 a7 1d 3d fa e8 0f 3e 88 48 41 3e d0 5b eb 3d
       0.038490117 0.14053717 0.18875325 0.11492121
000180 68 9f 31 3d fe ce 43 be 88 af 6c bd 18 4c 96 3d
       0.043364912 -0.1912193 -0.057784587 0.073387325
000190 20 2a cb 3c b4 b6 0e 3e c0 ce 0f 3c 48 8b 76 3d
       0.02480036 0.13936883 0.00877732 0.060191423
0001a0 58 96 0b 3e 42 67 44 be e4 f4 24 3e 3a 65 37 3e
       0.1363157 -0.19180015 0.16109043 0.17909709
0001b0 84 3c 0d 3e f8 67 70 3d f6 e6 0e 3e f0 fb f4 3c
       0.13792616 0.058692902 0.13955292 0.02990529
0001c0 5c c0 62 3e 1c 6e 2d be 84 ef cd 3d 9a 8f 59 3e
       0.22143692 -0.16936535 0.100554496 0.21246186
0001d0 36 95 04 be 10 d2 9b 3d 32 37 04 be e0 5e cf bd
       -0.12947544 0.076084256 -0.1291168 -0.10125518
0001e0 12 10 45 be d6 98 28 be 6c 46 15 be da ac 23 be
       -0.19244412 -0.16464552 -0.14577645 -0.15983906
0001f0 60 44 37 3e f8 36 bb 3d 72 8e 16 be ba db 37 be
       0.17897177 0.09141344 -0.14702776 -0.17954913
000200 de a9 26 3e 40 58 f3 3d f8 d4 a0 bd 8c 8c cb bd
       0.16275737 0.11882067 -0.078531206 -0.099389166
000210 f4 73 d3 bd 64 d1 22 3e d0 7c 1f be de 5b 30 be
       -0.10324851 0.15900189 -0.15574956 -0.17222545
000220 e0 2c 82 3d 58 e3 32 3e 9e 5c 08 be 08 d9 bf 3d
       0.063562155 0.17469537 -0.1331658 0.09367567
000230 80 9d 31 3e 90 84 2f 3d 22 81 10 be f0 cd 3d be
       0.17345238 0.04285103 -0.1411176 -0.1853559
000240 cc 35 24 be 08 fe da bd 62 ee 2c be 82 a7 6a be
       -0.16036147 -0.10692984 -0.16887811 -0.22915462
000250 64 ee e2 bd 60 f7 50 3e 4e c4 44 3e 9a a6 68 3e
       -0.11080626 0.20406866 0.1921551 0.22719803
000260 80 e4 f3 3b 00 96 f7 3d 08 64 15 3e c4 78 43 be
       0.007443011 0.12089157 0.1458894 -0.19089037
000270 62 8f 4c be 98 c4 48 3d 00 92 58 bd a6 ae 75 3e
       -0.19976571 0.04901561 -0.05287361 0.23992404
000280 d8 09 c5 bd 60 95 f0 3c f4 54 ca 3d 44 b2 61 3e
       -0.09621018 0.029368103 0.09879485 0.22040659
000290 08 77 bf 3d f0 b4 62 3e 56 58 6a 3e 90 82 dd bd
       0.09348875 0.22139335 0.2288526 -0.108159184
0002a0 68 98 24 bd 88 71 e2 3d b0 fe 42 3d ce a5 5b 3e
       -0.04018441 0.110568106 0.04760617 0.21449968
0002b0 94 eb 37 3e 3a 9a 04 3e dc a7 d1 bd 78 f8 92 bd
       0.1796096 0.12949458 -0.10237095 -0.07176298
0002c0 00 7e 48 3b 48 8a 71 3e 18 f3 9d bd 80 11 cf bc
       0.003059268 0.23587906 -0.07712382 -0.0252769
0002d0 7c 0b ea bd 32 a0 6f be 78 06 68 3d f2 75 2c be
       -0.11427972 -0.23400953 0.056646794 -0.16841868
0002e0 d8 a2 a0 bd aa 8f 70 3e 2e d0 21 be 88 43 49 bd
       -0.0784356 0.23492303 -0.1580207 -0.04913667
0002f0 46 5b 43 be e8 d1 af 3d 84 c6 f1 bd 30 db 46 3e
       -0.19077787 0.08584958 -0.11805442 0.19419551
000300 c0 b3 07 3e 04 e3 e4 bd 5a 31 72 be 2c 73 9c bd
       0.13252163 -0.11176112 -0.23651639 -0.07639155
000310 20 c5 75 3e e0 f3 38 3c 6e 69 74 3e a0 07 e1 bd
       0.24000978 0.011288613 0.23868343 -0.109877825
000320 b4 7d 30 be e4 e2 75 be cc 79 e1 3d 5a e2 03 3e
       -0.17235452 -0.24012333 0.11009559 0.12879315
000330 c0 95 bb 3d 70 ba de 3c f0 04 fb 3c c8 0a 53 3e
       0.09159422 0.02718851 0.030642003 0.20609581
000340 18 10 74 3d cc ea 5a 3e d0 63 3b bd 60 71 1f be
       0.05958566 0.2137863 -0.045749485 -0.15570593
000350 bc 40 9b bd d0 c9 ee 3c e8 d4 04 be 28 eb ee 3d
       -0.075807065 0.029148966 -0.12971842 0.11665946
000360 b6 58 39 3e 7a 85 41 be 6a aa 73 3e b0 f4 aa 3c
       0.18100247 -0.18898574 0.23795477 0.02086863
000370 b0 34 21 bd 34 11 92 3d a4 78 46 be dc cd 11 3e
       -0.039356887 0.071321875 -0.19381958 0.14238685
000380 98 cb 44 be 14 cb 32 3e a8 75 4d be 80 15 ce bc
       -0.1921829 0.1746028 -0.20064414 -0.025156736
000390 78 e9 6f 3e 24 2d 2a be 36 27 36 be a2 55 10 3e
       0.23428905 -0.16618782 -0.17788395 0.14095166
0003a0 e0 4d 65 bd f0 c1 ea 3c b0 75 fd 3d 58 74 39 3e
       -0.05598247 0.02865693 0.12375963 0.18110788
0003b0 40 3e 72 bd 84 82 1a 3e 96 78 52 3e f8 40 59 3e
       -0.059141397 0.1508885 0.20553812 0.2121619
0003c0 bc a3 83 bd 8a 45 00 3e 00 a2 9d 3d 78 06 48 be
       -0.06427714 0.12526527 0.07696915 -0.19533718
0003d0 dc 04 e8 bd 40 37 b4 bd f8 9d b6 bd 46 ba 23 3e
       -0.11329052 -0.087996006 -0.08916849 0.15989026
0003e0 ce 85 01 be 3c ae de 3d 0e 62 0d be 5c 30 b4 bd
       -0.12648699 0.10873076 -0.13806936 -0.08798286
0003f0 00 73 1c 3e ba d1 74 be 1c a9 27 be 94 8c d7 3d
       0.15278244 -0.2390813 -0.16373104 0.1052486

pool.gate_nn.2.weight f4 [1, 16]
000000 a0 ff bd bd 2c 05 05 3e e0 57 b8 bc 00 08 97 3d
       -0.09277272 0.12990254 -0.02250284 0.07374573
000010 80 3a 34 3c 46 a2 41 3e 80 9e 7c 3b 52 bc 5d be
       0.011000276 0.18909559 0.0038546622 -0.2165387
000020 c6 50 28 3e 98 9a f4 3d aa 62 44 be cc 61 19 3e
       0.16437063 0.11943549 -0.19178262 0.14978713
000030 80 77 0d bd 12 6f 33 3e d8 88 4d be a0 67 94 bc
       -0.034537792 0.17522839 -0.20071733 -0.018115819

pool.nn.layers.0.weight f4 [16, 16]
000000 b8 98 0c bd 1c 65 cb 3d 3c 30 f9 bd ac e1 29 bd
       -0.03432533 0.099313945 -0.12167403 -0.041474983
000010 30 a7 77 3e 15 9c 8a 3d d8 ff a1 bd 70 e8 07 3e
       0.2418487 0.067680515 -0.079101264 0.13272262
000020 11 c6 f0 bb d3 e2 3b 3e 91 76 6d 3e 8d e3 2d be
       -0.00734783 0.18348245 0.2318976 -0.16981335
000030 6e ee 41 be eb f7 11 bd 92 29 51 3e ff a2 69 be
       -0.1893861 -0.035636824 0.20426014 -0.22816084
000040 2c 3e 8c be 6b 41 b8 be a1 6d dd 3c 98 77 f4 3d
       -0.27391183 -0.3598741 0.027029814 0.11936873
000050 b0 c4 9d be be 49 33 be e5 9d a7 be a9 e6 d4 bd
       -0.30814123 -0.17508599 -0.3273765 -0.103955574
000060 33 1b 8c 3e 21 2b 4c 3d dd a2 08 be b2 29 1a 3c
       0.273645 0.04984582 -0.13343377 0.009409355
000070 21 01 0e be f3 04 82 3e 6e ba 99 be 3a 04 e5 ba
       -0.13867618 0.253944 -0.30025047 -0.0017472573
000080 6c 58 f8 bb e7 86 03 3e 10 5a b4 3d 16 63 42 3e
       -0.0075789 0.1284443 0.088062406 0.18983111
000090 b4 11 ae be fe 91 f1 3d 95 a9 d1 3c f2 ee 50 3b
       -0.3399788 0.11795424 0.025593558 0.0031880704
0000a0 b0 00 97 bd 06 60 75 3e 54 d0 a4 3e e7 46 b1 3e
       -0.07373178 0.23962411 0.32190192 0.34624407
0000b0 27 54 17 be b2 25 5e 3e 5e b6 8d be 08 fd 99 be
       -0.14778195 0.21694067 -0.27678198 -0.3007586
0000c0 4d 03 aa 3c 59 0c b8 bd 85 a2 bd bd 3e 12 fc 3d
       0.020753527 -0.0898673 -0.09259514 0.12308167
0000d0 2a fe 7c bd dc 0b af be b1 20 85 be 35 97 c2 3d
       -0.061765827 -0.34188735 -0.26001504 0.09501497
0000e0 0e 16 a1 3d 51 b5 b4 3e 11 b1 43 3e 3a 87 6d 3d
       0.07865535 0.35294583 0.19110514 0.05799029
0000f0 cc 0b a7 bb 1c e4 8d 3e 7b 66 61 be d6 dc d7 bc
       -0.005097842 0.27713096 -0.2201175 -0.02635042
000100 b0 e5 cf bc 20 31 e1 3c 54 59 e4 bd 80 0e 41 bd
       -0.025378078 0.027489245 -0.111498505 -0.04713297
000110 24 e3 b6 3d 80 f4 9b 3d 90 7d 55 3d 08 a3 f1 bd
       0.089300424 0.07614994 0.0521217 -0.11798674
000120 06 64 20 be 20 9c 08 3d 4c 90 f5 bd 56 6f 20 3e
       -0.15663156 0.033352017 -0.11990413 0.15667471
000130 b4 54 74 be 34 08 32 be 1e 09 05 3e 2c e5 fa bd
       -0.23860437 -0.17385942 0.12991759 -0.12250742
000140 f8 6a 80 3d ab 57 45 bb 7d cc 0e be b6 95 14 be
       0.06270403 -0.0030112069 -0.13945194 -0.14510235
000150 17 75 96 be 45 83 94 be 6f f3 61 be 65 d6 90 3d
       -0.29386207 -0.290064 -0.22065519 0.070721425
000160 da f5 9f 3e df a8 a7 3e 8d f7 6f bd 1d 7f ae 3e
       0.31242257 0.32746026 -0.058585692 0.34081355
000170 5a 29 b2 bc 2a 36 f5 bd 3f 40 67 be 7e b8 28 be
       -0.021748234 -0.119732216 -0.22583102 -0.16476628
000180 ed 50 4c 3e b0 28 49 3d 97 92 9d bc 37 08 4d bc
       0.19952746 0.04911107 -0.019234939 -0.012514166
000190 71 64 b0 3e 63 f3 c7 3d d2 44 b9 3e c4 af ba 3e
       0.3445163 0.09763219 0.36185318 0.36462224
0001a0 36 92 fa 3d 45 27 03 be 99 49 99 be 2a 95 b2 3c
       0.12234919 -0.12807949 -0.29938963 0.021799643
0001b0 c5 af d6 3d 9f bc 1a 3b 0d d1 be bd be 12 03 3e
       0.10482744 0.0023610962 -0.09317217 0.12800118
0001c0 5b ba c4 3b 23 74 07 3e c9 64 80 bd 39 d4 50 be
       0.0060036606 0.13227896 -0.06269223 -0.20393457
0001d0 3c 7b 0f be 39 8f 6f be 47 38 2d 3e 32 65 76 bb
       -0.14011854 -0.23394479 0.16916 -0.0037596938
0001e0 c4 62 3b be 49 43 81 3e fb 39 25 3e 27 7c f8 3c
       -0.18299395 0.25246647 0.16135399 0.030332638
0001f0 5a 75 0e 3e 56 63 c5 bd ca 8f 11 3d be e6 52 3e
       0.13911954 -0.096380875 0.03553752 0.20595834
000200 01 ad ae be 45 fd 89 bd f1 ac e3 bc b9 93 ab 3e
       -0.34116367 -0.067377605 -0.027792426 0.3351114
000210 7a ee cc be 47 cd 07 ba d5 95 28 be 21 88 1c be
       -0.40025693 -0.000518043 -0.16463406 -0.15286304
000220 56 7b b0 bc 95 ef 82 bc 9a 1f ec bd b8 03 c4 bd
       -0.021543186 -0.015983382 -0.11529465 -0.09571022
000230 6d 4d 9a 3d 44 05 ad 3e 66 39 74 be 7e 09 41 bb
       0.07534299 0.3379308 -0.23850021 -0.002945512
000240 f4 9c 89 3d 19 ba bf bd 04 24 eb b9 a3 dd 32 bd
       0.067193896 -0.09361667 -0.00044849527 -0.0436684
000250 da 18 b5 be 26 1f 5b be 22 c7 d2 3c a7 85 d2 bd
       -0.35370523 -0.21398601 0.02572972 -0.102793984
000260 c3 c8 1f 3c bb 1f 9a 3e 8f 16 75 3e 2c dc 88 3e
       0.009752455 0.30102333 0.23934387 0.26730478
000270 af cf 0d be f2 29 d2 bd cb a0 b7 be 81 20 f9 bd
       -0.13848756 -0.10261907 -0.35864863 -0.12164403
000280 73 9a 81 be 67 0d 91 bd 51 b9 a9 be 84 66 7d 3e
       -0.25313148 -0.070826344 -0.33149198 0.24746138
000290 40 b0 e6 3d 0e a7 9b be 8d c6 80 be d3 9e a8 be
       0.11264086 -0.3040089 -0.25151482 -0.32933673
0002a0 0c 34 26 3e 60 ae 95 3e a7 24 2a 3e 10 c5 de 3d
       0.16230792 0.292346 0.16615544 0.108774304
0002b0 37 4d 7e be 1f 30 7f bd 82 a2 a4 be 2e 2a 27 be
       -0.24834143 -0.06230175 -0.32155234 -0.16324684
0002c0 83 fc 20 3e f9 61 8a 3e 36 fd a4 3d d6 37 d0 bd
       0.15721326 0.27027872 0.08056109 -0.101669
0002d0 70 eb b7 bd 32 9a 9a 3d 80 09 e4 3d ce 63 10 3e
       -0.08980453 0.07548942 0.111346245 0.14100572
0002e0 08 19 91 be ea a7 4e 3b a9 9b 09 3e 91 49 3e 3e
       -0.2833941 0.003153319 0.13438286 0.18582751
0002f0 af ea 19 3e 4d de eb bc 6c a4 88 3e 87 ab 84 3d
       0.15030931 -0.028792525 0.26687944 0.06478029
000300 cb df 59 be 31 a6 35 3c 40 85 86 3d 21 58 da bd
       -0.21276776 0.011086986 0.06568384 -0.106613405
000310 b7 42 93 be e2 dd 92 bd e3 c8 8a 3c 8a 94 86 3c
       -0.28761837 -0.07171227 0.016941493 0.01642825
000320 6e 53 9a 3e 09 44 5e 3e ef c2 b7 3d ac b8 d5 3d
       0.30141777 0.21705641 0.089727275 0.10435614
000330 cb d0 52 be 22 29 8d 3e ae 3e 36 bd fb 52 28 bd
       -0.2058746 0.27570444 -0.04449337 -0.04109476
000340 38 f9 77 3e 68 75 62 3e 10 9f 3e be de 7f 25 3e
       0.24216163 0.221151 -0.18615365 0.16162059
000350 ee 8e 6b bd 96 e9 10 be d9 3e 9f 3c 89 54 22 3e
       -0.057509355 -0.14151606 0.019439148 0.1585256
000360 d4 ff 51 bd cb ba 66 be 64 87 9f ba d2 cb 14 3e
       -0.051269367 -0.22532193 -0.0012171087 0.14530876
000370 a2 5c db 3c 41 df 40 3e df 68 b5 3d 92 ea b6 bd
       0.02677757 0.18835165 0.08857893 -0.089314595
000380 53 20 35 bd f1 af b0 bd 99 13 2b be 41 e4 07 be
       -0.04422028 -0.08627308 -0.16706695 -0.13270666
000390 30 7d 90 be 87 c2 6d be 7b 39 10 be 6f 7b 79 be
       -0.2822051 -0.23218738 -0.14084427 -0.24363492
0003a0 cc 5f 9a 3d 1d 52 c2 3e 77 1b 6c 3e f2 56 e5 bc
       0.07537803 0.37953272 0.23057352 -0.02799556
0003b0 cf a1 99 3d ca 7c 83 3e 62 b1 e9 bd b2 51 3c be
       0.07501566 0.25681144 -0.11410786 -0.1839054
0003c0 45 43 56 be 21 11 b2 be a9 29 aa be 8a 1b b9 3e
       -0.20924099 -0.34778693 -0.3323491 0.36153823
0003d0 8b 86 9f be ca a9 67 be 47 e7 89 bd fc 09 b9 be
       -0.31157336 -0.22623363 -0.06733566 -0.3614043
0003e0 a2 22 a4 3e 12 a2 f4 3d 5b cf 3f 3e 35 ad b2 3e
       0.32057673 0.11944975 0.18731444 0.3489777
0003f0 81 f4 92 be ce 93 0f 3e b2 ac b9 be a8 0c 6b be
       -0.28702167 0.14021227 -0.3626457 -0.22954047

pool.nn.layers.0.bias f4 [16]
000000 7d 34 47 be a1 30 6f 3e c4 06 d7 bd 4a 28 c5 3d
       -0.19453616 0.23358394 -0.10499337 0.09626825
000010 3c bd 31 be 99 a7 9a 3d f1 37 ed 3d 27 b2 7d bd
       -0.17357343 0.07551498 0.115829356 -0.061937477
000020 06 80 0b 3d 1f 05 99 3e 70 e7 09 3e 74 5c ec 3c
       0.03405764 0.2988672 0.13467193 0.028852679
000030 90 67 35 3d a0 70 33 be 3f fd 25 3e 3e dc 11 3e
       0.044288218 -0.17523432 0.16209887 0.14244172
