models_spike/lolcat_head1_AD_HF02_2.pt (torch, 158942 bytes, 16 tensors)

encoder.layers.0.weight f4 [64, 499]
0	0xbd17f14f	-0.037095364
1	0x3cfeb08a	0.03109004
2	0x3bbf1272	0.0058310563
3	0x3d2945b1	0.04132623
4	0xbd1cdedd	-0.038298476
5	0x3d330a23	0.04371084
6	0x3cdef07f	0.027214287
7	0x3d0c723c	0.03428863
8	0x3cd849e7	0.026402427
9	0x3cd4dacc	0.025983237
10	0xbd28ff49	-0.041259084
11	0x3d0ab231	0.033861343
12	0x3bcdc8d9	0.0062800464
13	0x3c7016de	0.014653889
14	0x3b83126c	0.003999999
15	0xbd19b6b7	-0.037527766
16	0xbce4af9c	-0.027915768
17	0x3b5b8ccb	0.0033500667
18	0xbc10685b	-0.008813943
19	0x3b3badb7	0.0028637478
20	0x3c898d69	0.016791062
21	0xb9c078d8	-0.0003671113
22	0xbd13722c	-0.035997555
23	0xbcd9118d	-0.026497627
24	0x3cddf4dd	0.027094299
25	0xbc69fa3f	-0.014280855
26	0x3b1a6d85	0.0023563814
27	0x3ccdbff0	0.025115937
28	0x3c0877fe	0.00832939
29	0xbce1c1b3	-0.027558183
30	0x3cb5e897	0.022205634
31	0xbd223147	-0.039597776
32	0x3c1de734	0.009637643
33	0x3cbe9b47	0.023267401
34	0xbcf80008	-0.030273452
35	0x3c81bc93	0.01583699
36	0x3d085dd0	0.03329259
37	0x3d30a21e	0.043123357
38	0x3d2ad4db	0.0417069
39	0xbbbd2ba9	-0.005773027
40	0xbbda33a5	-0.0066589885
41	0xbcc99b03	-0.024610048
42	0xbc15ee6d	-0.009151083
43	0xbcd22a2c	-0.025654875
44	0xbd1e9539	-0.03871653
45	0xbcc2d9ad	-0.023785437
46	0xbd065f6d	-0.03280585
47	0x3d2c21e2	0.0420245
48	0x3ca1e7bf	0.019763825
49	0xbc8d8ad9	-0.017278122
50	0x3d0c1f05	0.03420927
51	0x3d106e5f	0.035261508
52	0x3cae4d4b	0.02127709
53	0x3b92eecd	0.0044840337
54	0xbd2b2247	-0.041780736
55	0x3b71b2b2	0.0036880192
56	0x3c8b0dbd	0.016974324
57	0xbc9dc9e7	-0.019261314
58	0xbd2e29fe	-0.042520516
59	0xbd039a10	-0.032129347
60	0x3d2481aa	0.04016272
61	0xbc154bf8	-0.009112351
62	0xbd14de97	-0.03634509
63	0x3c61fdcc	0.01379342
64	0x3c294a9f	0.010332732
65	0x3c5ae43a	0.0133600775
66	0xbcc6ed8b	-0.024283191
67	0xbc3506cf	-0.011048987
68	0xbcacb6e5	-0.021083305
69	0xbccbe147	-0.024887694
70	0xbcd2ed07	-0.02574779
71	0xbca48203	-0.020081526
72	0x3bf71c4c	0.007541215
73	0xbd1a60a2	-0.037689812
74	0x3cad7eef	0.02117869
75	0xbbf06343	-0.0073360517
76	0x3d2a0fbb	0.041518908
77	0x3cf8594f	0.030316023
78	0x3cd3dbaa	0.02586158
79	0xb994c4e4	-0.00028375455
80	0xbb417f43	-0.0029525317
81	0x38473b53	4.7500547e-05
82	0x3bc577b9	0.006026235
83	0xbcab6217	-0.020920796
84	0xbd24c40d	-0.04022603
85	0x3d11ad75	0.035565812
86	0x3d06f9b2	0.03295297
87	0x3c2f4787	0.010698206
88	0x3d146c64	0.03623618
89	0xbd0a47e6	-0.033759974
90	0xbc2b286f	-0.010446652
91	0x3c5e34f8	0.013562433
92	0xbc2a9a08	-0.0104127005
93	0x3cc24e90	0.023719102
94	0x3d0cd378	0.03438136
95	0x3cb58164	0.022156425
96	0x3c8a02ad	0.016846979
97	0x3cb17047	0.021659983
98	0xbc653b00	-0.0139911175
99	0xbc9af36b	-0.018914899
100	0x3cff584a	0.03117003
101	0xbc472f98	-0.012157343
102	0xbbbbf603	-0.005736114
103	0x3c1ce13b	0.0095751835
104	0xbd302a78	-0.04300925
105	0x3be96d9d	0.0071236626
106	0xbd20c762	-0.039252646
107	0xb9c51a40	-0.00037594326
108	0x3c9906b8	0.018679962
109	0x3c6219bb	0.01380008
110	0xbc8924b3	-0.016741132
111	0x3d1052f3	0.035235357
112	0xbca80d40	-0.02051413
113	0x3b22900b	0.0024805095
114	0x3d060e6b	0.032728594
115	0xbcb34921	-0.021885457
116	0x3d1f9aa5	0.03896584
117	0x3d1635d9	0.036672447
118	0x3cced60f	0.025248555
119	0xbbdd83c9	-0.006760095
120	0x3cb46684	0.02202154
121	0x3cfd7306	0.030938637
122	0xbd0a89a8	-0.033822685
123	0x3bcb78dc	0.006209476
124	0x3c5c5225	0.013447319
125	0x3d01d111	0.031693522
126	0xbb9d1834	-0.004794145
127	0x3bfaefea	0.0076579945
128	0x3ae266e9	0.0017273101
129	0x3c4ee091	0.012626783
130	0xbd025659	-0.03182063
131	0xbb8e9b49	-0.0043520075
132	0xbbed7098	-0.0072460882
133	0x3d2582ba	0.040407874
134	0x3cab8762	0.020938579
135	0xbc58385b	-0.01319703
136	0x3c167a36	0.009184411
137	0x3c394724	0.011308465
138	0xbcf9a922	-0.030476157
139	0x3cdfa3d4	0.027299799
140	0xbd0c75f4	-0.034292176
141	0x3ccaaa8b	0.024739524
142	0x3afb504b	0.001917371
143	0x3d333f08	0.043761283
144	0xbca18f4c	-0.01972165
145	0xbcccc8ba	-0.024998058
146	0xbd116f31	-0.03550643
147	0x3c6419d6	0.013922175
148	0xbc2c81c2	-0.010528984
149	0x3cc31050	0.02381149
150	0x3c424a47	0.011858529
151	0xbd25733e	-0.040393107
152	0x3c335c9d	0.010947374
153	0xbca185cf	-0.019717125
154	0xbcc894a1	-0.024484934
155	0xbcf9819a	-0.030457307
156	0x3ceea901	0.029133322
157	0xbd28cc50	-0.041210473
158	0xbc92030a	-0.017823715
159	0xbd18244d	-0.037143994
160	0xbc09c7fc	-0.008409496
161	0x3c8315cd	0.016001606
162	0xbcacc0ea	-0.021088082
163	0x3cd2bdca	0.025725264
164	0x3d049f6e	0.032378606
165	0xbc3786a7	-0.011201537
166	0x3caa08e9	0.020756202
167	0xbd3129c4	-0.04325272
168	0x3bcf9c90	0.0063358024
169	0x3d1e4a5b	0.03864513
170	0x3d03f539	0.032216284
171	0xbc489926	-0.012243545
172	0x3c41e362	0.011833997
173	0x3ca3cde8	0.019995645
174	0xbcdf0508	-0.027224079
175	0x3c0387af	0.008027955
176	0xbd354a6a	-0.04426042
177	0xbc2bad30	-0.010478303
178	0x3cf239a7	0.029568506
179	0xbd1be557	-0.038060512
180	0x3d3054c3	0.043049585
181	0x3cd5f53d	0.026117915
182	0xbd354321	-0.044253472
183	0x3d164d77	0.03669497
184	0xbcb31190	-0.02185896
185	0x3c751f93	0.014961141
186	0xbcbb6cc5	-0.022879014
187	0x3cb8a7aa	0.022540886
188	0x3d29feec	0.041502878
189	0xbcb2fa7d	-0.021847958
190	0xbc587e87	-0.01321376
191	0x3ca7fcec	0.020506345
192	0x3cdcfa2a	0.026974756
193	0xbc2e408c	-0.010635506
194	0xbb7c70c4	-0.0038519362
195	0x3d20fa36	0.03930112
196	0x3d0db7ba	0.034599043
197	0xbb9a96c0	-0.004717678
198	0x3ccc27f3	0.024921393
199	0x3c9430f6	0.018089753
200	0xbd36643d	-0.04452919
201	0x3cddde09	0.027083414
202	0xbd1f7a6f	-0.03893512
203	0x3be2191b	0.0068999655
204	0xb9b20281	-0.0003395267
205	0x3d0d240d	0.03445821
206	0xbbfb47ca	-0.00766847
207	0xbc244d49	-0.010028192
208	0x3d2dacd3	0.042401146
209	0x3d1121ef	0.035432752
210	0xbb4c1105	-0.0031138074
211	0x3cbc417d	0.022980446
212	0x3cade313	0.021226441
213	0x3bf2fa28	0.007415075
214	0x3cc0a068	0.023513988
215	0xbc8b122e	-0.016976442
216	0xbce3d920	-0.027813494
217	0x3c874c07	0.016515745
218	0xbca94b8d	-0.020665908
219	0xbcceaab1	-0.025227876
220	0x3c5605f0	0.013062939
221	0xbcae5e93	-0.02128533
222	0x3cc88f08	0.024482265
223	0x3cb6438b	0.022249004
224	0xbc8455ec	-0.016154252
225	0xbc652f40	-0.013988316
226	0xbc8ba73b	-0.017047515
227	0x3cd85e68	0.026412204
228	0xbd1464bd	-0.036228884
229	0xbb4305e5	-0.0029758152
230	0xbd113361	-0.03544939
231	0x3c2d0b7b	0.010561819
232	0x3d2822b6	0.041048728
233	0xbce2aa2c	-0.027669035
234	0xbccdde75	-0.02513049
235	0xbd010909	-0.031502757
236	0xbcd618e2	-0.026134912
237	0xbd0e48d2	-0.034737416
238	0x3d1fc579	0.039006684
239	0x3d195bb3	0.037440967
240	0x3be2f838	0.0069265626
241	0x3d1f345d	0.038868297
242	0x3cd5e39f	0.026109515
243	0xbb15fd44	-0.0022886554
244	0xbc5abe5a	-0.013351047
245	0x3c913e0c	0.017729782
246	0xbbd74f92	-0.006570765
247	0xbd051d36	-0.03249856
248	0xbc4df7ce	-0.012571288
249	0xbc6299be	-0.0138306
250	0x3cfe8bbe	0.031072494
251	0xbb54b574	-0.0032456787
252	0x3cd41cec	0.025892697
253	0xbd03abbd	-0.032146204
254	0xbc1aef1f	-0.009456425
255	0x3d19c491	0.037540976

encoder.layers.0.bias f4 [64]
0	0xbcea61f2	-0.028611157
1	0x3db88c8f	0.090111844
2	0x3d11daa9	0.03560892
3	0x3d584b43	0.05280615
4	0x3cd38f63	0.025825208
5	0x3d1d1b74	0.03835626
6	0x3d67ba77	0.05657431
7	0xbc9be0f5	-0.019028166
8	0x3d90887e	0.07057284
9	0x3d9c51ae	0.07632767
10	0x3d2e3705	0.04253294
11	0x3d718b8a	0.058970965
12	0xbcef68cb	-0.029224774
13	0x3da0455a	0.07825728
14	0x3d6add3a	0.057339884
15	0xbd173bfb	-0.036922436
16	0x3d8f051c	0.069833964
17	0x3d9eabd9	0.07747621
18	0xbd285942	-0.041100748
19	0x3d6ccf8e	0.057815127
20	0x3d35f62a	0.044424213
21	0xbd10b28e	-0.035326533
22	0x3da152e0	0.07877135
23	0x3da608d3	0.08107152
24	0xbd1f03aa	-0.038821854
25	0xbcf3829b	-0.029725363
26	0xbcd42e87	-0.025901092
27	0x3d136108	0.035981208
28	0x3d6ffb51	0.058589283
29	0x3d10f0de	0.03538596
30	0xbceb7e6b	-0.028746804
31	0x3db8d64b	0.09025248
32	0x3da461a1	0.08026434
33	0xbd026e63	-0.031843554
34	0x3d44d98d	0.048059035
35	0x3da70446	0.08155112
36	0x3d6f5bc0	0.05843711
37	0x3d9fc969	0.07802088
38	0x3cd9a59e	0.02656823
39	0x3db35001	0.08755494
40	0xbd01b9d7	-0.03167137
41	0x3d94f8c4	0.07274011
42	0x3d604bde	0.054759853
43	0xbd04c18c	-0.032411143
44	0x3d7f4cde	0.062329166
45	0x3d28d3d1	0.04121763
46	0x3d83dad2	0.06438221
47	0xbca5c88e	-0.020237233
48	0x3d9b6b58	0.075888336
49	0xbc95074a	-0.018191952
50	0xbd2d15ce	-0.042257123
51	0x3d17ff70	0.03710884
52	0x3d01664d	0.031591702
53	0xbcf62100	-0.030045033
54	0xbd183c43	-0.037166845
55	0x3d0a2375	0.03372522
56	0xbcbbcce5	-0.02292485
57	0x3db6a643	0.08918431
58	0xbd21dedd	-0.03951918
59	0x3d6be7b8	0.05759403
60	0x3ce05d19	0.027388142
61	0xbc3d83b7	-0.011567048
62	0xbcbdc4f6	-0.023165207
63	0xbd342a1e	-0.04398548

encoder.layers.2.weight f4 [32, 64]
0	0x3ac54580	0.001505062
1	0xbe1e0acf	-0.1543381
2	0x3e4a591a	0.19760552
3	0x3e20bea0	0.15697718
4	0x3e95bd40	0.2924595
5	0x3d854ae2	0.065084234
6	0xbe01cf5f	-0.12676762
7	0x3dc2e7e2	0.095168844
8	0xbdf60c5f	-0.12014078
9	0xbe87f094	-0.26550734
10	0x3e551faa	0.2081286
11	0x3e5bd82d	0.21469183
12	0xbda9f42c	-0.08298525
13	0xbdf73cb6	-0.120721266
14	0x3d748d49	0.059705053
15	0xbd62b66e	-0.05534976
16	0x3da2d09c	0.07949945
17	0x3d07587e	0.033043377
18	0xbc5d1e70	-0.013496026
19	0x3e706846	0.23477277
20	0x3e0e36a6	0.13888034
21	0xbdfaa6ec	-0.12238869
22	0xbe79ec04	-0.24406439
23	0xbe33abf5	-0.17546065
24	0xbdc2cc4a	-0.09511621
25	0x3db07680	0.08616352
26	0xbd906ace	-0.070516214
27	0x3df73587	0.120707564
28	0x3e88288d	0.26593438
29	0x3e748878	0.23880184
30	0xbe06a601	-0.13149263
31	0x3e8af90d	0.27143136
32	0xbe16ab6b	-0.14713828
33	0x3d8fe96e	0.07026945
34	0x3dc2de2a	0.09515031
35	0x3e0d6ee6	0.13811836
36	0x3e37a03e	0.17932221
37	0x3d3bcd32	0.045849986
38	0x3e89910c	0.26868474
39	0xbe2630fd	-0.16229625
40	0xbdbf8e63	-0.0935333
41	0x3e06dcd9	0.13170184
42	0x3e15012c	0.14551228
43	0x3c8570b0	0.016289085
44	0x3e3095cb	0.17244641
45	0x3de68392	0.11255564
46	0x3e81368f	0.25236937
47	0x3c2b22f0	0.0104453415
48	0xbdc7f34e	-0.097632036
49	0xbdd39586	-0.10331254
50	0xbd656098	-0.056000322
51	0x3e54b5ed	0.20772524
52	0x3e664e41	0.22490789
53	0xbd8c87e0	-0.068618536
54	0x3878d000	5.9321523e-05
55	0x3e7b2a94	0.24527961
56	0x3b66edc0	0.0035236925
57	0xbe5ed0d4	-0.21759349
58	0xbda4b98a	-0.08043201
59	0x3e911e0f	0.28343245
60	0x3d42ae8d	0.047529746
61	0x3db7c960	0.08973956
62	0x3dc0e4fa	0.09418674
63	0x3db2f312	0.08737768
64	0xbb6e1e80	-0.0036334097
65	0xbcdb5c03	-0.026777273
66	0xbe02bfc1	-0.12768461
67	0xbe0503b3	-0.12989692
68	0xbd4a74ae	-0.04942768
69	0xbdc64cd8	-0.096826255
70	0xbd8f8f0c	-0.07009706
71	0xbd67bd74	-0.05657716
72	0xbd02bd96	-0.031919084
73	0x3c6e3deb	0.01454113
74	0x3d3f5cdd	0.04671942
75	0xbdf6c61f	-0.12049507
76	0x3d452518	0.04813108
77	0xbcb9aa42	-0.022664193
78	0xbd7b4e4f	-0.061353978
79	0x3c43a2f1	0.011940704
80	0xbd2b4c80	-0.041821003
81	0xbe0433eb	-0.1291043
82	0x3c335500	0.010945559
83	0xbc85b428	-0.016321257
84	0xbe05d619	-0.13069953
85	0xbdbb8d9c	-0.09157869
86	0xbdfb16db	-0.12260219
87	0xbd9dc0e5	-0.07702807
88	0xbd287d08	-0.041134864
89	0x3c94cad8	0.01816313
90	0x3def683c	0.11689803
91	0xbcf26c63	-0.029592698
92	0x3d6d4ba9	0.057933483
93	0x3cef8208	0.029236808
94	0xbe02e586	-0.12782869
95	0xbcbe7f24	-0.023253985
96	0x3d515240	0.05110383
97	0xbcb5d2d0	-0.02219525
98	0xbcd68484	-0.026186235
99	0xbdfa9cc4	-0.12236932
100	0x3cc6c848	0.024265423
101	0x3cb02b40	0.021504998
102	0xbdae0699	-0.08497352
103	0xbd2c0f03	-0.042006504
104	0xbd357124	-0.044297352
105	0xbd5c29ca	-0.05375079
106	0xbca65ab3	-0.02030692
107	0xbd9ca398	-0.076483905
108	0xbdf4e59b	-0.11957856
109	0xbdbc0bb3	-0.09181919
110	0xbe07142e	-0.13191292
111	0x3d3e7c68	0.04650536
112	0x3c809179	0.015694367
113	0xbdeaa46a	-0.11457141
114	0xbd807534	-0.06272355
115	0x3dd9465e	0.106091246
116	0xbdc210c0	-0.09475851
117	0xbdcc33e0	-0.09970832
118	0xbdc1d15e	-0.09463762
119	0x3d93f6ac	0.07224783
120	0x3ca20478	0.019777521
121	0xbdf1e228	-0.11810714
122	0x3ce9b378	0.02852796
123	0x3da45854	0.0802466
124	0xbdb8e025	-0.09027127
125	0x3d344608	0.0440121
126	0xbd8d125a	-0.06888266
127	0xbde3633a	-0.1110291
128	0x3da70bfe	0.08156584
129	0xbc1ffae6	-0.009764409
130	0x3e7c5d41	0.24644949
131	0x3e70e16c	0.23523492
132	0x3d3da3d2	0.04629881
133	0x3dbf358b	0.093363844
134	0xbe6c6c29	-0.23088135
135	0xbddb916e	-0.10721098
136	0xbdc7822d	-0.09741626
137	0xbd845c7c	-0.064629525
138	0x3e489f9a	0.19592133
139	0x3e6e8987	0.2329465
140	0x3d884148	0.066530764
141	0xbe4f3310	-0.20234323
142	0x3e46b0fc	0.19403452
143	0x3c983bd0	0.018583208
144	0x3e10b53c	0.14131635
145	0x3e10d385	0.14143188
146	0xbba7b800	-0.00511837
147	0x3da36997	0.07979124
148	0x3d73f813	0.059562754
149	0x3cff0560	0.031130493
150	0xbe18f3b3	-0.14936714
151	0xbe6f6c44	-0.23381144
152	0xbd347cb0	-0.044064224
153	0xbcc94d28	-0.024572924
154	0xbc3e6a20	-0.011621982
155	0x3d332493	0.04373605
156	0x3e66cf1e	0.22539946
157	0x3e3a393d	0.18185897
158	0xbde7ec04	-0.11324313
159	0x3e2fb3aa	0.1715838
160	0xbe383481	-0.17988779
161	0xb9893600	-0.0002617091
162	0x3dec2b5d	0.115317084
163	0xbae95f8c	-0.0017804964
164	0x3e794a71	0.24344803
165	0x3e541afd	0.2071342
166	0x3d4de3f8	0.050266236
167	0xbdc9c6e8	-0.098523915
168	0xbd9e3a1c	-0.07725927
169	0x3d91e38f	0.071234815
170	0x3e2ab446	0.16670331
171	0x3d67cb84	0.056590572
172	0x3dcc96ca	0.09989698
173	0x3d968893	0.07350268
174	0x3e32d56a	0.17464224
175	0xbdb56aa4	-0.08858231
176	0xbd42b069	-0.04753152
177	0x3db61b4e	0.08891927
178	0x3cd9cef0	0.026587933
179	0x3d091933	0.033471297
180	0x3e457098	0.19281232
181	0x3cf388e0	0.029728353
182	0xbda697f2	-0.0813445
183	0x3dd824ed	0.10553918
184	0xbdb85f02	-0.09002496
185	0xbdea32f2	-0.11435498
186	0xbc778030	-0.015106246
187	0x3e69686a	0.22793737
188	0x3e34dca3	0.17662291
189	0x3df1da1c	0.11809179
190	0x3d046ba4	0.032329217
191	0xbdbc5186	-0.09195237
192	0x3d03abac	0.03214614
193	0x3cc7a530	0.02437076
194	0x3da301f0	0.07959354
195	0x3dcdb49e	0.100442156
196	0xbda9c638	-0.0828976
197	0xbdef085c	-0.11671516
198	0x3d1214d4	0.035664394
199	0x3b7d94c0	0.0038693398
200	0x3dcd1de4	0.10015467
201	0xbdd6663a	-0.10468717
202	0xbd6768a0	-0.056496263
203	0x3d1bd2e8	0.038042933
204	0x3db92fac	0.09042296
205	0xbd657cd8	-0.056027263
206	0x3da44e10	0.08022702
207	0xbdc755b6	-0.09733145
208	0x3d92d922	0.07170321
209	0xbd44d88c	-0.048058078
210	0x3d19ff38	0.03759691
211	0x3d4a9044	0.04945399
212	0x3d8d6686	0.069043204
213	0x3d6fc1d8	0.058534473
214	0xbcf61020	-0.030036986
215	0x3cc01fc8	0.023452654
216	0x3d56e674	0.05246587
217	0xbdc59d02	-0.096490875
218	0xbc9f7dc0	-0.019469142
219	0xbc073a50	-0.008253649
220	0xbdd8c990	-0.1058532
221	0x3cc9b210	0.02462104
222	0x3df760d2	0.12079014
223	0xbd59fa44	-0.053217188
224	0x3df63d22	0.12023379
225	0x3d7cd5ac	0.06172721
226	0xbd4fad78	-0.050702542
227	0xbdd75aca	-0.105153635
228	0xbdedc90a	-0.11610611
229	0xbde8529a	-0.1134388
230	0x3df99b6c	0.121878475
231	0x3d271d24	0.040799275
232	0xbde0b0f6	-0.109712526
233	0x3ca4dcb0	0.020124763
234	0xbc99b860	-0.018764675
235	0x3d7392fc	0.059466347
236	0xbdeb5ec8	-0.114926875
237	0xbc6388c0	-0.013887584
238	0xbcf92e30	-0.030417532
239	0xbd8a429c	-0.06750986
240	0x3be005a0	0.006836608
241	0xbdc4b678	-0.09605116
242	0xbdc00182	-0.093752876
243	0x3d835ce2	0.064142
244	0xbdca5618	-0.09879702
245	0x3db46630	0.08808553
246	0x3b19fd40	0.0023496896
247	0xbdc4361a	-0.095806316
248	0xbd39eb84	-0.04539062
249	0x3ca6a6e0	0.020343244
250	0x3decb746	0.11558394
251	0x3d5570c8	0.05210951
252	0x3d003bec	0.031307146
253	0x3d79a8b4	0.060951903
254	0xbce38e50	-0.02777782
255	0xbd1386d0	-0.03601724

encoder.layers.2.bias f4 [32]
0	0x3e27554e	0.16341135
1	0x3ca1a8bf	0.019733785
2	0x3bb15fd0	0.005413033
3	0xbdab2144	-0.08355954
4	0x3e0e900f	0.13922141
5	0xbdf6ffe0	-0.12060523
6	0x3dd14673	0.10218515
7	0x3e2946ec	0.16530961
8	0x3dd01f84	0.10162261
9	0xbd528b28	-0.05140224
10	0x3e1957dc	0.14974922
11	0xbdf56f86	-0.11984162
12	0xbdde68fc	-0.10859868
13	0x3e2abee8	0.16674387
14	0x3d4b8c82	0.049694546
15	0xbd6f1671	-0.05837101
16	0x3dd6c7aa	0.10487302
17	0x3d050e20	0.032484174
18	0xbdfc42b2	-0.123174086
19	0xbbe352da	-0.006937367
20	0xbb1abae5	-0.0023609933
21	0xbd4a64cb	-0.04941253
22	0x3dff316a	0.12460597
23	0x3d22597d	0.039636124
24	0xbdf4e306	-0.11957364
25	0xbdc278d2	-0.09495701
26	0x3d5d165c	0.0539764
27	0xbd112ea0	-0.035444856
28	0x3e1be6f7	0.15224825
29	0x3d926b15	0.071493305
30	0xbd538a20	-0.0516454
31	0xbd9d6246	-0.0768476

encoder.layers.4.weight f4 [16, 32]
0	0x3de8dad7	0.113698654
1	0xbdd8bd91	-0.10583032
2	0x3e336cd0	0.17521977
3	0x3d58ab28	0.052897602
4	0x3e5c6162	0.21521524
5	0xbdec6156	-0.11542003
6	0x3e0a50ab	0.13507335
7	0xbd0e80da	-0.03479085
8	0x3e020656	0.1269773
9	0x3e1bf5d3	0.15230493
10	0xbe15fe75	-0.14647849
11	0x3e2c459d	0.1682343
12	0x3cc2e6d3	0.023791706
13	0x3e2c51ac	0.1682803
14	0xbd82f4f3	-0.063943766
15	0xbe21a513	-0.15785627
16	0x3e700097	0.23437725
17	0x3e71010c	0.23535556
18	0x3decaba3	0.115561746
19	0xbc68b6c8	-0.014203735
20	0x3e103964	0.14084393
21	0x3dee8b3d	0.11647651
22	0xbd8a2c68	-0.06746751
23	0x3c880a74	0.016606547
24	0x3dcf9a93	0.101369046
25	0xbe289451	-0.16462828
26	0x3e4c5929	0.19955887
27	0x3ce81bc6	0.028333556
28	0xbc5d267b	-0.013497944
29	0x3e421bbc	0.18955892
30	0xbd8f1120	-0.06985688
31	0x3d92bc90	0.07164872
32	0x3e33e16c	0.1756646
33	0x3e323cad	0.17405958
34	0xbca84062	-0.020538513
35	0x3e12fdd0	0.14354634
36	0x3e8bc613	0.27299556
37	0x3da0df01	0.078550346
38	0x3dc0b451	0.094093926
39	0xbb6ee0f2	-0.0036449996
40	0x3decc015	0.11560074
41	0x3b3d65f5	0.0028899882
42	0xbe328926	-0.1743513
43	0xbb83ef4f	-0.0040263305
44	0x3c114f79	0.008869045
45	0x3c5ad96c	0.0133575015
46	0xbdb6bfd9	-0.08923311
47	0xbdff4318	-0.12463969
48	0x3d0b0f0a	0.03394989
49	0x3e993181	0.2992058
50	0x3c3898eb	0.011266927
51	0xbdb69fca	-0.08917196
52	0xbd353d70	-0.044248044
53	0x3ccb6750	0.024829537
54	0xbe751951	-0.23935439
55	0xbd9e95c6	-0.07743411
56	0x3d88a74a	0.06672533
57	0xbe206d4c	-0.15666693
58	0x3e63813d	0.22217269
59	0xbdda5114	-0.10659996
60	0x3e994f6a	0.299434
61	0x3e56eb30	0.20988154
62	0xbbd4acec	-0.0064903405
63	0x3c4e8e6b	0.012607197
64	0xbe950986	-0.29108828
65	0x3b7ce1b7	0.0038586685
66	0x3c0400d7	0.008056841
67	0xbdb5ab16	-0.08870523
68	0xbd9376b2	-0.07200374
69	0xbd008729	-0.0313789
70	0xbe38f2fc	-0.18061441
71	0xbbba2dfa	-0.0056817504
72	0xbe7ec988	-0.24881566
73	0x3dfa9d06	0.12236981
74	0x3e05f3b3	0.13081245
75	0x3d81a28b	0.06329831
76	0x3cef35bf	0.029200433
77	0xbe4cf6e1	-0.20016052
78	0x3e90f6d9	0.2831333
79	0xbdd47701	-0.10374261
80	0xbe77f4d2	-0.24214485
81	0xbde2f47b	-0.11081787
82	0x3d94bffa	0.07263179
83	0x3bc70968	0.0060741194
84	0xbdb715ee	-0.0893973
85	0x3d55f99b	0.052239995
86	0xbbfdb71c	-0.0077427756
87	0x3cf8e718	0.030383632
88	0xbdafc118	-0.085817516
89	0xbdd69457	-0.10477512
90	0xbdbf9a7d	-0.09355638
91	0xbe1b5c04	-0.1517182
92	0xbe42ff52	-0.1904271
93	0xbd3b97f6	-0.045799218
94	0x3e04e6c5	0.12978657
95	0xbd9a7613	-0.07542052
96	0xbd750d35	-0.05982705
97	0x3da90daf	0.08254563
98	0xbe848783	-0.25884637
99	0xbe2de0ef	-0.16980337
100	0xbc8de10d	-0.017319227
101	0x3bb1f6b6	0.0054310216
102	0xbe1b0b28	-0.15140975
103	0x3e45726c	0.1928193
104	0xbe4862ca	-0.19568935
105	0x3cc334bd	0.023828859
106	0x3e188cd5	0.14897473
107	0x3da052c4	0.07828286
108	0xbdad5312	-0.0846311
109	0xbe935708	-0.28777337
110	0x3ddb5b19	0.10710735
111	0x3d90fb73	0.0707921
112	0xbe6658d3	-0.22494821
113	0xbd6c42ca	-0.057680883
114	0xbb8355de	-0.004008039
115	0xbb5eb3e0	-0.0033981726
116	0x3daba2df	0.083806746
117	0xbb9c7402	-0.0047745714
118	0x3e04d319	0.12971152
119	0x3dbf68cf	0.093461625
120	0xbdbe0a78	-0.092793405
121	0x3df3630e	0.118841276
122	0xbe6c2ec1	-0.2306471
123	0x3dd3a52c	0.103342384
124	0xbe6514f9	-0.22371282
125	0xbe503b08	-0.20335019
126	0xbd58be72	-0.052915998
127	0x3e30064a	0.17189899
128	0xbe1f21bb	-0.15540211
129	0xbc8aa721	-0.016925396
130	0xbe817bca	-0.25289756
131	0xbbeab474	-0.007162625
132	0x3da5f331	0.08103026
133	0x3de47ab3	0.111562155
134	0xbd97e6e5	-0.074170865
135	0x3d80431e	0.062628016
136	0xbe9aada8	-0.30210614
137	0x3e0d7b9f	0.13816689
138	0x3e13329f	0.14374779
139	0x3e327e9f	0.17431115
140	0x3db0b9c0	0.08629179
141	0xbe5e9fb4	-0.2174061
142	0x3e4a2291	0.19739749
143	0x3e0e2a05	0.13883217
144	0x3b853f47	0.004066381
145	0xbe9fbe1a	-0.31199723
146	0x3db7b63c	0.08970305
147	0xbcc69c18	-0.024244353
148	0x3e1e92f7	0.1548575
149	0xbd73a073	-0.05947919
150	0x3df4d06c	0.11953816
151	0xbe240bee	-0.16020176
152	0xbde630b8	-0.11239761
153	0xbdac69f0	-0.084186435
154	0xbe31b568	-0.17354357
155	0xbcdc93b1	-0.026925894
156	0xbe1683c3	-0.146987
157	0xbe8e4f48	-0.27794862
158	0x3c80c4a8	0.015718773
159	0x3d1b1570	0.03786224
160	0x3e2e618b	0.17029397
161	0x3d25e47d	0.040501107
162	0x3cf1a0e8	0.029495671
163	0x3dbdae7e	0.09261797
164	0x3b91fef0	0.0044554397
165	0xbe10059d	-0.14064641
166	0x3e1cd9ca	0.15317455
167	0xbe0b675c	-0.13613647
168	0x3d993ab3	0.07481899
169	0x3d939eae	0.07208
170	0xbe364427	-0.17799436
171	0xbe3503dc	-0.17677253
172	0x3d5bc575	0.053655107
173	0x3de65ff3	0.112487696
174	0x3afb814c	0.0019188314
175	0xbcb6aa65	-0.022298047
176	0x3da2b507	0.079446845
177	0x3cdf7bfe	0.027280804
178	0xbd3ca00e	-0.046051078
179	0xbd2f87a8	-0.04285398
180	0xbe0359e8	-0.12827265
181	0x3b0d3f4d	0.0021552623
182	0xbe0df769	-0.1386391
183	0xbc7c5128	-0.0154002085
184	0x3dc59bb0	0.09648836
185	0x3dd4ad41	0.10384608
186	0x3e6be83b	0.23037808
187	0x3dc32271	0.095280536
188	0x3e1697ba	0.14706317
189	0xbcf65f96	-0.030074876
190	0x3d6133b2	0.05498094
191	0x3d92a690	0.071606755
192	0x3e38c89f	0.18045281
193	0xbd3110c1	-0.04322887
194	0xbc31a51d	-0.010842589
195	0x3dc589e4	0.09645441
196	0x3d4ac766	0.049506567
197	0xbd01816e	-0.031617574
198	0xbd355eb6	-0.044279777
199	0x3dfa5946	0.12224059
200	0x3e731f63	0.23742442
201	0x3dd9bdde	0.106319174
202	0xbd733bfa	-0.05938337
203	0x3de80bff	0.11330413
204	0xbe106085	-0.1409932
205	0x3e896c82	0.26840597
206	0x3b1179b8	0.0022197794
207	0x3e3098fa	0.17245856
208	0x3e36e7b8	0.17861831
209	0x3e147401	0.14497377
210	0x3ddec47b	0.108773194
211	0x3e22b74b	0.15890233
212	0xbc9a2c20	-0.018819869
213	0x3d522ac0	0.0513103
214	0x3d11d4a2	0.035603173
215	0x3d2391eb	0.03993408
216	0x3e121480	0.14265633
217	0xbdc8682a	-0.09785493
218	0x3e806e2d	0.25084057
219	0xbb30385a	-0.0026889057
220	0x3e4ba71f	0.1988797
221	0x3e818e35	0.25303808
222	0xbc0e0a15	-0.008669396
223	0x3e29c192	0.16577747
224	0xbcf42b55	-0.029805819
225	0xbe0df6e6	-0.13863716
226	0x3e5e97ba	0.21737567
227	0xbd64dc70	-0.055874288
228	0x3e54f281	0.20795633
229	0x3d0d0f7b	0.03443859
230	0x3e4f5bf7	0.20249926
231	0x3d50efaf	0.05100983
232	0x3d4ff320	0.05076897
233	0xbe1fa39d	-0.15589757
234	0x3d222d2a	0.039593853
235	0xbbec95a4	-0.007219987
236	0xbdcfa17e	-0.10138224
237	0x3ce57bba	0.028013099
238	0xbe94ed9c	-0.29087532
239	0x3e0786c3	0.13235001
240	0x3e163305	0.146679
241	0xba170822	-0.0005761405
242	0xbe18bfb8	-0.14916885
243	0xbde484ad	-0.111581184
244	0x3dd3d31e	0.10343002
245	0x3d990b99	0.07472915
246	0xbe121056	-0.14264044
247	0xbd043476	-0.032276593
248	0x3e0616a9	0.13094582
249	0x3d35e3c7	0.04440668
250	0x3d6294ec	0.055317804
251	0xbd073015	-0.03300484
252	0xbcc0be5f	-0.023528276
253	0x3e70f047	0.23529159
254	0x39c1bf4c	0.00036954356
255	0x3c1b665b	0.009484853

encoder.layers.4.bias f4 [16]
0	0x3e52ccaf	0.20585893
1	0xbdf322f5	-0.11871902
2	0xbdfccd70	-0.123438716
3	0xbd72f4e2	-0.05931557
4	0xbe28a57d	-0.16469379
5	0xbc89c632	-0.01681814
6	0xbdf431ce	-0.11923562
7	0x3d25e478	0.040501088
8	0x3bedf63e	0.0072620204
9	0xbe0042bd	-0.12525459
10	0x3c56e231	0.013115452
11	0x3da13893	0.07872119
12	0x3e078132	0.13232878
13	0x3d4a84b4	0.04944296
14	0x3d2a9ea5	0.0416552
15	0xbe5ab678	-0.21358669

classifier.layers.0.weight f4 [16, 160]
0	0x3da5f805	0.081039466
1	0x3d216e10	0.039411604
2	0xbc488120	-0.012237817
3	0x3d9701f3	0.07373419
4	0x3c40b3f6	0.011761656
5	0x3c727bed	0.014800054
6	0x3d5a8242	0.05334688
7	0xbcaaad2b	-0.020834526
8	0x3d14d0ab	0.036331814
9	0xbcc71ae4	-0.024304815
10	0x3d6d33f0	0.05791086
11	0x3cc70738	0.024295434
12	0xbd84cdc3	-0.064845584
13	0x3cc6d5b3	0.024271822
14	0xbc57f418	-0.013180755
15	0xbd624234	-0.055238917
16	0x3d4d54ce	0.050129704
17	0xbd848304	-0.06470302
18	0x3d6c6a69	0.057718668
19	0x3d860ab2	0.06545009
20	0xbd336090	-0.04379326
21	0xbcd75868	-0.026287273
22	0x3d23b5bf	0.03996825
23	0xbd87f563	-0.06638601
24	0x3c358e36	0.011081269
25	0xbc0c6ce5	-0.008570884
26	0x3d84c37f	0.064826004
27	0x3d7955bd	0.060872782
28	0x3d6bfc67	0.057613757
29	0xbcec1c73	-0.02882216
30	0xbc88f7a2	-0.016719643
31	0xbd24f5e0	-0.040273547
32	0xbcb2263b	-0.021746745
33	0xbc6082b9	-0.013703042
34	0x3d191dbc	0.037381873
35	0x3c9ec456	0.01938073
36	0xbc48cc20	-0.012255698
37	0x3d69274f	0.056922253
38	0x3cc02cb8	0.023458824
39	0x3c0fcc88	0.008776791
40	0xbd87542e	-0.06607853
41	0xbcefa0f1	-0.029251548
42	0xbdaa82ba	-0.08325715
43	0xbdac454f	-0.08411657
44	0xbdaf639d	-0.085639216
45	0xbd00447b	-0.031315308
46	0x3ba7e06e	0.0051231897
47	0x3cd1fe53	0.025633967
48	0xbd56c201	-0.05243111
49	0x3d4a8bb4	0.049449638
50	0xbcc8e433	-0.024522876
51	0x3cd9aafa	0.026570786
52	0x3caf976f	0.021434514
53	0xbd986841	-0.0744176
54	0xbd7f348b	-0.06230597
55	0xbd081597	-0.033223715
56	0x3d926760	0.071486235
57	0xbd9befc2	-0.076140895
58	0x3d56feb2	0.05248899
59	0x3bced0ce	0.0063115126
60	0xbd2edba4	-0.042689934
61	0xbd2caa89	-0.042154822
62	0x3d7f294b	0.06229524
63	0x3d53626d	0.051607538
64	0x3cb39a84	0.021924265
65	0x3ce4cf69	0.027930932
66	0xbd9c68c0	-0.07637167
67	0x3d2ff292	0.042955942
68	0xbcc3cb08	-0.023900524
69	0x3aeec07b	0.0018215323
70	0xbcfaea92	-0.03062943
71	0x3b4d6c1b	0.0031344953
72	0x3daa7a15	0.083240665
73	0x3cd28640	0.025698781
74	0x3b22fcc8	0.0024869908
75	0xbd677313	-0.056506228
76	0xbd2fd472	-0.042927213
77	0x3c6af032	0.014339494
78	0xbb60df7d	-0.0034312897
79	0xbc564a54	-0.013079245
80	0xbcb4a70b	-0.022052309
81	0xbd1c1178	-0.038102597
82	0xbc363acf	-0.0111224195
83	0xbd77f5ff	-0.060537335
84	0x3d16165f	0.03664243
85	0xbdab588f	-0.083665006
86	0x3d6d88cc	0.057991788
87	0xbd34951e	-0.04408752
88	0x3d9794c7	0.07401424
89	0xbd76c888	-0.060249835
90	0xbd8e47d6	-0.06947295
91	0xbd9b76c3	-0.075910114
92	0xbc7aa107	-0.015297181
93	0x3d6d3a96	0.0579172
94	0x3d87c1c4	0.06628755
95	0xbd9da0c0	-0.07696676
96	0x3d60619f	0.0547806
97	0x3d573d70	0.052548826
98	0xbbe561a1	-0.0070001637
99	0x3d1b15b3	0.03786249
100	0xbd4419ac	-0.047876045
101	0xbd42ef7c	-0.04759167
102	0x3d80f062	0.062958494
103	0x3caf2b33	0.021382904
104	0xbd64a874	-0.055824712
105	0x3ccd8e84	0.02509237
106	0xbc9cb264	-0.019128032
107	0x3d8649ec	0.06557068
108	0xbc07868e	-0.008271826
109	0xbb830104	-0.003997924
110	0xbc9378aa	-0.018001873
111	0xbd98519b	-0.0743744
112	0x3d27fa62	0.041010268
113	0x3c987c51	0.018613966
114	0xbd03eedc	-0.032210216
115	0x3da53a9c	0.080678195
116	0x3d6ca235	0.05777188
117	0xbdb9f085	-0.090790786
118	0x3c213e0f	0.009841456
119	0x3cb1be13	0.02169708
120	0x3baf0936	0.005341674
121	0x3d2459d4	0.04012473
122	0x3c4179b7	0.011808804
123	0xbd8d97c3	-0.06913712
124	0xbd058fbb	-0.032607775
125	0x3d4d6b23	0.050151
126	0xbca64f6d	-0.020301545
127	0x3bafa3c7	0.0053601
128	0x3c89b05a	0.016807724
129	0x3d9a8439	0.07544751
130	0x3bb515bc	0.0055262726
131	0x3d02766a	0.03185121
132	0xbaf52e5a	-0.001870583
133	0x3d5ea8bb	0.054360133
134	0xbc8aa45a	-0.016924072
135	0x3d3562b0	0.04428357
136	0xbcffd935	-0.031231502
137	0x3d56c966	0.052438162
138	0xbc9750da	-0.01847117
139	0xbd9bf6bf	-0.076154225
140	0x3b1f6709	0.0024322888
141	0xbd3e7a50	-0.046503365
142	0xbd0b20e0	-0.0339669
143	0x3cf3277e	0.029681917
144	0x3d14646c	0.036228582
145	0x3d6ec305	0.058291454
146	0x3d5694c7	0.05238798
147	0xbbf33c69	-0.007422973
148	0x3ba152b2	0.004923188
149	0x3ca27f56	0.01983611
150	0xbd1c0275	-0.03808828
151	0xbcb0a611	-0.021563562
152	0x3c66a8c2	0.014078321
153	0xbd6c9021	-0.05775464
154	0xbda03b50	-0.07823813
155	0xbd6ba314	-0.05752857
156	0xbd1698fa	-0.036766984
157	0x3c3f0188	0.01165808
158	0xbd9669c3	-0.07344391
159	0x3c9412dc	0.0180754
160	0x3d2a5e6e	0.04159396
161	0xbd1c0162	-0.038087256
162	0xbd528e89	-0.051405463
163	0x3c5232e6	0.012829518
164	0x3d37b887	0.044853713
165	0xbd2c13dd	-0.04201113
166	0x3bbd38b8	0.0057745837
167	0xbd812378	-0.06305593
168	0x3d4e5634	0.05037518
169	0xbd9015f8	-0.0703544
170	0xbd89a86a	-0.067215756
171	0xbd565368	-0.052325636
172	0xbc420159	-0.011841142
173	0xbcba6d09	-0.02275707
174	0xbd1b121e	-0.037859075
175	0xbd9c6c5d	-0.07637856
176	0x3d128403	0.035770427
177	0xbd1590bd	-0.036514986
178	0xbd2ea665	-0.042639155
179	0x3c735fb5	0.014854361
180	0x3d12b9cf	0.035821732
181	0xbd8c291c	-0.068437785
182	0x3cefab7b	0.029256573
183	0xbcb7f078	-0.022453532
184	0x3ca1a4f4	0.019731976
185	0xbd86f5b1	-0.06589831
186	0x3d108597	0.03528365
187	0x3b3a59ce	0.0028434875
188	0x3be1243a	0.0068707736
189	0x3cadc112	0.021210227
190	0x3d1f3d33	0.038876723
191	0xbca3062e	-0.019900408
192	0x3d838ea9	0.06423695
193	0x3d90cf8b	0.07070836
194	0xbbbf9530	-0.005846642
195	0x3d792a1b	0.06083117
196	0xbb59ad06	-0.0033214702
197	0x3d94d352	0.07266869
198	0x3c90115e	0.017586406
199	0x3bdcee49	0.006742273
200	0xbb0a1169	-0.0021067506
201	0x3cee3cef	0.02908179
202	0xbd3c0cd6	-0.04591068
203	0x3d093044	0.033493295
204	0xbcc09633	-0.02350912
205	0xbce70629	-0.02820118
206	0xbc505074	-0.012714494
207	0xbd1ee0bb	-0.03878854
208	0x3c108a5d	0.008822051
209	0x3d7d509f	0.061844464
210	0xbd99327d	-0.07480333
211	0x3cdbb4dd	0.02681964
212	0xbbf1dc5e	-0.007381006
213	0x3d97b601	0.07407761
214	0x3d9d0adb	0.07668086
215	0x3c3748f7	0.01118683
216	0x3cb21296	0.021737378
217	0xbd9cf132	-0.07663192
218	0xbd694862	-0.056953795
219	0x3bc0cbb9	0.0058836606
220	0xbd95a584	-0.0730696
221	0x3d5638c8	0.052300245
222	0xbd319783	-0.043357383
223	0xbce9acce	-0.028524783
224	0xbd8b7333	-0.06809082
225	0x3b755929	0.0037437177
226	0xbcb90119	-0.022583531
227	0x3d242d10	0.040082037
228	0x3d28091d	0.041024316
229	0xbce3aeb0	-0.027793258
230	0x3cb3be25	0.021941254
231	0x3d5df28a	0.05418638
232	0x3d65ea7a	0.056131817
233	0xbc0660d6	-0.008201798
234	0x3c3a82ad	0.011383695
235	0x3d20c289	0.039248023
236	0x3d2c3217	0.042039957
237	0x3ce34fc2	0.027747992
238	0xbd4c5f8a	-0.0498958
239	0x3d9ff7ac	0.078109115
240	0xbd2b848d	-0.041874457
241	0x3c9e179f	0.019298373
242	0x3d074b8f	0.033031043
243	0xbd8e0846	-0.06935172
244	0x3d83733c	0.064184636
245	0x3d237a5f	0.039911624
246	0xbd08a84c	-0.033363625
247	0x3d7f3533	0.062306594
248	0x3cc4162c	0.023936354
249	0x3d938c79	0.072045274
250	0xbd65c08c	-0.05609183
251	0x3d4a1b73	0.049342584
252	0xbb12297e	-0.0022302563
253	0xbd7c8cc7	-0.061657693
254	0xbd9b8d68	-0.075953305
255	0xbd532d3b	-0.051556807

classifier.layers.0.bias f4 [16]
0	0x3d389e79	0.045073006
1	0xbd5b28a5	-0.05350556
2	0x3de679ff	0.11253738
3	0x3d172179	0.036897156
4	0x3d105cf8	0.035244912
5	0x3dd10180	0.10205364
6	0xbcd8b589	-0.02645375
7	0x3d213712	0.03935916
8	0xbd4fb84f	-0.05071288
9	0x3d91ba7e	0.07115649
10	0xbcdaab78	-0.02669309
11	0x3d2742b4	0.040835097
12	0xbcc0f16f	-0.023552625
13	0x3d481aa1	0.04885352
14	0x3bd0baba	0.006369916
15	0x3cda1c11	0.026624711

classifier.layers.2.weight f4 [5, 16]
0	0x3cf3dec4	0.029769309
1	0x3da9c8ec	0.08290276
2	0x3df71847	0.120651774
3	0x3df044ce	0.117318735
4	0xbdf55779	-0.11979575
5	0x3e7392cd	0.23786469
6	0x3e0c6432	0.13710096
7	0xbda17c2b	-0.07885011
8	0x3df8ce58	0.12148732
9	0xbe5d4e42	-0.21611884
10	0x3daf3928	0.085558236
11	0x3d9471f8	0.072483
12	0x3e03ecbc	0.12883276
13	0x3c14f016	0.009090444
14	0x3e1a32b4	0.15058404
15	0xbddf9550	-0.10917151
16	0xbe39768b	-0.18111627
17	0xbd0c3de0	-0.034238696
18	0xbe911e9b	-0.28343663
19	0x3e09c7df	0.13455151
20	0x3d38d990	0.04512936
21	0x3d806a4a	0.06270273
22	0xbe63b8cc	-0.22238463
23	0xbe41939b	-0.18903963
24	0x3d8eded4	0.06976095
25	0x3e0782de	0.13233516
26	0xbe5b31fd	-0.21405788
27	0xbdd3e390	-0.103461385
28	0xbd84f7b0	-0.06492555
29	0xbdad6780	-0.08467007
30	0x3e07773f	0.13229083
31	0x3d687889	0.056755576
32	0x3dd33cd9	0.1031434
33	0xbdabbf04	-0.08386043
34	0xbd5e84a8	-0.05432573
35	0x3cec99d4	0.028881945
36	0xbe993c91	-0.2992902
37	0xbe87286a	-0.2639802
38	0x3a85cf00	0.0010208786
39	0xbe783ef0	-0.24242759
40	0x3e3d244c	0.18470877
41	0xbc20baa0	-0.00981012
42	0xbe436a3b	-0.19083492
43	0xbd45e072	-0.04830975
44	0xbdc62e5c	-0.09676811
45	0xbdd45e83	-0.10369589
46	0xbe2f5bb2	-0.17124823
47	0xbe725bdb	-0.23667853
48	0x3d29bf6c	0.04144232
49	0x3db4ac50	0.088219285
50	0x3dc5c9c6	0.09657626
51	0xbe6d9bad	-0.23203917
52	0x3dfc7d80	0.12328625
53	0xbe92889f	-0.2861986
54	0xbe17a5fc	-0.14809412
55	0x3dd72fb3	0.10507145
56	0xbe075e14	-0.13219482
57	0xbe01597c	-0.12631792
58	0x3e3e6398	0.1859268
59	0x3e855dec	0.2604822
60	0x3dcd4fa8	0.10024959
61	0x3e3490d6	0.17633376
62	0x3d539ac4	0.051661268
63	0xbe413b1e	-0.18870208
64	0xbe5965e3	-0.21230273
65	0x3e79e2ce	0.24402925
66	0x3e2a9625	0.16658838
67	0xbdf30580	-0.118662834
68	0xbb0a3f8c	-0.0021095006
69	0x3aee9581	0.0018202515
70	0x3dd3c2d0	0.10339892
71	0xbe0a6f8b	-0.13519113
72	0xbc289a00	-0.010290623
73	0x3de65280	0.112462044
74	0x3c8fd0cb	0.017555615
75	0x3d3e7cf0	0.04650587
76	0xbe40743e	-0.18794343
77	0x3e908e93	0.28233775
78	0x3d1f8763	0.038947474
79	0xbd0f4d32	-0.03498573

classifier.layers.2.bias f4 [5]
0	0x3e9a957a	0.30192167
1	0xbe9c987a	-0.3058508
2	0xbd01497c	-0.03156422
3	0xbe107b4b	-0.14109533
4	0x3d8d4ace	0.068990335

pool.gate_nn.0.weight f4 [16, 16]
0	0x3e728d86	0.236868
1	0xbd7d4640	-0.061834574
2	0x3ddc1c28	0.10747558
3	0xbe14e780	-0.14541435
4	0x3e2dd14a	0.16974369
5	0xbe4d00aa	-0.20019785
6	0x3dd28f48	0.10281235
7	0x3d93c740	0.07215738
8	0x3e0c45ec	0.13698548
9	0x3e33b6ba	0.17550173
10	0x3d50db70	0.050990522
11	0x3db58d7c	0.08864877
12	0x3e54f5ae	0.20796844
13	0x3dcdff04	0.10058406
14	0x3d2964a0	0.04135573
15	0x3e6e8f90	0.23296952
16	0xbdf79dc8	-0.12090641
17	0x3da694ec	0.08133873
18	0x3e163132	0.14667204
19	0x3d4d9448	0.05019024
20	0x3d35bcf8	0.044369668
21	0xbd94ce00	-0.07265854
22	0xbe7e315a	-0.24823514
23	0x3e256450	0.16151547
24	0xbbfd5740	-0.0077313483
25	0xbc8a86b0	-0.016909927
26	0x3d172498	0.036900133
27	0xbe2ddd02	-0.16978839
28	0x3e620eb2	0.22075918
29	0xbbe3d900	-0.0069533587
30	0xbd8e80f8	-0.069581926
31	0xbdd44950	-0.10365546
32	0x3cdccc40	0.026952863
33	0x3e4c39bc	0.19943899
34	0x3d9df26c	0.07712254
35	0x3d19aa98	0.037516207
36	0x3e547208	0.20746624
37	0x3e30f4c4	0.1728087
38	0x3d3896f0	0.04506582
39	0xbc8a44b0	-0.016878456
40	0x3cb913b0	0.022592396
41	0x3e382800	0.17984009
42	0x3cf97470	0.03045103
43	0x3d0d2a58	0.03446421
44	0x3dd539f8	0.10411447
45	0xbe55f3e4	-0.20893818
46	0xbe103f40	-0.14086628
47	0xbd64f310	-0.055895865
48	0x3e2d93a2	0.16950849
49	0x3bcdca40	0.0062802136
50	0x3cd00310	0.025392085
51	0x3e1c3b3a	0.15256968
52	0xbe5adc7e	-0.21373174
53	0xbd8f95c0	-0.070109844
54	0xbdf196a4	-0.117963105
55	0xbe03d826	-0.12875423
56	0xbe196570	-0.14980102
57	0x3e149c6a	0.14512792
58	0xbd21bd78	-0.039487332
59	0xbd1a2ff0	-0.037643373
60	0x3e19f804	0.15036017
61	0x3e0a84dc	0.13527244
62	0xbe28a69a	-0.16469803
63	0x3e5a5f60	0.21325445
64	0xbe105a32	-0.14096907
65	0xbe70c768	-0.23513567
66	0xbd0eaab8	-0.03483078
67	0x3e7d569a	0.24740067
68	0x3e0cb99e	0.13742682
69	0x3b394000	0.0028266907
70	0xbd1fdda8	-0.039029747
71	0x3a23a800	0.00062429905
72	0x3e299e08	0.1656419
73	0x3e125660	0.14290762
74	0x3d8cf80c	0.06883249
75	0x3da232c8	0.07919842
76	0xbd3d70d0	-0.046250165
77	0x3df2e9b8	0.118609846
78	0xbc77b440	-0.015118659
79	0xbe3adcb4	-0.18248254
80	0x3e187514	0.14888412
81	0xbe6d1b3a	-0.23154917
82	0x3d92657c	0.07148263
83	0xbd997b58	-0.07494229
84	0xbe4f4faa	-0.20245233
85	0x3e3a85f8	0.18215168
86	0xbe3f5320	-0.18684053
87	0x3ca77820	0.020443022
88	0xbe449ca0	-0.19200373
89	0x3c8215a0	0.015879452
90	0xbe268112	-0.16260174
91	0xbcf20680	-0.029544115
92	0x3e1dd49c	0.15413135
93	0xbe478b90	-0.19486833
94	0xbdb89170	-0.09012115
95	0x3d1e8790	0.0387035
96	0x3e056c96	0.13029703
97	0x3db09944	0.08622983
98	0x3cc384c0	0.023867011
99	0x3e40ae2a	0.18816438
100	0x3e5f24d0	0.21791387
101	0xbd9c11a8	-0.07620555
102	0xbe38ae1a	-0.18035164
103	0x3d402de8	0.04691878
104	0x3cc7e730	0.024402231
105	0x3e77ae1c	0.24187511
106	0x3dff1e88	0.12456995
107	0xbe287a62	-0.16452935
108	0x3e4cb532	0.19990996
109	0x3e0f3f68	0.13989031
110	0x3e27b0c0	0.16376019
111	0x3e10f7e2	0.1415706
112	0x3e32849e	0.17433402
113	0x3e6a9e34	0.22911912
114	0xbe21e714	-0.15810806
115	0x3d93c488	0.0721522
116	0x3e312e4e	0.1730282
117	0x3e49e92e	0.19717857
118	0xbd3feed0	-0.04685861
119	0x3df3fad0	0.11913073
120	0x3de4c080	0.11169529
121	0xbbf25740	-0.007395655
122	0x3e3aad5e	0.18230197
123	0xbe41d300	-0.18928146
124	0x3dfcfc98	0.12352866
125	0x3e7c284a	0.24624744
126	0x3d168740	0.03675008
127	0x3a394e00	0.0007068813
128	0x3d941d18	0.07232112
129	0xbdae0a5c	-0.0849807
130	0x3c2a3aa0	0.010389954
131	0xbdadd1c8	-0.08487278
132	0x3e338e7c	0.17534822
133	0xbd8f99dc	-0.07011768
134	0x3e31a0c8	0.1734649
135	0x3dcf23ac	0.10114226
136	0x3ad82d00	0.0016492903
137	0xbe50bf8a	-0.20385566
138	0x3d1352d8	0.035967678
139	0xbd536a00	-0.05161476
140	0x3c4e0fe0	0.012577027
141	0x3da4e418	0.08051318
142	0x3e3bba5c	0.18332809
143	0xbe1fcba8	-0.15605032
144	0x3e261e46	0.16222486
145	0x3e729fb4	0.23693734
146	0x3e217c84	0.15770155
147	0xbe3f712a	-0.18695512
148	0x3dfa9014	0.12234512
149	0xbd827db0	-0.06371629
150	0xbe745514	-0.2386058
151	0xbcd76ae0	-0.02629608
152	0xbdc0c16c	-0.09411892
153	0xbd975f38	-0.073912084
154	0x3d41c3c0	0.047305822
155	0xbc75d7a0	-0.015005022
156	0xbd751f20	-0.059844136
157	0xbe4f925a	-0.20270672
158	0xbe1f45ea	-0.15554014
159	0xbe2e976a	-0.17049947
160	0x3e248ea8	0.16070044
161	0x3e35aafe	0.1774101
162	0xbe07dd78	-0.13268077
163	0x3d4bd030	0.04975909
164	0xbc800780	-0.015628576
165	0xbdb9abb0	-0.0906595
166	0x3ddf1d3c	0.10894248
167	0xbe236c08	-0.1595918
168	0x3c89ab30	0.016805261
169	0xbe6c5f9e	-0.2308335
170	0x3e6cec9e	0.23137137
171	0xbe2a19f2	-0.1661146
172	0x3e21ccfa	0.15800849
173	0x3e213554	0.15743
174	0xbde82ab8	-0.11336273
175	0x3e538d4a	0.20659366
176	0xbe29bac4	-0.16575152
177	0x3daf22dc	0.08551571
178	0x3b55bb00	0.0032612681
179	0xbe1ac2d6	-0.15113387
180	0xbdf98734	-0.12183991
181	0xbe3b92a2	-0.18317655
182	0xbdd5b3d0	-0.10434687
183	0xbe15ec8a	-0.14641014
184	0x3e431256	0.19049963
185	0xbe03be3c	-0.12865537
186	0xbe4dbbcc	-0.2009117
187	0xbc234ce0	-0.009967059
188	0xbdb585f8	-0.08863443
189	0x3b0db080	0.0021620095
190	0xbe35bb24	-0.1774717
191	0x3de98104	0.11401561
192	0xbe4e3078	-0.20135677
193	0x3dd7afd0	0.105315804
194	0xbe3d43ca	-0.1848289
195	0x3e556564	0.20839459
196	0xbe59c5ee	-0.2126691
197	0x3e3f4e2a	0.18682161
198	0x3c7997a0	0.015233904
199	0x3e045510	0.12923074
200	0x3e589174	0.21149236
201	0xbe6f6664	-0.23378903
202	0xbd97e650	-0.074169755
203	0xbd160aa8	-0.036631256
204	0x3e6b10f0	0.2295568
205	0x3e3dcf7a	0.18536177
206	0x3e0bb0fe	0.13641736
207	0x3e7d18b8	0.2471646
208	0xbe145f24	-0.14489418
209	0x3d659870	0.05605358
210	0xbe496ec8	-0.19671166
211	0x3d01ad28	0.031659275
212	0x3dac0fb0	0.0840143
213	0xbbbd9380	-0.0057854056
214	0xbdc8a450	-0.09796965
215	0xbe714422	-0.23561147
216	0xbbd63440	-0.0065369904
217	0xbe185274	-0.14875203
218	0x3e505ccc	0.20347899
219	0xbe2b7e5c	-0.16747421
220	0x3d5f9008	0.05458072
221	0xbdc03618	-0.093853176
222	0x3db0fa94	0.08641544
223	0xbb0bd880	-0.002133876
224	0x3cd17a80	0.025571108
225	0x3e57f118	0.21088064
226	0xbd9bd8f8	-0.07609743
227	0x3c9b7860	0.018978298
228	0x3e2741ca	0.1633369
229	0x3cb7e230	0.022446722
230	0x3e4876e2	0.195766
231	0x3dd6a754	0.10481134
232	0xbe25f77e	-0.16207692
233	0xbe6d650e	-0.2318308
234	0xbd88a474	-0.06671992
235	0xbdee2cec	-0.11629662
236	0x3e03c370	0.12867522
237	0x3e307d94	0.17235404
238	0xbced1b40	-0.028943658
239	0xbe2ae1b0	-0.16687655
240	0x3e000794	0.12502891
241	0x3e084622	0.13308004
242	0x3d025f58	0.031829208
243	0xbe5aadb6	-0.21355328
244	0x3b1a5f80	0.0023555458
245	0xbe7070cc	-0.23480529
246	0xbd6877f0	-0.056755006
247	0x3c6f7960	0.01461634
248	0x3e4f44d0	0.20241094
249	0x3e5df7ee	0.21676609
250	0x3da546d8	0.08070153
251	0xbca276f0	-0.019832104
252	0x3d040688	0.03223279
253	0xbd030108	-0.031983405
254	0xba9d6200	-0.0012007356
255	0xbc479660	-0.012181848

pool.gate_nn.2.weight f4 [1, 16]
0	0xbd722d90	-0.059125483
1	0x3d865e04	0.06560901
2	0x3e5bc5a0	0.21462107
3	0xbdfbafa0	-0.12289357
4	0xbde9fdfc	-0.11425397
5	0x3e16ee82	0.14739421
6	0x3e40d664	0.18831784
7	0xbe791f66	-0.24328384
8	0x3dbe6b18	0.0929777
9	0x3d07eea8	0.033186585
10	0x3e37ff3e	0.17968461
11	0xbceca000	-0.028884888
12	0xbc38fa60	-0.011290163
13	0x3b280300	0.0025636554
14	0xbdac2628	-0.08405715
15	0xba20aa00	-0.00061288476

pool.nn.layers.0.weight f4 [16, 16]
0	0xbe51f228	-0.20502532
1	0xbd766c7f	-0.060162064
2	0xbd309d2e	-0.04311865
3	0x3e499904	0.19687277
4	0xbe04a6a4	-0.12954193
5	0xbd9ed496	-0.07755391
6	0xbe50103f	-0.20318697
7	0xbe26a3b1	-0.16273381
8	0xbd8ffdf0	-0.070308566
9	0x3db4aa21	0.08821512
10	0x3e385ca7	0.18004094
11	0x3db5b1ae	0.0887178
12	0x3d991c5a	0.07476111
13	0xbcd20f5f	-0.025642095
14	0xbe3df0e8	-0.1854893
15	0x3e3009de	0.17191264
16	0x3e874eed	0.26427403
17	0x3e7757a2	0.24154523
18	0xbe8477f8	-0.2587278
19	0xbe36897e	-0.17825887
20	0x3db70772	0.08936967
21	0x3e91d448	0.2848227
22	0x3d3e47fc	0.04645537
23	0x3daaff34	0.083494574
24	0xbe406e7a	-0.18792143
25	0xbe9c84bb	-0.30570015
26	0x3dff2c4d	0.124596216
27	0xbe9e9037	-0.30969402
28	0x3ea299f7	0.3175809
29	0xbcde2ea8	-0.027121857
30	0x3e750dc4	0.23931032
31	0xbe95c21e	-0.29249662
32	0x3d1c6218	0.038179487
33	0x3e720429	0.236344
34	0xbe8824c3	-0.26590547
35	0x3d5b2998	0.053506464
36	0xbe20b395	-0.15693505
37	0xbdc29ff0	-0.09503162
38	0x3ea19378	0.31557822
39	0xbca8c7c7	-0.020603074
40	0xbe9cca57	-0.30623123
41	0x3e58764e	0.2113888
42	0xbe4fdd29	-0.2029921
43	0xbb40da6e	-0.002942707
44	0x3e8030de	0.25037283
45	0x3e8fb7a2	0.28069788
46	0x3e9bcd57	0.304301
47	0xbe5839a5	-0.2111574
48	0x3d15f3b0	0.03660935
49	0x3e4e943a	0.20173731
50	0xbe7a4566	-0.24440536
51	0xbe27c01c	-0.16381878
52	0xbdec420d	-0.11536036
53	0x3e889fff	0.26684567
54	0x3e000308	0.12501156
55	0x3e2dee34	0.16985399
56	0xbe99baa0	-0.30025196
57	0xbeab8225	-0.3349773
58	0xbebd113a	-0.36927205
59	0xbe6a5046	-0.22882184
60	0x3eb5b91a	0.35492784
61	0xbcc670d1	-0.024223717
62	0x3ec2b861	0.38031295
63	0xbe4b2a8b	-0.19840448
64	0x3da46b48	0.08028275
65	0x3d5561d0	0.052095234
66	0x3e58b2fc	0.21162027
67	0x3e183fa4	0.14868027
68	0x3e0ab10b	0.13544099
69	0xbe2f5fc0	-0.1712637
70	0x3e349d1b	0.17638056
71	0x3c827539	0.015925037
72	0x3dd6c24a	0.104862764
73	0x3d84909a	0.06472893
74	0xbd95b568	-0.07309991
75	0xbe2d91a1	-0.16950084
76	0x3e5f2c77	0.21794306
77	0x3dcd99aa	0.10039075
78	0xbc37c390	-0.011216059
79	0xbc7deee0	-0.015498847
80	0xbe3f657c	-0.18691057
81	0x3ca43360	0.020044029
82	0x3e186ef0	0.1488607
83	0x3e1912c8	0.1494857
84	0x3e16fa48	0.14743912
85	0xbcb9f7f0	-0.022701234
86	0xbe03d208	-0.1287309
87	0xbd582fc0	-0.052779913
88	0x3e28972c	0.16463917
89	0xbde9443c	-0.11389968
90	0x3d847cec	0.064691395
91	0xbe12bbc0	-0.14329433
92	0x3cdeda90	0.027203828
93	0x3d1c71f0	0.038194597
94	0x3da9adc4	0.08285096
95	0x3d0e79f0	0.034784257
96	0x3e5f705c	0.21820205
97	0x3ab3391a	0.0013673634
98	0xbe257cba	-0.1616086
99	0xbeace294	-0.33766615
100	0xbdc1ef61	-0.09469486
101	0xbde16d68	-0.11007196
102	0xbd4cce80	-0.05000162
103	0x3e931bdd	0.28732195
104	0xbe60853e	-0.21925828
105	0xbd77ece8	-0.060528666
106	0xbd117d4c	-0.035519883
107	0xbe8f3a7e	-0.27974313
108	0xbcb1783a	-0.021663774
109	0x3eace3be	0.33767503
110	0xbdc57fd3	-0.09643521
111	0x3b9b7998	0.0047447197
112	0xbb6c8375	-0.0036089097
113	0xbe23d387	-0.1599866
114	0x3e45f2a0	0.19330835
115	0x3e18196c	0.14853448
116	0xbd9009ac	-0.07033095
117	0x3e00cdb3	0.12578468
118	0x3e20e40a	0.1571199
119	0x3d33e69b	0.043921094
120	0xbd996019	-0.07489032
121	0x3e276765	0.16348036
122	0xbe643c65	-0.22288664
123	0xbe632441	-0.22181799
124	0xbe2ffc32	-0.17186049
125	0xbd8eb023	-0.06967189
126	0xbcf1192d	-0.02943095
127	0xbe5bde46	-0.2147151
128	0xbd8c2c9b	-0.06844445
129	0x3e884bcd	0.2662033
130	0xbe8db1e7	-0.2767479
131	0xbd42a918	-0.04752454
132	0xbe553eca	-0.20824733
133	0xbd0bd581	-0.03413916
134	0x3eadbdc0	0.3393383
135	0x3dc7a9f4	0.09749213
136	0x3cec588b	0.028850814
137	0x3da7c5f3	0.08192053
138	0xbe82dc2e	-0.2555861
139	0xbdd97f63	-0.1062
140	0x3c8ea28d	0.017411495
141	0x3e5f7f99	0.21826018
142	0x3e9b295a	0.30304986
143	0xbd7df4bb	-0.06200097
144	0x3da71298	0.08157843
145	0x3e7bb6d3	0.2458146
146	0xbe723065	-0.23651274
147	0xbea46c38	-0.32113814
148	0xbe799f89	-0.24377264
149	0x3ac616a9	0.0015112954
150	0x3e0a5c9b	0.13511889
151	0x3e4b95dd	0.19881387
152	0xbd767fc6	-0.060180448
153	0xbe92a4dc	-0.28641403
154	0xbe76cdf4	-0.24102002
155	0xbe390140	-0.18066883
156	0x3df97611	0.121807225
157	0x3e23d48b	0.15999047
158	0x3e0d803f	0.13818453
159	0xbe8d40ae	-0.2758841
160	0x3e1d5983	0.15366177
161	0x3eb6aaac	0.35677087
162	0xbe6462d4	-0.22303325
163	0xbdeae840	-0.114700794
164	0x3e113cfa	0.14183417
165	0x3e1bc5c4	0.1521216
166	0x3ea29d9f	0.3176088
167	0x3e72b164	0.23700482
168	0xbea12151	-0.3147073
169	0xbe6b17b3	-0.2295826
170	0xbe5cf8bb	-0.21579258
171	0xbba3acf4	-0.004994983
172	0xbdea95e3	-0.1145437
173	0xbd900862	-0.07032849
174	0x3e12251d	0.1427197
175	0x3da56ea7	0.08077746
176	0x3e307b27	0.17234479
177	0x3d83490e	0.064104185
178	0x3da1c129	0.078981705
179	0xbd80a5d8	-0.06281632
180	0xbc4c8a56	-0.012484154
181	0x3e25a7a6	0.16177234
182	0x3db90bf7	0.09035485
183	0x3ea5ae4f	0.3235955
184	0xbeae789b	-0.3407639
185	0xbeafa2c4	-0.34303868
186	0xbed62ca5	-0.41830936
187	0x3c15c581	0.009141327
188	0x3e8abb46	0.27096003
189	0x3ea8dc13	0.32980403
190	0x3d229104	0.03968908
191	0xbe16e338	-0.14735115
192	0x3e9ca757	0.3059642
193	0xbdd846d0	-0.105603814
194	0x3de4efc4	0.11178544
195	0xbc342644	-0.010995451
196	0xbde02b0a	-0.10945709
197	0x3de75c84	0.11296943
198	0xbd07f187	-0.033189323
199	0x3e537bbf	0.20652674
200	0xbe6c2384	-0.23060423
201	0xbeb2cfad	-0.3492407
202	0xbeab0dcd	-0.33408967
203	0xbd96da46	-0.07365851
204	0x3e4ff4a8	0.20308173
205	0x3e86a6eb	0.26299223
206	0xbdc5c554	-0.09656778
207	0xbea676b1	-0.3251243
208	0xbd168a58	-0.03675303
209	0xbcb76590	-0.022387296
210	0x3db255c0	0.08707762
211	0x3dfea6e8	0.124341786
212	0x3e510872	0.20413378
213	0xbe25ed18	-0.16203725
214	0xbd9003a0	-0.070319414
215	0xbe5f2b62	-0.21793893
216	0x3e38d59e	0.18050238
217	0xba1dea00	-0.00060239434
218	0xbdac6a6c	-0.08418736
219	0xbcbb3020	-0.022850096
220	0x3db38bcc	0.087668985
221	0xbdfcb16c	-0.12338528
222	0x3e7ccde4	0.24687916
223	0x3d306508	0.0430651
224	0x3e49f429	0.19722046
225	0x3e05018a	0.12988868
226	0xbd9ab002	-0.07553102
227	0x3d1d16f2	0.03835196
228	0xbd3e66e0	-0.046484828
229	0x3d9ac625	0.07557324
230	0x3c41c596	0.011826893
231	0xbe4ca9ea	-0.19986692
232	0x3d8b8d62	0.06814076
233	0x3daa69ba	0.08320947
234	0x3da6b43c	0.08139846
235	0x3e6669f2	0.22501352
236	0x3d3417d8	0.04396805
237	0x3e12fa3a	0.14353266
238	0xbcff8ee3	-0.031196063
239	0xbd5ba733	-0.05362625
240	0xbde3875c	-0.11109802
241	0xbe41d98c	-0.18930644
242	0x3aae8000	0.0013313293
243	0xbd8a1b1c	-0.06743452
244	0xbe78dd08	-0.24303067
245	0xbd1d4328	-0.038394123
246	0x3e4e8e36	0.20171437
247	0x3e47ff50	0.19530988
248	0x3e06ccde	0.13164088
249	0x3e1875ee	0.14888737
250	0x3e399d92	0.18126515
251	0x3d8bdcd4	0.06829229
252	0xbda064f0	-0.07831752
253	0xbe3f80c2	-0.18701461
254	0x3dbcf604	0.09226611
255	0xbe5520de	-0.20813319

pool.nn.layers.0.bias f4 [16]
0	0x3ccb7e0d	0.02484038
1	0xbe30159b	-0.17195742
2	0xbde7e2fa	-0.11322589
3	0xbd427a6a	-0.047480024
4	0xbd37abd5	-0.044841606
5	0xbd8f217c	-0.069888085
6	0xbe2d9d86	-0.16954622
7	0xbcbaa61f	-0.02278429
8	0xbd85f3bf	-0.065406315
9	0x3e86515b	0.26233944
10	0x3cfbac54	0.03072182
11	0x3e1f2ebd	0.15545173
12	0x3d435808	0.047691375
13	0xbdc87928	-0.09788734
14	0xbe0934cb	-0.13399045
15	0xbe34ea86	-0.17667589
