models_spike/lolcat_head1_AD_HF03_1.pt (torch, 158942 bytes, 16 tensors)

encoder.layers.0.weight f4 [64, 499]
0.067354426 0.010639519 0.012486853 -0.041950107 -0.077231705 0.02588995 -0.012544353 -0.0813066
0.0014732748 0.042780086 -0.034344357 -0.030985203 -0.007457794 -0.006935112 0.0048850477 0.032410227
0.09515843 0.0328124 0.068925194 0.021177955 0.018579628 -0.03344757 -0.06320574 -0.032630656
0.004621892 0.031380277 0.031838644 0.046308607 -0.042428937 -0.030905347 0.047315475 0.07968687
0.008174747 0.003864299 0.03908551 -0.077634655 -0.08483189 -0.025968375 0.008126594 0.05742687
0.061280347 0.04611991 0.05610476 -0.012273465 0.04480849 0.0031546247 -0.051715977 -0.03917979
-0.017850721 -0.019905427 -0.015967894 -0.03139581 0.02834715 0.018712152 0.0031306753 0.06767195
-0.06733496 -0.05758375 -0.005540125 -0.013973104 -0.0011757223 0.086924694 -0.036711946 -0.054340985
-0.058975253 -0.047821023 -0.08145634 0.018382771 -0.0038191886 -0.059388645 -0.029966377 0.03117241
0.07210478 0.02191834 -0.02191671 -0.014852176 -0.044111386 0.019518547 -0.001445634 -0.06861096
0.038362656 -0.04056685 0.052617934 0.082217 -0.047911774 0.042554006 0.06134033 0.058634866
-0.039886694 -0.0035813618 -0.061652236 0.011114743 0.048807453 0.018951092 0.057306893 0.03440391
0.023819607 0.0694269 -0.030063324 -0.036596842 -0.009853356 0.042082712 0.023920128 0.0014335013
0.0862185 0.033361193 0.0056468504 0.045543507 0.013090299 -0.055364154 0.022001144 0.03698014
-0.0060807336 0.07267687 0.055431154 -0.016046159 -0.016255522 -0.022468578 -0.0038556291 -0.024500983
0.08223744 0.022585206 -0.008140901 -0.094236076 0.08089752 -0.0322813 0.030052116 -0.011408496
0.034372393 0.040675465 0.059156314 -0.07463034 0.059384663 -0.0332286 0.0615985 0.0026528952
0.021887008 0.0031678742 -0.011101321 0.044621162 -0.07010122 -0.013029257 0.04086622 0.039459772
-0.046936776 -0.065277524 0.03424075 -0.019502468 0.07164504 0.06727028 -0.024258621 0.032788634
-0.02243269 -0.009967653 -0.049412463 0.073054984 -0.025845664 0.070457526 -0.024551095 -0.024307068
0.020203743 -0.066110454 0.024732819 0.044105764 0.01915954 0.03196724 -0.033403613 0.076156385
-0.013671889 0.022625312 0.0775008 -0.037949454 -0.014421421 -0.02814352 -0.0207643 -0.03231796
0.039079614 -0.06069776 0.014296436 -0.03218969 0.06758341 0.06134173 0.037609473 -0.04601749
0.024691999 -0.046434328 0.04907717 0.08796689 0.027399639 -0.02091957 0.00033022923 0.05720272
0.0013853638 -0.05925238 0.062012807 -0.028505687 -0.026974186 -0.022373347 0.024009842 0.06679965
-0.00024814293 0.00863603 0.019752627 0.009146263 -0.0013265763 -0.009742426 -0.014754567 0.04592301
0.062009204 0.03568699 0.030704353 0.054168258 0.032820195 0.05656407 -0.024008095 -0.038124878
0.027765524 0.07941261 0.010943365 0.059621185 -0.036309887 0.0072663506 0.03308184 -0.009214831
0.019897632 0.07319823 0.086554706 0.056546055 -0.033441827 0.01712171 0.029388042 0.05436004
0.050991632 0.026252592 -0.011778836 0.0607116 0.004649718 0.019243803 -0.082562186 -0.062080495
-0.014418265 0.061517555 0.07657262 0.06634167 0.009580349 -0.0026864388 -0.014090648 0.008424785
-0.013086155 0.04165232 -0.051679198 0.022462694 -0.015632462 0.020959858 -0.01727477 0.032261506
00000000: 1ef1 893d 6151 2e3c a895 4c3c e0d3 2bbd
00000010: a82b 9ebd 2917 d43c d486 4dbc 1384 a6bd
00000020: e61a c13a 2c3a 2f3d abac 0cbd aed4 fdbc
00000030: 8360 f4bb f03f e3bb c012 a03b 96c0 043d
00000040: 6ce2 c23d 4c66 063d a728 8d3d 647d ad3c
00000050: 4e34 983c 5200 09bd 0372 81bd b9a7 05bd
00000060: 3d73 973b 9b88 003d 3d69 023d 18ae 3d3d
00000070: f7c9 2dbd 362d fdbc dfcd 413d df32 a33d
00000080: 60ef 053c 2e40 7d3b 2118 203d ebfe 9ebd
00000090: 58bc adbd a1bb d4bc 6825 053c 7038 6b3d
000000a0: 1a01 7b3d 3be8 3c3d 1bce 653d a516 49bc
000000b0: 1b89 373d d2bd 4e3b 22d4 53bd fd7a 20bd
000000c0: ad3b 92bc b510 a3bc 1acf 82bc e598 00bd
000000d0: 4838 e83c 3a4a 993c 042c 4d3b 9797 8a3d
000000e0: e9e6 89bd f0dc 6bbd f089 b5bb 72ef 64bc
000000f0: b21a 9aba 9305 b23d 445f 16bd a794 5ebd
00000100: 0990 71bd fadf 43bd 95d2 a6bd 7797 963c
00000110: 5a4b 7abb 8241 73bd 0c7c f5bc 485d ff3c
00000120: acab 933d 178e b33c ac8a b3bc 8b56 73bc
00000130: 24ae 34bd 5ce5 9f3c 6e7b bdba e783 8cbd
00000140: 2922 1d3d 6d29 26bd e785 573d 6361 a83d
00000150: 233f 44bd 1c4d 2e3d ff3f 7b3d 1d2b 703d
00000160: 3b60 23bd 48b5 6abb 0e87 7cbd 9c1a 363c
00000170: 53ea 473d 523f 9b3c a2ba 6a3d 1deb 0c3d
00000180: 5621 c33c b12f 8e3d 5c47 f6bc 92e6 15bd
00000190: f86f 21bc ec5e 2c3d 25f4 c33c 52e4 bb3a
000001a0: 5393 b03d bfa5 083d 3709 b93b d48b 3a3d
000001b0: b278 563c 86c5 62bd be3b b43c 7d78 173d
000001c0: e440 c7bb 9cd7 943d c70b 633d 3c73 83bc
000001d0: 4d2a 85bc 0610 b8bc b9ae 7cbb 49b6 c8bc
000001e0: 1a6c a83d 9c04 b93c 6a61 05bc d8fe c0bd
000001f0: 99ad a53d 6539 04bd db2f f63c b3ea 3abc
00000200: 11ca 0c3d 519b 263d e44d 723d cbd7 98bd
00000210: 553d 733d b61a 08bd b54e 7c3d 32dc 2d3b
00000220: 624c b33c 1c9c 4f3b 51e2 35bc aec4 363d
00000230: 3a91 8fbd aa78 55bc 5663 273d 92a0 213d
00000240: c740 40bd 39b0 85bd 0740 0c3d a4c3 9fbc
00000250: a2ba 923d 00c5 893d 04ba c6bc 604d 063d
00000260: c3c4 b7bc 5e4f 23bc b964 4abd da9d 953d
00000270: 49ba d3bc 094c 903d 611f c9bc 9e1f c7bc
00000280: 5282 a53c eb64 87bd 7b9c ca3c 3fa8 343d
00000290: 78f4 9c3c 15f0 023d 3ad2 08bd e1f7 9b3d
000002a0: 0f00 60bc b858 b93c bdb8 9e3d e370 1bbd
000002b0: d347 6cbc 3d8d e6bc e519 aabc d65f 04bd
000002c0: f211 203d 379e 78bd 993b 6a3c 56d9 03bd
000002d0: 2c69 8a3d 7741 7b3d 640c 1a3d d67c 3cbd
000002e0: e046 ca3c ec31 3ebd 2505 493d fc27 b43d
000002f0: 3575 e03c 855f abbc 9e22 ad39 664d 6a3d
00000300: 1895 b53a a0b2 72bd 2401 7e3d c284 e9bc
00000310: f8f8 dcbc 4f48 b7bc 4ab0 c43c 41ce 883d
00000320: 2e19 82b9 237e 0d3c 43d0 a13c 35da 153c
00000330: 84e0 adba b29e 1fbc 24bd 71bc c419 3c3d
00000340: 5dfd 7d3d 852c 123d b287 fb3c 89df 5d3d
00000350: 786e 063d baaf 673d a0ac c4bc d528 1cbd
00000360: 8674 e33c 14a3 a23d cd4b 333c 5835 743d
00000370: adb9 14bd 911a ee3b d380 073d cdf9 16bc
00000380: 5c00 a33c f4e8 953d 9843 b13d d69c 673d
00000390: 4cfa 08bd d442 8c3c 31bf f03c a2a8 5e3d
000003a0: 9adc 503d ad0f d73c 05fc 40bc baac 783d
000003b0: a95c 983b 2ea5 9d3c 5d16 a9bd 1e48 7ebd
000003c0: 963a 6cbc d5f9 7b3d 1bd2 9c3d 24de 873d
000003d0: e5f6 1c3c f70e 30bb 76dc 66bc 1c08 0a3c
000003e0: 5067 56bc a09b 2a3d 91ad 53bd af03 b83c
000003f0: a60f 80bc 02b4 ab3c d283 8dbc a424 043d

encoder.layers.0.bias f4 [64]
0.029095411 0.0671424 0.08139298 0.065862104 0.03771914 0.048877507 0.088610195 0.039069045
0.05153242 -0.03921608 0.04356085 0.044134893 0.091738924 0.067100644 0.07051353 0.063928336
0.065411724 0.056047175 0.07942278 0.06321748 0.03869275 0.09476018 0.055252552 0.057077207
0.08287786 0.030933075 0.08986744 0.055969402 0.05366618 -0.038095698 0.05432974 0.044072703
0.09162499 0.034214962 -0.04898683 -0.04469926 0.039859354 0.040371574 0.08642727 0.07581171
0.04321036 0.08326917 0.085904814 0.048487306 0.053256135 0.05865053 0.08879559 0.039896075
0.06573752 0.03522967 0.048110303 0.039623007 0.05008527 0.049442552 -0.039450116 -0.03684495
0.043300956 0.050753597 0.002502102 0.082736395 0.036556527 -0.031810343 0.07998788 0.08485276
00000000: 8059 ee3c f481 893d 5db1 a63d b6e2 863d
00000010: 637f 1a3d c833 483d 4379 b53d dd06 203d
00000020: a913 533d 0aa1 20bd dd6c 323d cac6 343d
00000030: 9ee1 bb3d 106c 893d 6669 903d dcec 823d
00000040: 95f6 853d b991 653d 69a8 a23d 2b78 813d
00000050: 4a7c 1e3d a011 c23d 8050 623d cac9 693d
00000060: debb a93d 5c67 fd3c 6c0c b83d 2c40 653d
00000070: 12d1 5b3d 3c0a 1cbd dd88 5e3d 9485 343d
00000080: e2a5 bb3d fd24 0c3d 6aa6 48bd 9216 37bd
00000090: 9043 233d aa5c 253d c800 b13d 2b43 9b3d
000000a0: 59fd 303d 0789 aa3d ddee af3d a09a 463d
000000b0: 1b23 5a3d 8a3b 703d 76da b53d 116a 233d
000000c0: 65a1 863d fd4c 103d 4f0f 453d bc4b 223d
000000d0: 3626 4d3d 4684 4a3d 7296 21bd bbea 16bd
000000e0: 585c 313d 01e3 4f3d 4efa 233b b371 a93d
000000f0: 4cbc 153d 904b 02bd b0d0 a33d 49c7 ad3d

encoder.layers.2.weight f4 [32, 64]
-0.0032717292 0.04611574 0.19630405 -0.13993534 0.20755388 0.22533876 -0.0027551777 0.30692106
0.22059883 -0.064383134 0.18489538 0.31150585 0.14309286 0.23225832 0.21408662 0.15453152
-0.28607512 -0.13246973 0.12142867 0.22574618 0.09311045 0.19248942 0.24524581 -0.21166961
0.07832603 0.07266578 0.12042566 -0.07080518 0.27563775 -0.05526902 0.13215774 -0.19842614
0.21771775 0.1312448 0.005916428 -0.015160188 0.11840162 0.024822898 0.1005617 -0.2383581
0.27483788 0.0564863 0.13945498 0.28233528 0.110010475 0.13233091 0.1185962 0.13996817
0.030829431 0.0925881 0.30521604 0.16445573 -0.17270678 -0.114798926 -0.08728564 -0.122254014
0.084052265 0.058878142 -0.039513297 0.16942596 0.2825438 -0.12499277 0.22678499 0.06661823
-0.13375565 0.16667803 0.23521343 -0.21090916 0.29940614 0.24190749 0.18939807 0.19393316
0.2265152 -0.092244156 0.2887305 0.12711686 0.22125773 0.2772763 0.09984617 0.17581847
-0.29963967 -0.01928992 0.17754373 0.20746075 0.28410742 0.13255614 0.05315294 -0.27284226
0.09780439 0.044914413 0.1712054 -0.24224508 0.22834153 0.028208356 0.13902953 -0.1951356
0.23005848 0.23501483 -0.049429584 -0.03695631 0.18896577 0.16672526 0.15537915 -0.03934979
0.13892454 0.010523101 0.016854849 0.26177803 0.15384677 0.20761329 0.110184506 0.0635399
0.03646333 0.16077533 0.26967406 0.22973298 -0.019989561 -0.23341277 -0.05243513 0.10600917
0.08238413 0.20907682 -0.04731566 0.07776881 0.07368122 0.101253465 0.23434037 0.1722367
-0.10475363 -0.11833094 -0.110384524 -0.04427764 -0.120500416 0.092159435 -0.059123248 0.06693259
0.05205223 -0.061258286 -0.021866709 -0.015221074 0.064314455 -0.022825956 -0.07541114 0.068597645
-0.108266264 -0.09155238 -0.027956292 0.10858655 0.043192595 0.04276541 -0.012081921 0.06023626
-0.12184347 0.0062440783 -0.0014342815 -0.04088117 0.050733835 0.098852545 -0.1071395 0.072488055
-0.04519452 0.04288079 -0.04690443 0.042940527 -0.034301147 -0.118287295 -0.06296398 -0.11727972
-0.041596293 -0.11809315 -0.03655149 0.075795636 -0.039494812 -0.029803663 -0.031857356 -0.11695075
-0.03202595 0.07242328 -0.013624728 0.048428267 -0.082261935 0.089610755 -0.07719371 0.06549698
-0.122638166 -0.109824926 0.09265894 -0.0529093 -0.074852705 -0.09186442 0.016033381 -0.015070394
-0.09463253 0.01177757 0.13670506 -0.23140895 0.2852445 0.07170155 0.08171966 0.28340185
0.15729125 0.037296206 0.29572037 0.1922719 0.14099655 0.22695692 0.2025131 0.21855177
-0.08815708 -0.12016586 0.21459854 0.15651114 0.26162776 0.21314503 0.20216222 -0.20293704
0.22958344 0.16127059 0.114940405 -0.23260793 0.07633875 -0.08987849 0.058548868 -0.046779342
0.22146127 0.30361888 0.046638496 0.027190804 0.21913685 0.057266623 0.04372442 -0.21096724
0.24002498 0.09821762 0.06256799 0.09572469 0.22394595 0.23262867 0.078320906 0.1690693
0.029057648 0.20509736 0.2794054 0.13546063 -0.16126448 -0.08345742 0.08137052 0.043272927
0.05623392 0.11356881 -0.16866422 0.054083824 0.14567678 -0.10516189 0.054369614 0.19291613
00000000: 826a 56bb dce3 3c3d ee03 493e 364b 0fbe
00000010: 0189 543e 34bf 663e 3690 34bb c224 9d3e
00000020: a9e4 613e 4edb 83bd 3755 3d3e b27d 9f3e
00000030: ef86 123e 20d5 6d3e 8639 5b3e 833d 1e3e
00000040: 7078 92be 25a6 07be 98af f83d 022a 673e
00000050: b1b0 be3d f21b 453e b821 7b3e ebbf 58be
00000060: 6669 a03d ccd1 943d baa1 f63d 4e02 91bd
00000070: 6420 8d3e c561 62bd 5c54 073e 3930 4bbe
00000080: 67f1 5e3e 0965 063e 98de c13b 7062 78bc
00000090: 8c7c f23d 6459 cb3c 4bf3 cd3d 2514 74be
000000a0: 8db7 8c3e 2e5e 673d 49cd 0e3e 408e 903e
000000b0: 2c4d e13d c181 073e 91e2 f23d d153 0f3e
000000c0: 018e fc3c d49e bd3d 4745 9c3e 1567 283e
000000d0: 0cda 30be b31b ebbd d0c2 b2bd 5060 fabd
000000e0: 9823 ac3d 352a 713d b2d8 21bd 007e 2d3e
000000f0: 95a9 903e 36fc ffbd 533a 683e 236f 883d
00000100: 3ef7 08be a5ad 2a3e cadb 703e 92f8 57be
00000110: c34b 993e 99b6 773e 91f1 413e 6a96 463e
00000120: 9af3 673e 81ea bcbd 7cd4 933e ec2a 023e
00000130: 6391 623e 29f7 8d3e 267c cc3d c209 343e
00000140: 5f6a 99be e505 9ebc 06ce 353e 9770 543e
00000150: 8776 913e ccbc 073e e6b6 593d fbb1 8bbe
00000160: ab4d c83d 2df8 373d 7850 2f3e 180f 78be
00000170: 5dd2 693e 3615 e73c c25d 0e3e a0d1 47be
00000180: 7394 6b3e baa7 703e ad76 4abd 805f 17bd
00000190: 3e80 413e 07ba 2a3e b61b 1f3e 3f2d 21bd
000001a0: 3c42 0e3e 1669 2c3c 2e13 8a3c c507 863e
000001b0: 028a 1d3e 9498 543e 6aa8 e13d 3521 823d
000001c0: 935a 153d 4aa2 243e b812 8a3e 1f3f 6b3e
000001d0: 26c1 a3bc c203 6fbe 38c6 56bd 561b d93d
000001e0: 03b9 a83d 3c18 563e 11ce 41bd 4145 9f3d
000001f0: 2ee6 963d fa5d cf3d ecf6 6f3e d15e 303e
00000200: 1289 d6bd 7e57 f2bd 4811 e2bd 785c 35bd
00000210: ecc8 f6bd 16be bc3d 382b 72bd f413 893d
00000220: b834 553d f8e9 7abd d021 b3bc d061 79bc
00000230: 4cb7 833d 80fd babc 2871 9abd ec7c 8c3d
00000240: b4ba ddbd d07f bbbd 9804 e5bc a062 de3d
00000250: b8ea 303d c82a 2f3d 40f3 45bc 4cba 763d
00000260: 1289 f9bd 209b cc3b 80fe bbba 0473 27bd
00000270: 48ce 4f3d 3473 ca3d f46b dbbd 9e74 943d
00000280: e41d 39bd c4a3 2f3d dc1e 40bd 68e2 2f3d
00000290: 5c7f 0cbd 9c40 f2bd 42f3 80bd 5a30 f0bd
000002a0: e060 2abd d2da f1bd 04b7 15bd be3a 9b3d
000002b0: 50c5 21bd d026 f4bc dc7c 02bd e083 efbd
000002c0: a42d 03bd a852 943d 403a 5fbc b85c 463d
000002d0: f278 a8bd d885 b73d bc17 9ebd 4823 863d
000002e0: b829 fbbd e4eb e0bd f8c3 bd3d 6cb7 58bd
000002f0: 604c 99bd 6a23 bcbd 7058 833c d0e9 76bc
00000300: b3ce c1bd b5f6 403c 69fc 0b3e 78f6 6cbe
00000310: 910b 923e 43d8 923d a35c a73d 0c1a 913e
00000320: f510 213e e8c3 183d a968 973e ede2 443e
00000330: 6661 103e 6567 683e 985f 4f3e 09cc 5f3e
00000340: b38b b4bd 8519 f6bd b8bf 5b3e 7544 203e
00000350: 13f4 853e b142 5a3e 9d03 4f3e bace 4fbe
00000360: ec17 6b3e 1e24 253e e065 eb3d c630 6ebe
00000370: 7e57 9c3d 3712 b8bd f0d0 6f3d b29b 3fbd
00000380: bec6 623e ef73 9b3e 0208 3f3d 40bf de3c
00000390: 6965 603e 6890 6a3d 6118 333d cc07 58be
000003a0: 1cc9 753e 5226 c93d a523 803d 4e0b c43d
000003b0: 1652 653e 3636 6e3e b666 a03d 8120 2d3e
000003c0: 4e0a ee3c 0b05 523e 390e 8f3e 31b6 0a3e
000003d0: 8422 25be b9eb aabd 96a5 a63d f43e 313d
000003e0: 8a55 663d c496 e83d 50b6 2cbe 0087 5d3d
000003f0: 4b2c 153e 1e5f d7bd acb2 5e3d ce8b 453e

encoder.layers.2.bias f4 [32]
0.05899118 0.16622038 -0.10166992 0.16916145 -0.11129114 -0.031638518 0.063837536 -0.056460954
0.17848763 -0.06614086 -0.09186758 -0.069843665 0.16063389 0.08794341 0.06820519 0.028300136
-0.06909916 -0.11469211 -0.036481798 0.019955011 0.098322384 -0.028581914 0.086129054 0.04879435
0.09587456 -0.073757485 0.12416034 0.020013012 -0.092841595 0.07864073 0.036714718 -0.015218608
00000000: bca0 713d ad35 2a3e 5238 d0bd a938 2d3e
00000010: 9cec e3bd 6497 01bd 41bd 823d 9a43 67bd
00000020: 76c5 363e dc74 87bd 1225 bcbd 320a 8fbd
00000030: 367d 243e ad1b b43d 2aaf 8b3d b0d5 e73c
00000040: dc83 8dbd b2e3 eabd f06d 15bd b178 a33c
00000050: 3f5d c93d 9e24 eabc 6e64 b03d 96dc 473d
00000060: e259 c43d 2a0e 97bd c747 fe3d 54f2 a33c
00000070: bc23 bebd 640e a13d 2c62 163d 7857 79bc

encoder.layers.4.weight f4 [16, 32]
-0.11793807 -0.05353556 -0.102886505 -0.21729133 -0.10660632 -0.0020507302 -0.24563242 -0.010648282
-0.2784933 -0.15838587 -0.095736 0.17380925 -0.22342138 -0.022151232 0.016476393 0.119251445
-0.15870039 -0.13330999 0.14503248 -0.022303084 -0.06766237 -0.0807322 -0.1588416 -0.10676554
-0.20440385 -0.09632744 -0.23222208 -0.24604325 0.028880896 -0.2674405 0.05993114 -0.122275755
0.03534523 -0.021933727 0.04844854 0.061085537 -0.024726123 0.10346034 0.00780533 0.12993044
-0.26196617 0.014942469 -0.08528012 0.15885507 -0.09516894 -0.07250853 -0.024362411 -0.07322396
-0.15882161 -0.13753903 0.03461881 0.07504188 -0.072990954 -0.13562943 -0.032383934 -0.27658945
-0.048288405 -0.15925682 -0.18498152 -0.105086446 -0.10573706 -0.040279828 0.11200389 -0.12259159
0.07387314 0.22123823 -0.04848841 0.045130588 -0.05551564 0.083102845 -0.05151558 0.1595128
0.09354037 -0.1071745 0.11510125 0.12337552 0.17853725 -0.0054484466 0.13958076 -0.056074373
0.14426826 -0.13880135 -0.071536265 -0.11282081 -0.027922895 0.049343105 0.2576507 -0.023178495
0.20747173 -0.13027841 0.053664573 0.20340486 -0.12720875 0.12231902 0.09381887 -0.06547994
-0.27740434 -0.16149025 -0.14588487 -0.14367074 0.046767026 0.10881179 -0.06302588 0.14295778
-0.004544297 -0.027320556 -0.14252862 -0.1604208 -0.13050914 -0.15097587 0.06817472 -0.04160262
-0.017011901 0.14876619 -0.09600847 0.11973258 -0.21195395 0.07464025 -0.08205346 -0.1535668
-0.19340721 -0.09525763 -0.2466635 -0.25148976 -0.03670908 0.061899662 -0.074195154 0.06725528
-0.30386183 -0.22641477 0.0297982 -0.26279473 0.16959609 0.16825439 -0.24861887 0.14880979
-0.13749927 0.08309002 -0.14288932 -0.1396617 0.032415885 -0.044064034 -0.11838254 0.019298973
-0.0012433953 -0.09194162 -0.13372202 -0.16656023 -0.031986944 0.023431342 -0.19154805 -0.32709464
-0.16545002 0.027654866 -0.08639926 -0.19298658 0.05293899 -0.10274398 0.12869638 0.11168925
0.23610176 0.1458919 0.13870703 0.2147259 -0.105644934 -0.1533125 0.042644754 -0.0767727
0.20286717 -0.16853414 0.16109893 0.12221865 0.10804709 0.21467881 0.2758725 -0.078039214
-0.048898224 -0.06691054 0.11987657 -0.019728176 0.2643544 -0.07091473 0.2131988 -0.0010308502
0.22669941 -0.049715664 0.29706317 0.05388176 0.005528971 0.22966078 0.1523884 0.15209207
-0.09051244 -0.13807413 -0.13831706 -0.05747842 0.07328001 0.16636163 -0.3061746 0.048409164
-0.23380822 -0.029054245 0.12134619 -0.08458561 -0.27811232 -0.2415867 -0.06634021 0.07699387
-0.104793966 -0.055592198 -0.021574318 -0.0878575 -0.25877488 0.09775857 -0.10748869 -0.22843659
-0.117250465 0.14804763 -0.22086401 -0.14046942 -0.15091905 -0.05320097 0.13581991 0.05028442
-0.106038995 -0.07798359 0.13305642 -0.28852957 -0.03252325 0.04250727 -0.12370672 -0.07779856
-0.0069045657 -0.049897145 0.058187053 0.030330664 -0.28002226 -0.15909544 -0.1553286 -0.089662194
-0.15877569 0.06064506 -0.14146541 0.07345321 -0.006875054 0.14530037 -0.20771657 -0.21634321
0.0051712487 -0.15434541 -0.2323912 -0.09832456 0.14700098 0.0064819125 0.013486483 -0.15689373
00000000: 8489 f1bd 1a48 5bbd 29b6 d2bd 9e81 5ebe
00000010: 6a54 dabd 8b65 06bb 1187 7bbe 2276 2ebc
00000020: ac96 8ebe e82f 22be 3c11 c4bd 0dfb 313e
00000030: 93c8 64be 8076 b5bc 80f9 863c 1a3a f43d
00000040: 5b82 22be 6a82 08be 6583 143e f5b4 b6bc
00000050: 9292 8abd ec56 a5bd 5fa7 22be e4a7 dabd
00000060: 3e4f 51be 5247 c5bd a0cb 6dbe c3f2 7bbe
00000070: a197 ec3c f6ed 88be 5b7a 753d b66b fabd
00000080: 29c6 103d 5cae b3bc fa71 463d d434 7a3d
00000090: 708e cabc 04e3 d33d dbc3 ff3b 7c0c 053e
000000a0: 6e20 86be 42d1 743c 58a7 aebd e7aa 223e
000000b0: efe7 c2bd 5a7f 94bd ae93 c7bc 72f6 95bd
000000c0: 22a2 22be 08d7 0cbe 74cc 0d3d 8faf 993d
000000d0: 487c 95bd 71e2 0abe 04a5 04bd 229d 8dbe
000000e0: 10ca 45bd 3814 23be cc6b 3dbe 9037 d7bd
000000f0: ac8c d8bd 76fc 24bd 4c62 e53d 4d11 fbbd
00000100: cd4a 973d 468c 623e c89b 46bd dada 383d
00000110: 5e64 63bd d331 aa3d 0002 53bd 5357 233e
00000120: 1892 bf3d 4e7e dbbd 34ba eb3d 4eac fc3d
00000130: 78d2 363e e288 b2bb 42ee 0e3e 3eae 65bd
00000140: 0fbb 133e f121 0ebe 9b81 92bd 990e e7bd
00000150: 8ebe e4bc ff1b 4a3d cbea 833e d4e0 bdbc
00000160: 7873 543e b467 05be 62cf 5b3d 5d49 503e
00000170: 0343 02be 6582 fa3d 1c24 c03d 591a 86bd
00000180: f107 8ebe b35d 25be d862 15be 6c1e 13be
00000190: c88e 3f3d b7d8 de3d b613 81bd 8663 123e
000001a0: 53e8 94bb 5ccf dfbc 06f3 11be 5a45 24be
000001b0: 30a4 05be 6b99 1abe 309f 8b3d 8267 2abd
000001c0: 8b5c 8bbc 2a56 183e 17a0 c4bd 5b36 f53d
000001d0: 750a 59be fddc 983d a50b a8bd 9d40 1dbe
000001e0: 8a0c 46be 6f16 c3bd 5b95 7cbe 44c3 80be
000001f0: 435c 16bd 808a 7d3d a1f3 97bd 23bd 893d
00000200: c793 9bbe 46d9 67be 5b1b f43c 088d 86be
00000210: 99aa 2d3e e14a 2c3e f295 7ebe 9861 183e
00000220: 9ccc 0cbe 1a2b aa3d 9451 12be 7a03 0fbe
00000230: 85c6 043d 7d7c 34bd 8c72 f2bd e118 9e3c
00000240: 6cf9 a2ba e34b bcbd 6dee 08be c48e 2abe
00000250: be04 03bd 16f3 bf3c 2c25 44be f378 a7be
00000260: bb6b 29be 758c e23c 18f2 b0bd 469e 45be
00000270: 8ed6 583d 706b d2bd fcc8 033e 55bd e43d
00000280: a9c4 713e b064 153e 3709 0e3e 1be1 5b3e
00000290: 5f5c d8bd f4fd 1cbe 44ac 2e3d 013b 9dbd
000002a0: 69bc 4f3e 3794 2cbe 1ef7 243e c64d fa3d
000002b0: cb47 dd3d c3d4 5b3e 293f 8d3e 06d3 9fbd
000002c0: 8149 48bd 6508 89bd d981 f53d fc9c a1bc
000002d0: 7659 873e be3b 91bd c950 5a3e 981d 87ba
000002e0: e423 683e a7a2 4bbd aa18 983e 1fb3 5c3d
000002f0: 5f2c b53b 322c 6b3e b40b 1c3e 06be 1b3e
00000300: 965e b9bd 4e63 0dbe fda2 0dbe 7e6e 6bbd
00000310: d413 963d b45a 2a3e ebc2 9cbe b048 463d
00000320: 6c6b 6fbe 2b03 eebc 5a84 f83d 383b adbd
00000330: bd64 8ebe 8162 77be 60dd 87bd f6ae 9d3d
00000340: 389e d6bd a5b4 63bd a0bc b0bc a2ee b3bd
00000350: 247e 84be a535 c83d 0823 dcbd 48eb 69be
00000360: 0321 f0bd cc99 173e 2d2a 62be 37d7 0fbe
00000370: 868a 1abe 43e9 59bd 6014 0b3e 09f7 4d3d
00000380: f92a d9bd dcb5 9fbd f13f 083e 26ba 93be
00000390: 1937 05bd 1a1c 2e3d f359 fdbd da54 9fbd
000003a0: b23f e2bb f360 4cbd 8c55 6e3d 0378 f83c
000003b0: 145f 8fbe eae9 22be 760e 1fbe d0a0 b7bd
000003c0: 1896 22be f466 783d 4fdc 10be a36e 963d
000003d0: 2248 e1bb 9fc9 143e a7b3 54be 1389 5dbe
000003e0: 9473 a93b b90c 1ebe f5f7 6dbe 635e c9bd
000003f0: 6d87 163e 3966 d43b 69f6 5c3c c0a8 20be

encoder.layers.4.bias f4 [16]
-0.17927009 -0.15683188 0.10770179 0.057525802 0.028901158 0.179406 -0.035409145 -0.04840899
0.11832186 0.054048497 -0.10526672 -0.1831266 0.11036602 0.073702246 -0.18218309 0.06803694
00000000: 9492 37be 8998 20be c292 dc3d 2da0 6b3d
00000010: 1fc2 ec3c 35b6 373e 2e09 11bd 8148 46bd
00000020: bb52 f23d f561 5d3d 1496 d7bd 8a85 3bbe
00000030: 9407 e23d 34f1 963d 348e 3abe f456 8b3d

classifier.layers.0.weight f4 [16, 160]
0.042197783 0.044760864 -0.0031571018 0.020751266 -0.020860463 -0.07465654 0.003949196 0.05950782
0.04467718 0.057199743 0.0021384798 0.039374873 0.014346603 -0.04777961 0.042673837 -0.06256406
0.010256233 0.04991272 -0.04113299 -0.05258678 -0.06246026 -0.041841064 -0.022628615 0.083614856
0.036607485 0.05208232 0.03891036 0.024522565 -0.002800468 -0.06405507 0.01539457 0.020821055
-0.061840594 -0.019630447 -0.08075589 -0.04375357 0.0154878395 0.05509285 -0.07148944 0.009929549
0.036042035 -0.05716914 0.011062822 -0.030165808 0.029718192 0.034250867 0.06468149 0.06109511
-0.06008472 0.039651554 0.02031796 -0.032685734 0.0050501116 0.032606278 -0.07319529 0.013418285
-0.034890443 0.06466152 -0.06322271 0.082837455 0.021668786 0.03456269 -0.026665485 -0.0337428
0.053630013 0.06730143 0.026327323 0.06302891 0.07060851 -0.00095579366 0.06962021 0.07771951
0.051976945 0.034944363 -0.083424054 0.030204095 0.04617743 -0.030556513 -0.0697037 -0.066065535
0.015127923 0.045134388 0.029210825 -0.0034342601 0.07576777 0.032789573 0.01950778 -0.011378333
-0.0290532 -0.06988929 -0.0802543 0.02002231 0.04961271 -0.043371297 0.048643664 -0.062295634
-0.031073842 -0.07971604 -0.052839402 0.011965527 0.070193924 -0.00561076 0.047053773 -0.0016428418
0.0103511475 0.053173248 -0.049168598 0.020670619 0.058411743 0.02286421 -0.06109642 0.0038832796
-0.008329187 -0.024029467 0.049508184 0.005311425 -0.028338443 -0.06885222 -0.021947222 -0.043534975
0.0472803 0.051921442 0.037728634 0.036566895 0.043973807 0.0319417 0.06649099 -1.1076377e-05
-0.03961868 0.05099875 -0.031507652 -0.08195596 -0.06958473 -0.0420981 -0.02456889 -0.027057884
-0.015506298 -0.00011234898 -0.07487422 -0.02320372 0.03783596 -0.012939829 0.078567006 -0.018526461
0.049208887 -0.057822827 -0.08224346 0.0044953497 -0.030346006 0.04489792 -0.04043729 0.07925833
0.031907905 -0.047347568 0.017170165 0.068219356 -0.01008684 -0.017475199 -0.059148572 0.07672178
0.04793884 -0.07060612 0.036105316 -0.058538545 -0.038023483 0.032861315 0.040185913 0.05769212
-0.052251942 0.074868925 -0.020919539 0.07363028 -0.024471944 -0.014592851 -0.059495084 0.07413397
-0.033380024 -0.014295385 0.07749546 -0.025915958 0.026222674 0.06504656 0.020118037 0.047616065
-0.022687221 -0.05806056 -0.06628061 0.062462684 -0.008356541 0.08246891 -0.052985135 0.012710913
0.07824064 -0.03891137 -0.02704006 0.053919863 -0.05286784 0.058605812 0.012665173 0.038311213
0.020762157 -0.032183163 -0.053157292 -0.039425317 0.049818046 0.075656235 -0.020038432 -0.027842017
-0.029704718 0.04672892 0.06270349 -0.035820343 -0.011655186 -0.06505386 -0.024467286 -0.0036384766
-0.07103677 0.06158194 0.06265054 0.04998238 -0.06879442 -0.055070564 0.0040647965 0.058326453
0.008490923 -0.06655444 0.019374674 -0.0043060635 -0.040275536 0.03769391 -0.008328745 0.07234591
-0.010860237 -0.046761896 -0.06513885 0.027239483 0.058382787 -0.069601506 0.07124066 -0.012081916
0.019746773 -0.0034183515 -0.008977938 -0.06859855 0.016386105 0.035100296 -0.049272623 -0.06969416
-0.018394778 -0.029932424 0.0783041 -0.043584317 9.399079e-06 0.07236951 -0.07119848 0.053356398
00000000: 95d7 2c3d 2b57 373d 61e7 4ebb 8ffe a93c
00000010: 90e3 aabc 87e5 98bd 4268 813b 79be 733d
00000020: 6bff 363d 474a 6a3d bd25 0c3b 8c47 213d
00000030: 040e 6b3c 8db4 43bd c3ca 2e3d 9621 80bd
00000040: c209 283c 4871 4c3d 117b 28bd 3c65 57bd
00000050: 54d6 7fbd 8961 2bbd a55f b9bc 443e ab3d
00000060: bbf1 153d 4554 553d 7860 1f3d 8ce3 c83c
00000070: 0e88 37bb 4e2f 83bd 8239 7c3c eb90 aa3c
00000080: 904c 7dbd 08d0 a0bc 5863 a5bd f236 33bd
00000090: b5c0 7d3c 0aa9 613d 0e69 92bd 8caf 223c
000000a0: d0a0 133d 302a 6abd d740 353c 491e f7bc
000000b0: 9173 f33c a34a 0c3d bb77 843d de3e 7a3d
000000c0: 651b 76bd ab69 223d da71 a63c 7ae1 05bd
000000d0: 687b a53b 298e 053d 6ae7 95bd 5ed8 5b3c
000000e0: 48e9 0ebd 426d 843d e87a 81bd afa6 a93d
000000f0: bd82 b13c 9b91 0d3d 9371 dabc e435 0abd
00000100: 25ab 5b3d 55d5 893d 66ac d73c 4d15 813d
00000110: 329b 903d 3a8e 7aba 0a95 8e3d 682b 9f3d
00000120: c7e5 543d d221 0f3d 3bda aabd 946e f73c
00000130: 8b24 3d3d a751 fabc d0c0 8ebd 5e4d 87bd
00000140: 1cdb 773c d6de 383d 8a4b ef3c 5311 61bb
00000150: 222c 9b3d 5c4e 063d c8ce 9f3c 306c 3abc
00000160: fa00 eebc 1e22 8fbd 5e5c a4bd d405 a43c
00000170: b236 4b3d 1aa6 31bd 943e 473d b529 7fbd
00000180: 928e febc 2a42 a3bd 216e 58bd 0f0b 443c
00000190: d5c1 8f3d 77da b7bb 75bb 403d a054 d7ba
000001a0: dc97 293c 31cc 593d 0365 49bd 6e55 a93c
000001b0: 2741 6f3d b94d bb3c 3d40 7abd 9f7e 7e3b
000001c0: 2477 08bc 72d9 c4bc 18c9 4a3d 760b ae3b
000001d0: 0626 e8bc 6502 8dbd a9ca b3bc bb51 32bd
000001e0: fda8 413d 94ab 543d 5789 1a3d 2bc7 153d
000001f0: e11d 343d 4dd5 023d 6e2c 883d add4 39b7
00000200: 3247 22bd 11e4 503d 2b0e 01bd 87d8 a7bd
00000210: 7082 8ebd 0f6f 2cbd b244 c9bc 7fa8 ddbc
00000220: 210e 7ebc e69c ebb8 a857 99bd ba15 bebc
00000230: e1f9 1a3d 9401 54bc bde7 a03d cec4 97bc
00000240: 428f 493d a1d7 6cbd 426f a8bd ba4d 933b
00000250: 3098 f8bc e2e6 373d 92a1 25bd 3152 a23d
00000260: ddb1 023d 86ef 41bd 72a8 8c3c 97b6 8b3d
00000270: 4643 25bc 2628 8fbc c645 72bd 4f20 9d3d
00000280: 845b 443d f199 90bd 2be3 133d 1dc6 6fbd
00000290: 83be 1bbd 9699 063d fc99 243d 934e 6c3d
000002a0: 2206 56bd e154 993d 745f abbc 79cb 963d
000002b0: 6379 c8bc da16 6fbc 1eb1 73bd 8dd3 973d
000002c0: 7eb9 08bd 3137 6abc f1b5 9e3d b44d d4bc
000002d0: efd0 d63c 2137 853d 95ce a43c 1009 433d
000002e0: 8dda b9bc e9d0 6dbd 21be 87bd dfd8 7f3d
000002f0: e0e9 08bc 76e5 a83d f106 59bd 6f41 503c
00000300: a13c a03d 8761 1fbd 1e83 ddbc 13db 5c3d
00000310: f38b 58bd a60c 703d 9681 4f3c 38ec 1c3d
00000320: 6615 aa3c 7ed2 03bd 76bb 59bd 717c 21bd
00000330: 020e 4c3d a8f1 9a3d a327 a4bc f114 e4bc
00000340: 4f57 f3bc d366 3f3d b06a 803d 5ab8 12bd
00000350: 65f5 3ebc f53a 85bd 9e6f c8bc 8273 6ebb
00000360: ba7b 91bd 583d 7c3d ed4e 803d 53ba 4c3d
00000370: 17e4 8cbd ac91 61bd fc31 853b b8e7 6e3d
00000380: 831d 0b3c b24d 88bd a3b7 9e3c e119 8dbb
00000390: f6f7 24bd ee64 1a3d 4a75 08bc 182a 943d
000003a0: 23ef 31bc 6789 3fbd 8467 85bd 5625 df3c
000003b0: ca22 6f3d 3c8b 8ebd a0e6 913d 3bf3 45bc
000003c0: fcc3 a13c 6c06 60bb 3418 13bc 667d 8cbd
000003d0: 273c 863c 54c5 0f3d 17d2 49bd d0bb 8ebd
000003e0: a5b0 96bc d834 f5bc e65d a03d 7885 32bd
000003f0: bdb0 1d37 7736 943d 82d0 91bd 3d8c 5a3d

classifier.layers.0.bias f4 [16]
-0.078613244 0.07530288 0.0092828525 0.020262282 -0.0736877 0.09457566 0.035119448 0.012352336
0.010877337 0.0349592 0.021240285 -0.07656447 0.016480697 0.084944464 0.11214612 0.00052338757
00000000: fbff a0bd 6538 9a3d 1b17 183c 16fd a53c
00000010: 94e9 96bd e2b0 c13d 69d9 0f3d 7461 4a3c
00000020: dc36 323c 6131 0f3d 1b00 ae3c d5cd 9cbd
00000030: 8702 873c 5df7 ad3d ddac e53d f233 093a

classifier.layers.2.weight f4 [5, 16]
0.21659774 -0.111389175 -0.041833036 -0.08775705 -0.12288349 0.061482795 -0.17149898 -0.027831316
-0.22550453 0.059650455 0.09565873 -0.09339904 -0.010246076 0.16226387 0.19614252 0.015676912
-0.2045383 -0.20562227 0.068917245 0.16811797 0.049489323 0.1468005 0.036509484 0.18277541
0.20643325 -0.21000485 0.2311459 0.21906403 0.13578542 -0.18630354 -0.021353444 -0.12512557
-0.16489996 0.21664798 -0.1543475 -0.2096833 0.13489705 -0.12643117 0.13471028 -0.18398568
0.11583981 -0.2485077 0.18841697 -0.06744034 0.045834035 -0.15679967 -0.2031421 -0.29129106
-0.11746373 -0.04988599 -0.050618965 -0.09000412 -0.13468927 0.28134635 -0.03757714 0.1118114
-0.15532069 -0.20791782 -0.19193985 -0.11488675 -0.24219891 0.12724993 0.15449685 0.13068098
-0.07708937 0.17200339 0.08584799 0.029908597 0.16311215 -0.19784434 -0.097640306 -0.033760548
-0.23473111 0.14089744 -0.16782504 -0.12708586 0.10774479 0.09402219 0.137121 0.15366338
00000000: cccb 5d3e 0220 e4bd 1e59 2bbd f8b9 b3bd
00000010: 57aa fbbd 62d5 7b3d 6e9d 2fbe 80fe e3bc
00000020: a9ea 66be 0954 743d b9e8 c33d ff47 bfbd
00000030: 28df 27bc 8028 263e 96d9 483e de6c 803c
00000040: 7d72 51be a58e 52be 7c24 8d3d 1e27 2c3e
00000050: 51b5 4a3d df52 163e f88a 153d 7a29 3b3e
00000060: 3d63 533e 830b 57be 83b1 6c3e 5252 603e
00000070: 550b 0b3e 5bc6 3ebe 6bed aebc eb20 00be
00000080: 89db 28be f8d8 5d3e 450d 1ebe 38b7 56be
00000090: 7422 0a3e 2c77 01be 7ef1 093e be66 3cbe
000000a0: 6c3d ed3d cd78 7ebe 61f0 403e 291e 8abd
000000b0: 78bc 3b3d 1890 20be 7c04 50be 1a24 95be
000000c0: d390 f0bd 4055 4cbd d555 4fbd 1454 b8bd
000000d0: fceb 09be a10c 903e 7dea 19bd 60fd e43d
000000e0: 630c 1fbe 69e8 54be e18b 44be bf49 ebbd
000000f0: fe02 78be ce4d 023e 6c34 1e3e 3cd1 053e
00000100: 08e1 9dbd a821 303e 12d1 af3d e002 f53c
00000110: df06 273e b597 4abe a4f7 c7bd 8048 0abd
00000120: 5a5d 70be 6b47 103e 54da 2bbe cc22 02be
00000130: 4da9 dc3d b58e c03d 7369 0c3e ef59 1d3e

classifier.layers.2.bias f4 [5]
0.077108294 0.033461664 0.18017669 0.13742736 0.17331617
00000000: f4ea 9d3d 190f 093d 3d80 383e c2b9 0c3e
00000010: cb79 313e

pool.gate_nn.0.weight f4 [16, 16]
0.0011509657 0.08654606 0.20661774 -0.22841513 0.21531385 -0.12618163 0.09753576 0.106634915
-0.070687175 -0.045705646 0.121369034 0.16976014 -0.04370919 0.20062998 -0.13794097 0.087216616
-0.24848619 0.21928695 0.23043668 -0.100627154 -0.2253595 -0.09050119 0.06761676 -0.09531978
-0.15364647 -0.23944631 0.0017292798 -0.08327034 0.19160047 0.18823892 0.16942659 0.120292634
0.017326802 0.15394074 0.15354905 0.14023265 -0.1656721 0.23620996 0.0668529 -0.060162485
0.22619516 -0.1352225 0.13765314 -0.1912575 0.117446214 -0.04819423 0.23965928 0.23427755
0.17400274 0.22184098 -0.2168661 0.2391364 -0.24699056 -0.09703663 0.15997642 0.15073669
0.11036861 0.060360342 0.09350631 0.15925753 -0.24253535 0.03445956 -0.1618157 0.0549601
0.035172433 0.065627575 0.2069735 0.17084888 -0.11166632 0.07528457 0.21799526 -0.195719
0.17379516 -0.115021855 0.07521361 0.10175091 -0.05687204 0.24268544 -0.055228412 0.049152464
0.24850845 0.047278374 -0.1474866 -0.1629811 -0.22433925 0.15374479 -0.007304251 -0.028271228
-0.24001247 -0.047451645 -0.20610595 0.13385296 -0.12610129 0.004440546 0.03894055 0.20800349
0.123010844 -0.20169497 0.14180261 0.10183504 0.19096714 -0.021217883 -0.005567521 -0.1360403
0.035027623 -0.08155224 -0.14286736 -0.23448655 0.13813332 -0.16858074 0.11882621 0.14858791
-0.19752944 -0.22781348 0.0057814717 0.14527369 -0.21658671 0.017042607 0.17911166 0.0039955676
0.080406874 -0.088089675 0.08036545 -0.15002337 -0.007944047 0.24948132 0.14017111 0.0049363375
-0.20707393 0.17196459 -0.20915839 0.2452392 -0.19531909 0.15547821 0.17638156 0.1666575
0.055838645 0.03784579 -0.23944652 -0.20130539 -0.24746954 0.047913432 -0.1459763 0.15408468
-0.022038817 -0.079131514 0.10255292 0.2405993 0.0039882064 0.22134927 0.033696324 0.20217755
0.15781221 -0.18467864 -0.19761512 -0.15318331 -0.06742433 0.2314789 -0.06820297 -0.054574013
0.2097238 -0.19828922 0.15601963 -0.03657058 -0.20851395 0.16722876 -0.14831427 -0.054318786
0.11373982 0.048172325 -0.08455533 -0.047570765 -0.16235808 -0.002280265 0.018172681 -0.14077583
-0.14204192 -0.16159633 -0.10961211 -0.22434235 -0.18323582 0.1614748 0.17002377 0.02038452
-0.16221246 0.059895158 -0.15627664 0.08607468 -0.22360417 -0.078795046 -0.02904746 0.20087251
-0.07198489 0.04338184 -0.204395 -0.15657216 -0.02916503 -0.21640858 0.060182065 0.10366523
0.029268056 -0.13959414 0.15617824 0.23469335 -0.16339052 -0.043237418 -0.042041987 0.19551164
0.22599334 0.07003111 -0.17067793 0.13065764 -0.23224866 -0.01426366 0.082529336 0.14020976
0.15962365 -0.058725 -0.065516084 0.088074654 -0.2498717 0.048980802 -0.01689747 0.18522257
0.14986241 -0.06475371 -0.0751349 -0.13583013 -0.056390256 0.244246 0.2397247 0.24526575
-0.054243416 0.10120779 -0.015947819 -0.21122992 -0.22905406 -0.21165124 -0.03820777 0.24005133
0.0581505 0.1202448 0.04561889 0.18818784 -0.16346455 -0.22812954 -0.15328097 0.11859867
-0.19306058 -0.05849856 0.09635991 -0.011455625 -0.14869541 -0.1915411 -0.13388255 0.047400266
00000000: 00dc 963a 103f b13d 9a93 533e a8e5 69be
00000010: 3c7b 5c3e c235 01be d4c0 c73d 6863 da3d
00000020: 70c4 90bd d835 3bbd 5490 f83d 9ad5 2d3e
00000030: 6808 33bd f271 4d3e 6640 0dbe a09e b23d
00000040: 2a73 7ebe c28c 603e 98f7 6b3e 9c15 cebd
00000050: a4c4 66be b058 b9bd a87a 8a3d 0437 c3bd
00000060: 8055 1dbe 6a31 75be 00a9 e23a a489 aabd
00000070: ea32 443e b4c1 403e 2a7e 2d3e fc5b f63d
00000080: f0f0 8d3c a4a2 1d3e f63b 1d3e 2699 0f3e
00000090: f2a5 29be 06e1 713e 2cea 883d f06c 76bd
000000a0: b49f 673e c477 0abe f2f4 0c3e 02d9 43be
000000b0: a487 f03d 5067 45bd 3e69 753e 74e6 6f3e
000000c0: c62d 323e 482a 633e 2612 5ebe 2ce0 743e
000000d0: 18eb 7cbe 24bb c6bd dcd0 233e b85a 1a3e
000000e0: f008 e23d 683c 773d 3c80 bf3d 6814 233e
000000f0: 305b 78be 7825 0d3d 04b3 25be d81d 613d
00000100: f810 103d c067 863d dcf0 533e 02f3 2e3e
00000110: 50b1 e4bd cc2e 9a3d 263a 5f3e 906a 48be
00000120: 5cf7 313e 9490 ebbd 9809 9a3d c862 d03d
00000130: a8f2 68bd 8882 783e 3037 62bd 1854 493d
00000140: 0079 7e3e f8a6 413d ba06 17be 84e4 26be
00000150: 30b9 65be 466f 1d3e 8058 efbb 1099 e7bc
00000160: d4c5 75be a85c 42bd 700d 53be c010 093e
00000170: b220 01be 0082 913b 2080 1f3d defe 543e
00000180: 1ced fb3d 2089 4ebe b434 113e e48e d03d
00000190: e48c 433e 20d1 adbc c06f b6bb 264e 0bbe
000001a0: 2079 0f3d dc04 a7bd d24b 12be 3e1d 70be
000001b0: d272 0d3e 6ea0 2cbe 285b f33d 6e27 183e
000001c0: 2845 4abe f047 69be 8072 bd3b a0c2 143e
000001d0: e8c8 5dbe f09c 8b3c 0c69 373e 40ed 823b
000001e0: 5cac a43d 5c68 b4bd a496 a43d ba9f 19be
000001f0: c027 02bc 0878 7f3e 0489 0f3e 00c1 a13b
00000200: 300b 54be 7c17 303e 9e2d 56be fc1f 7b3e
00000210: ba01 48be ae35 1f3e 5e9d 343e 44a8 2a3e
00000220: 10b7 643d 3004 1b3d 7831 75be 0023 4ebe
00000230: a868 7dbe e040 443d d07a 15be 60c8 1d3e
00000240: c08a b4bc b40f a2bd 4407 d23d aa5f 763e
00000250: 80af 823b 62a9 623e 2805 0a3d a207 4f3e
00000260: 8699 213e 661c 3dbe 9e5b 4abe 16dc 1cbe
00000270: c415 8abd ce08 6d3e 00ae 8bbd 0089 5fbd
00000280: d6c1 563e 540c 4bbe 9cc3 1f3e 08cb 15bd
00000290: ae84 55be 043e 2b3e b2df 17be 607d 5ebd
000002a0: 6cf0 e83d 5850 453d 582b adbd 90d9 42bd
000002b0: 3241 26be 8070 15bb e0de 943c 8a27 10be
000002c0: 7073 11be 8279 25be 507c e0bd 00ba 65be
000002d0: 2ca2 3bbe a659 253e b61a 2e3e 70fd a63c
000002e0: 061b 26be a054 753d fc06 20be ec47 b03d
000002f0: 7ef8 64be 4c5f a1bd f0f4 edbc 86b1 4d3e
00000300: d06c 93bd 28b1 313d ec4c 51be 7454 20be
00000310: 80eb eebc 369a 5dbe 7881 763d 704e d43d
00000320: 90c3 ef3c c4f1 0ebe 30ed 1f3e 7453 703e
00000330: d84f 27be b819 31bd 3834 2cbd 3434 483e
00000340: cc6a 673e 786c 8f3d 32c6 2ebe 1ecb 053e
00000350: 98d2 6dbe 20b2 69bc 2405 a93d 2693 0f3e
00000360: 6274 233e a089 70bd 4c2d 86bd 7c60 b43d
00000370: 5ede 7fbe 18a0 483d 906c 8abc fcaa 3d3e
00000380: 8875 193e 989d 84bd 54e0 99bd 0e17 0bbe
00000390: 78f9 66bd a01b 7a3e 647a 753e f226 7b3e
000003a0: 582e 5ebd 0846 cf3d 00a5 82bc a84c 58be
000003b0: 268d 6abe 1abb 58be c07f 1cbd 04d0 753e
000003c0: 382f 6e3d e842 f63d e0da 3a3d 50b4 403e
000003d0: 4063 27be ca9a 69be b0f5 1cbe dce3 f23d
000003e0: acb1 45be 309c 6fbd 5858 c53d 60b0 3bbc
000003f0: 9c43 18be 5a23 44be 8218 09be c826 423d

pool.gate_nn.2.weight f4 [1, 16]
0.23856086 -0.109032094 -0.24298581 -0.12038186 -0.0630168 0.08139843 -0.100235224 -0.09034258
0.09116709 -0.13024405 0.055190533 0.15689081 -0.13226444 -0.027168661 -0.18742803 0.17903817
00000000: 4c49 743e 384c dfbd 46d1 78be c48a f6bd
00000010: f40e 81bd 38b4 a63d 2048 cdbd 8805 b9bd
00000020: d0b5 ba3d b25e 05be 780f 623d fca7 203e
00000030: 5470 07be d090 debc 22ed 3fbe c855 373e

pool.nn.layers.0.weight f4 [16, 16]
0.018323928 0.097592235 -0.09571552 0.1418899 -0.1910299 -0.14455831 -0.057663172 -0.011458278
-0.11254603 -0.19153118 0.16699544 0.15523171 0.011171669 0.17091507 0.15184501 -0.11058387
0.21296278 -0.10905203 -0.067973256 0.21017058 0.04807922 -0.0782481 -0.07804385 0.10942583
-0.055577267 -0.0183208 -0.008120298 0.038941696 0.11734346 -0.24493855 0.06474445 0.05032501
-0.25337937 -0.20887901 0.27391806 -0.3630221 -0.21562086 0.27625647 0.0011247173 -0.0776712
0.09978729 0.0803425 0.012736678 0.03750659 0.044722136 0.105705515 -0.08913093 -0.30407277
-0.30132195 0.11164434 0.021575533 -0.18017401 -0.24939227 0.2142772 -0.005703605 -0.17184724
0.14516212 0.12317498 0.07730022 -0.002250501 0.16535808 -0.16379647 -0.11564359 -0.1134643
-0.18975575 -0.024029525 -0.06814644 -0.26953474 -0.3225998 0.22224829 -0.38699183 -0.35061708
0.14886673 -0.22752164 -0.18040118 -0.17820486 0.18068497 0.39408562 -0.2775031 -0.27520925
-0.30808958 -0.087273166 0.30673054 0.07435972 -0.07900834 0.17108259 0.13959354 -0.3063749
0.18000053 -0.14443602 -0.23828939 -0.16229577 0.26054436 0.16710868 -0.1998665 -0.28366226
-0.2700286 -0.34035578 0.043385558 -0.2861849 -0.07351066 0.2801095 -0.3746441 -0.24041177
0.09227123 0.23252669 -0.2993892 -0.2755235 0.30642352 0.2048526 -0.057441052 0.1779637
0.22954744 0.12539327 -0.033622444 0.22334465 0.15522039 -0.06750545 -0.05987522 0.16541868
0.0022531748 -0.12725219 0.12112597 0.13672069 0.1561923 -0.1040234 0.03712222 0.026566535
-0.049121097 0.16816618 -0.1289424 0.19533102 -0.12876114 -0.26086107 0.113740966 -0.15385494
0.19125842 0.16956303 0.12799788 0.1377317 0.13902047 0.047624588 -0.19772635 0.16563302
-0.22992884 -0.11428615 0.035700217 -0.061193153 -0.08321181 0.21845116 -0.04527693 0.00020728365
-0.0077153924 0.09917144 -0.28079605 -0.2290846 -0.04403672 0.14932498 0.13147587 -0.34808773
0.23068805 -0.15373701 -0.25444692 0.19038177 -0.24291411 -0.11537737 0.2104049 0.00014722612
-0.21562949 0.21459001 -0.06997181 -0.0019637665 -0.17156117 -0.19038156 -0.027628101 0.21945402
-0.017782483 0.033579294 -0.074524716 -0.017199272 -0.349637 0.24761602 -0.24758102 -0.14970468
0.19525965 -0.053111367 -0.27979785 0.100975044 -0.09641761 0.22261682 0.052862916 -0.27392635
-0.07599211 -0.29714248 -0.13002926 0.023998009 -0.06381309 0.18631671 -0.21765783 0.051174268
0.15085511 -0.08903688 -0.0014508335 -0.19344771 -0.10748281 0.26490748 -0.1885943 -0.12126139
0.08264971 0.21939546 0.24597272 0.13524303 0.20575929 -0.20612592 -0.10647088 0.03621319
-0.24545205 0.17141289 0.22443807 0.11350259 -0.05540824 -0.09304404 -0.084864765 0.035609186
0.21855359 -0.05178245 0.01946644 -0.14324933 0.1483898 -0.23457505 0.12133646 -0.20917727
-0.040884737 -0.107057005 0.08735727 -0.21581043 0.09139432 -0.094364546 -0.15762761 -0.09138179
-0.23661396 0.012191594 -0.23388985 0.11165491 0.10228804 0.08686474 -0.013848096 0.16106069
0.0313237 0.12485576 0.14859727 0.08006725 0.021215588 0.09669536 0.070953906 0.121652514
00000000: 101c 963c 70de c73d 8006 c4bd 964b 113e
00000010: 589d 43be 1807 14be 3830 6cbd 80bb 3bbc
00000020: 887e e6bd c020 44be da00 2b3e 10f5 1e3e
00000030: 6009 373c 5c04 2f3e 427d 1b3e cc79 e2bd
00000040: ea12 5a3e ac56 dfbd 9035 8bbd f536 573e
00000050: b7ee 443d 8a40 a0bd 74d5 9fbd a61a e03d
00000060: fda4 63bd 8115 96bc 000b 05bc 5481 1f3d
00000070: c551 f03d 2cd1 7abe bd98 843d 9921 4e3d
00000080: f1ba 81be 61e4 55be fd3e 8c3e 08de b9be
00000090: b7cb 5cbe 7d71 8d3e 406b 933a 1412 9fbd
000000a0: 475d cc3d 9c8a a43d 80ad 503c 83a0 193d
000000b0: 8f2e 373d 227c d83d 478a b6bd 6daf 9bbe
000000c0: df46 9abe caa5 e43d 2cbf b03c 897f 38be
000000d0: b060 7fbe 7b6b 5b3e 4ee5 babb b9f8 2fbe
000000e0: 61a5 143e 2a43 fc3d 944f 9e3d 247d 13bb
000000f0: a153 293e 43ba 27be 8cd6 ecbd f95f e8bd
00000100: 554f 42be 91d9 c4bc 5c90 8bbd 7500 8abe
00000110: cd2b a5be 0e95 633e cb23 c6be 1584 b3be
00000120: 8570 183e 6ffb 68be 16bb 38be 567b 36be
00000130: 7b05 393e 97c5 c93e e314 8ebe 3ae8 8cbe
00000140: ebbd 9dbe 46bc b2bd c90b 9d3e e949 983d
00000150: 20cf a1bd 4630 2f3e 9cf1 0e3e 2cdd 9cbe
00000160: 0f52 383e 09e7 13be 2202 74be dd30 26be
00000170: 1266 853e 8a1e 2b3e cea9 4cbe 2e3c 91be
00000180: 3041 8abe 1d43 aebe 0eb5 313d d486 92be
00000190: c28c 96bd 836a 8f3e 5ad1 bfbe 812e 76be
000001a0: b3f8 bc3d 7a1b 6e3e 8b49 99be 6b11 8dbe
000001b0: 8be3 9c3e e1c4 513e 4f47 6bbd 1e3c 363e
000001c0: 7c0e 6b3e 1867 003e b0b7 09bd 76b4 643e
000001d0: 18f2 1e3e 4c40 8abd b83f 75bd 8463 293e
000001e0: 00aa 133b 664e 02be e410 f83d 8200 0c3e
000001f0: e0f0 1f3e 380a d5bd 780d 183d 10a2 d93c
00000200: 3433 49bd c133 2c3e 7a09 04be db04 483e
00000210: f6d9 03be 958f 85be 06f1 e83d 268c 1dbe
00000220: 3fd9 433e eea1 2d3e e011 033e 8a09 0d3e
00000230: 625b 0e3e 0012 433d c778 4abe b49b 293e
00000240: 7772 6bbe db0e eabd 643a 123d aca5 7abd
00000250: f46a aabd a9b1 5f3e 4d74 39bd 485a 5939
00000260: 67d1 fcbb 651a cb3d 80c4 8fbe 2795 6abe
00000270: d95f 34bd a6e8 183e 9ca1 063e 8e38 b2be
00000280: 7d39 6c3e 3c6d 1dbe de46 82be 70f3 423e
00000290: 7abe 78be f84a ecbd 6274 573e b660 1a39
000002a0: facd 5cbe 7cbd 5b3e 614d 8fbd 89b2 00bb
000002b0: bbad 2fbe 62f3 42be 5454 e2bc 8eb8 603e
000002c0: 92ac 91bc 718a 093d 6aa0 98bd 7de5 8cbc
000002d0: 9f03 b3be 0e8f 7d3e e185 7dbe 2f4c 19be
000002e0: 25f2 473e 4e8b 59bd aa41 8fbe 01cc ce3d
000002f0: 9976 c5bd aaf5 633e c986 583d 1340 8cbe
00000300: c0a1 9bbd 0f23 98be 6426 05be 7997 c43c
00000310: 70b0 82bd cfc9 3e3e b2e1 5ebe 1c9c 513d
00000320: c379 1a3e f858 b6bd e529 beba 2817 46be
00000330: f31f dcbd f4a1 873e dd1e 41be e457 f8bd
00000340: 4044 a93d 34a9 603e 46e0 7b3e 267d 0a3e
00000350: 90b2 523e ac12 53be 680d dabd 4854 143d
00000360: c857 7bbe dc86 2f3e 18d3 653e 0c74 e83d
00000370: c0f3 62bd e08d bebd 94cd adbd f0da 113d
00000380: 83cc 5f3e d619 54bd 1578 9f3c f4af 12be
00000390: 7ff3 173e 7134 70be 407f f83d 9132 56be
000003a0: c176 27bd b440 dbbd 5ee8 b23d 69fd 5cbe
000003b0: f22c bb3d 3342 c1bd 2269 21be 6026 bbbd
000003c0: ee4a 72be 40bf 473c d280 6fbe 54ab e43d
000003d0: 647c d13d 24e6 b13d 20e3 62bc 18ed 243e
000003e0: 484d 003d 60b4 ff3d e229 183e 4cfa a33d
000003f0: 50cc ad3c 3808 c63d 4850 913d f424 f93d

pool.nn.layers.0.bias f4 [16]
0.13039058 0.0970917 -0.14523017 0.17459515 0.1407874 0.13768871 0.14727159 -0.006306201
0.027894411 0.09459677 0.102624275 0.15367958 0.037199184 -0.018760055 0.030713744 -0.13035631
00000000: 1c85 053e 03d8 c63d 38b7 14be 12c9 323e
00000010: 922a 103e 45fe 0c3e 5dce 163e 40a4 cebb
00000020: d282 e43c f4bb c13d ad2c d23d 2e5e 1d3e
00000030: 2c5e 183d b0ae 99bc 649b fb3c 207c 05be

pool.nn.layers.2.weight f4 [16, 16]
0.044848353 0.11265213 0.31770125 -0.025642976 0.29082358 -0.04762291 0.12805125 0.08824298
-0.17315763 0.3247763 0.22091627 0.030501597 -0.033358134 0.22933188 0.212343 -0.03613749
-0.04409477 -0.08565518 0.3411022 0.16976163 0.2757366 0.14566244 -0.04076534 -0.10046744
0.0051680203 0.035367634 0.18620637 0.25427243 0.13464771 0.15281609 -0.13653086 -0.17188689
-0.2043575 0.06264544 0.049011316 0.060000323 0.32716906 0.24659373 0.36487618 -0.19027212
-0.012107131 0.31721973 -0.09946908 0.39090973 0.29129186 -0.0425494 -0.20117755 -0.21948889
0.12297058 0.0019577679 0.0038586543 0.18251084 0.11598183 0.12468571 -0.038291994 0.07511461
0.015329019 0.22238778 -0.03570505 -0.1625744 0.13622376 0.19083667 0.06982923 -0.025232583
-0.20864129 -0.0059148776 0.23023994 -0.089008704 0.10651455 -0.091961384 0.1992193 -0.11885527
-0.13968755 -0.24243186 -0.2166772 -0.0012118581 -0.180822 -0.097403884 0.07811444 -0.12661377
-0.0153512955 -0.21675433 0.052696396 0.10685583 -0.16778666 0.094562754 0.025828619 0.11147091
-0.051003423 0.10259377 0.17107128 -0.04041963 0.13392465 -0.10060066 0.082159765 -0.18749797
0.13381279 0.16752738 0.13906448 -0.16352883 0.29545897 0.274766 0.15628286 -0.18573463
-0.11172319 0.03604267 -0.22634673 -0.10142274 0.036822196 0.24925444 0.18405642 -0.07942429
0.15077409 0.10839284 0.017856224 -0.11226503 -0.1362387 -0.26994112 0.0018131115 -0.12771326
-0.035193965 -0.030514516 0.16860725 0.0154530825 -0.3464995 -0.21891305 0.21538305 0.21720427
-0.094953746 0.2153053 -0.3296945 -0.048166003 0.1454658 -0.00884544 -0.22465745 -0.24799344
0.20577894 -0.31334168 0.05241697 -0.31497595 -0.29771549 -0.23328874 -0.18738371 0.028269023
0.17852268 -0.22786094 0.041961282 0.08375934 -0.013103891 -0.14818323 -0.023455232 -0.08484626
0.17922406 -0.13580745 0.22629043 -0.15514 0.12360595 -0.09286621 -0.2401361 -0.17136803
0.10094467 -0.1871901 0.19530869 0.23710339 0.20509134 0.058017217 0.15720508 -0.1963771
0.21507566 0.25811148 0.19930136 0.11572734 0.12642843 -0.24360943 -0.072714336 -0.22496775
0.044279426 0.013826974 0.21861088 -0.08796284 -0.27974367 0.08109674 0.12921023 -0.19861051
0.023341624 -0.10957601 -0.0083606765 -0.30419534 -0.0676342 0.15482628 0.16920045 -0.111881346
-0.15851414 -0.18986465 -0.039669268 -0.06391982 0.046028446 0.22515468 0.047884192 -0.0008634031
0.14528227 0.2549719 -0.111723274 0.1745569 -0.13980377 -0.012090534 0.19968088 0.049333304
-0.063340634 0.13102141 0.2613552 0.3121323 0.3005246 0.33795878 0.07793652 -0.10502988
-0.11048987 -0.0037720632 -0.19094957 0.26436263 0.004333816 -0.24593359 -0.083389975 -0.05615869
0.10257262 0.14809492 -0.14780821 0.05070492 0.13786514 -0.32381222 -0.24766974 0.16746575
0.06079937 0.0674745 -0.26365152 -0.21305844 -0.095017016 -0.16286975 -0.052340884 -0.04856512
0.13269666 -0.19271636 0.13881607 -0.12391693 0.10955348 -0.24622214 -0.26604477 0.07468322
-0.08567085 0.105344854 0.077592604 0.16815303 -0.14060076 0.010351688 -0.14680286 0.05470246
00000000: e8b2 373d 29b6 e63d bda9 a23e 3811 d2bc
00000010: d4e6 943e 3e10 43bd de1f 033e bcb8 b43d
00000020: 3c50 31be 1449 a63e e037 623e 7cde f93c
00000030: 8aa2 08bd fad5 6a3e 7270 593e e804 14bd
00000040: b89c 34bd fc6b afbd f3a4 ae3e fed5 2d3e
00000050: 592d 8d3e 8928 153e 8ff9 26bd e0c1 cdbd
00000060: 7f58 a93b a7dd 103d e2ac 3e3e ff2f 823e
00000070: 17e1 093e d27b 1c3e bfce 0bbe 1e03 30be
00000080: 1843 51be 414c 803d 17c0 483d e6c2 753d
00000090: b482 a73e 1183 7c3e 0dd1 ba3e b2d6 42be
000000a0: fd5c 46bc a06a a23e 72b6 cbbd 5225 c83e
000000b0: 3524 953e 4848 2ebd 7d01 4ebe b2c1 60be
000000c0: 00d8 fb3d e54d 003b 7ae1 7c3b 1fe4 3a3e
000000d0: e287 ed3d 395b ff3d 11d8 1cbd b0d5 993d
000000e0: 9126 7b3c 9fb9 633e 753f 12bd e779 26be
000000f0: 3e7e 0b3e b06a 433e a102 8f3d 90b4 cebc
00000100: 10a6 55be 97d1 c1bb 05c4 6b3e 324a b6bd
00000110: 4d24 da3d 4056 bcbd 2500 4c3e 646a f3bd
00000120: 410a 0fbe 0f40 78be a1e0 5dbe 36d7 9eba
00000130: 6729 39be b07b c7bd 77fa 9f3d 0aa7 01be
00000140: 0084 7bbc d9f4 5dbe 2dd8 573d 3bd7 da3d
00000150: 44d0 2bbe 1eaa c13d 8a96 d33c dc4a e43d
00000160: f7e8 50bd af1c d23d 4f2d 2f3e 0e8f 25bd
00000170: 8b23 093e b807 cebd 6143 a83d 78ff 3fbe
00000180: 3806 093e 4c8c 2b3e eb66 0e3e 1a74 27be
00000190: 6646 973e 21ae 8c3e 9d08 203e 3831 3ebe
000001a0: 21cf e4bd 7ba1 133d 70c7 67be bab6 cfbd
000001b0: dfd2 163d 8e3c 7f3e 4979 3c3e 34a9 a2bd
000001c0: 8664 1a3e 11fd dd3d 3747 923c 35eb e5bd
000001d0: 2882 0bbe b935 8abe eda5 ed3a 44c7 02be
000001e0: 8c27 10bd 94f9 f9bc 61a7 2c3e ed2e 7d3c
000001f0: 6268 b1be be2a 60be 608d 5c3e cc6a 5e3e
00000200: 1c77 c2bd fe78 5c3e b8cd a8be b749 45bd
00000210: fdf4 143e 77ec 10bc 9a0c 66be fef1 7dbe
00000220: b7b7 523e 526e a0be 2db3 563d 8744 a1be
00000230: 2a6e 98be 3ee3 6ebe 84e1 3fbe 7094 e73c
00000240: a6ce 363e 6154 69be 98df 2b3d 048a ab3d
00000250: b4b1 56bc 58bd 17be 3025 c0bc e0c3 adbd
00000260: 8386 373e 1c11 0bbe aeb8 673e 05dd 1ebe
00000270: 1e25 fd3d a430 bebd 3de6 75be 1a7b 2fbe
00000280: 14bc ce3d c3ae 3fbe 00ff 473e 3bcb 723e
00000290: 7703 523e 76a3 6d3d 5efa 203e 1417 49be
000002a0: cb3c 5c3e 3027 843e a815 4c3e 7502 ed3d
000002b0: 7476 013e c074 79be 41eb 94bd f25d 66be
000002c0: 585e 353d 888a 623c 88db 5f3e dd25 b4bd
000002d0: 903a 8fbe 0c16 a63d b04f 043e 8e60 4bbe
000002e0: ef36 bf3c 6369 e0bd 38fb 08bc 7ebf 9bbe
000002f0: cd83 8abd c88a 1e3e e242 2d3e 0c22 e5bd
00000300: 8851 22be e16b 42be 3e7c 22bd 65e8 82bd
00000310: 5388 3c3d f38e 663e 3722 443d 0056 62ba
00000320: e0c4 143e ad8b 823e 2ccf e4bd 0bbf 323e
00000330: b828 0fbe 6017 46bc 2579 4c3e b811 4a3d
00000340: bcb8 81bd 7a2a 063e 59d0 853e cecf 9f3e
00000350: 5cde 993e ef08 ad3e 2f9d 9f3d e819 d7bd
00000360: 8348 e2bd b834 77bb 4988 43be 8a5a 873e
00000370: af02 8e3b 04d6 7bbe 5dc8 aabd a806 66bd
00000380: 9811 d23d 32a6 173e 095b 17be f6af 4f3d
00000390: 852c 0d3e b7ca a5be 239d 7dbe 247c 2b3e
000003a0: c308 793d 1230 8a3d 55fd 86be fe2b 5abe
000003b0: 4898 c2bd 54c7 26be 6563 56bd 38ec 46bd
000003c0: a2e1 073e 7057 45be cd25 0e3e 29c8 fdbd
000003d0: 935d e03d a821 7cbe 0537 88be 84f3 983d
000003e0: 3374 afbd 0bbf d73d dfe8 9e3d 4f30 2c3e
000003f0: a5f9 0fbe 209a 293c 7d53 16be b00f 603d

pool.nn.layers.2.bias f4 [16]
0.18298413 0.15449174 0.27542832 0.2831165 -0.19342133 0.2752793 0.1443735 -0.25426197
-0.05839337 -0.11619812 -0.0049479576 -0.2994326 0.20902336 0.023734048 -0.15448233 -0.038425844
00000000: 3160 3b3e 1533 1e3e f104 8d3e a5f4 903e
00000010: 3e10 46be 69f1 8c3e a6d6 133e a02e 82be
00000020: e32d 6fbd 48f9 edbd 7a22 a2bb 3b4f 99be
00000030: 380a 563e e86d c23c 9e30 1ebe 6b64 1dbd
