models_spike/lolcat_head1_AD_HF01_1.pt (torch, 158942 bytes, 16 tensors)

encoder.layers.0.weight f4 [64, 499]
000000 20 c6 43 3e 48 a7 c6 3b 30 e6 0d 3e 1f d8 c6 3b
       0.19118547 0.006062422 0.13857341 0.006068244
000010 9e 4a 04 3e 11 4b 62 bb f3 c4 87 3d 18 81 ea 3d
       0.12919089 -0.0034529606 0.06629362 0.11450404
000020 ac 95 0f bd 97 af 21 3e de b1 f5 3a c0 79 28 bc
       -0.035054848 0.15789638 0.0018745025 -0.010282934
000030 e5 1a c9 bc cd 97 3d bc a2 35 e6 3c d0 e3 34 bd
       -0.024548957 -0.011571837 0.028101746 -0.04416257
000040 5f d2 61 3e 79 00 5a 3e ff a7 91 3d 0f da 09 3d
       0.22052906 0.21289243 0.07112121 0.033655223
000050 d6 7b a9 3b e4 d9 24 3e f3 81 53 3e b0 14 a7 3c
       0.005172233 0.16098744 0.2065504 0.020395607
000060 17 48 37 3e 6d da 56 3e b2 fa 65 3e a5 f1 9c 3d
       0.17898594 0.2098176 0.22458914 0.076632775
000070 4e 60 9d 3d 73 f7 1e 3c ea 36 90 3d df e5 14 3e
       0.07684384 0.009702551 0.07041724 0.14540814
000080 14 21 ce 3d b6 46 d6 3b 8b d0 23 3c 58 16 4c 3e
       0.10064903 0.006539191 0.009998451 0.19930398
000090 5e 36 a8 bd 8e c3 b5 3d 55 b0 32 3c 4a 44 0e 3e
       -0.08213495 0.0887519 0.010906299 0.13893238
0000a0 2e a6 5a 3d 23 42 fa bb 64 6d c6 bd fc c7 bc bd
       0.053381138 -0.0076372786 -0.09688833 -0.092178315
0000b0 c2 e6 34 bc c3 82 1d be a2 1d 59 3d b3 e9 92 3d
       -0.011041345 -0.15381913 0.053006776 0.07173481
0000c0 24 8b 01 bd ce c6 51 bd c4 cc 58 bc 58 32 44 3d
       -0.031626835 -0.051214986 -0.013232414 0.047899574
0000d0 87 66 8d bd e8 96 6d 3c 31 d0 fc 3c 0a 54 60 bd
       -0.06904321 0.014501311 0.030860992 -0.054767646
0000e0 a4 ef 98 bd 99 84 37 bd f2 63 67 bd d8 12 7c 3d
       -0.07467583 -0.04480419 -0.0564918 0.06154141
0000f0 c2 66 00 bd 54 25 8d 3d 9a e6 34 3a 39 8b 49 3e
       -0.031347997 0.068918854 0.00069008174 0.19682015
000100 c9 fc bf bc c3 a4 45 bc f8 0d 96 3d c0 e5 b4 3c
       -0.023435967 -0.012063208 0.07326883 0.02208221
000110 90 7a 65 3b 88 28 f6 3d c6 96 d9 3a 3a 1b 27 3d
       0.003501568 0.120194495 0.001660072 0.04079745
000120 d5 17 bb 3c ba 60 f5 bd 15 79 73 3d 23 e4 b8 bc
       0.022838512 -0.1198134 0.059441645 -0.022569722
000130 6d 9b 20 bd 3f 31 a2 bd 64 ef 4e 3c 1b dc 12 be
       -0.039210726 -0.07919549 0.012630317 -0.14341776
000140 33 6d 43 bc 72 17 f1 bc fb 7c 55 bd 98 19 04 bd
       -0.011927891 -0.029430125 -0.052121144 -0.03225097
000150 6c d5 a9 bd ee 14 e7 bc 6e a1 1a bd 6b b8 d0 bd
       -0.0829266 -0.028208222 -0.037751608 -0.10191425
000160 4f b0 4d bd b4 13 15 be 41 bd 3b 3d 86 ab 82 bd
       -0.05021697 -0.14558297 0.045834783 -0.06380372
000170 db 5f 80 3d e8 5c 70 bd 30 aa 07 be ab 48 9b bd
       0.06268283 -0.058682352 -0.13248515 -0.0758222
000180 85 93 c3 3c 57 a8 d0 bc 5f dd ca bd 6f 25 87 bc
       0.023874054 -0.025470896 -0.099055044 -0.016497342
000190 b2 34 a6 3d dc 6c ec bd 8a 9c d1 bc 68 0f b5 3d
       0.081155196 -0.11544201 -0.025587339 0.08840829
0001a0 fe 7b 91 3d 98 1d 13 be 34 5a f8 3a bc 60 7a bd
       0.07103728 -0.14366758 0.0018947781 -0.06112741
0001b0 ae e2 20 3d aa 8a 1c 3e 88 3c 3e 3c d0 9d 09 3e
       0.03927868 0.15287271 0.011611111 0.13439107
0001c0 98 9e 80 3c b4 c9 88 3b 7e ac 00 3e c5 96 52 3d
       0.015700623 0.0041744355 0.125658 0.051413316
0001d0 ec 7c 80 3d fd 12 ed 3d c4 9c 25 3e d6 99 ea 3d
       0.06273827 0.11575887 0.16173083 0.11455123
0001e0 73 89 c5 bc 30 91 56 3e 38 a8 8a bb 7e c6 b0 3d
       -0.024113392 0.20953822 -0.004231479 0.086316094
0001f0 b6 0e fb 3d 4d ff 0e 3e 3c c3 23 3d b5 a2 0e 3e
       0.12258665 0.13964577 0.039981112 0.13929255
000200 4c 29 cc 3d 29 4a 2b 3e 42 00 d4 3d d5 8b 08 3e
       0.09968814 0.16727509 0.10351612 0.13334592
000210 a9 6f 4c 3d 46 d0 c2 3d 55 80 cc 3d 4e d7 ad 3d
       0.049911175 0.09512381 0.09985415 0.08488332
000220 1f ba d5 3d 16 4c 0a 3d 2e 36 ae 3d 17 96 25 3d
       0.104358904 0.033763967 0.08506428 0.04042634
000230 f4 03 43 3b 1f f3 0e 3e ca e2 f4 ba c2 fc 59 3e
       0.0029756995 0.13959931 -0.0018683311 0.21287826
000240 14 50 24 3e 0d 25 ab 3d 8f 84 3b 3e 62 51 4e 3c
       0.16046172 0.08356676 0.18312286 0.012592645
000250 80 f4 46 3e 35 a2 0e 3e 56 bd c8 3d e5 06 08 3e
       0.19429207 0.13929065 0.09801738 0.1328388
000260 b1 ae d7 3b 8c 76 22 3e b1 01 2b 3e 19 f4 a5 3d
       0.006582104 0.15865535 0.16699864 0.081031986
000270 dc cb f9 3c 1d 95 b4 3d a1 dc e1 bd bc e6 d7 3d
       0.030492716 0.088175036 -0.1102841 0.10542056
000280 09 e9 74 3c bc 93 9d 3c 8d bb 88 3d 4e de 07 3d
       0.014948138 0.019235484 0.066763975 0.03317099
000290 00 5a 49 3d 22 c6 51 bc 33 8c 01 3e 2c d5 86 3d
       0.049158096 -0.012803586 0.12651138 0.06583628
0002a0 a6 d3 b2 3b 07 bd a2 bc 00 b2 a2 3d 42 28 6b 3d
       0.0054573594 -0.019865526 0.07944107 0.05741144
0002b0 ea 80 94 3d 87 3d 5c 3d 59 87 ad 3d 4b 16 4a bd
       0.07251151 0.053769615 0.08473081 -0.049337666
0002c0 54 76 d0 3c b8 ca e5 3c c7 67 29 3d cf e0 9e 3b
       0.025447048 0.028050765 0.041358735 0.0048485766
0002d0 9d 9a 16 bc 7c 64 3f 3d ee d7 b4 3c 81 05 20 3d
       -0.009192136 0.04672669 0.02207562 0.03906775
0002e0 c4 14 7f 3d 80 83 1d 3d fa 2f 68 3c eb 32 18 bd
       0.062275663 0.038455486 0.014171595 -0.037157934
0002f0 f8 fd ee bc 70 ff 14 3e 00 30 1f 3d 68 eb 7c bd
       -0.029173836 0.14550567 0.038864136 -0.06174794
000300 8a d9 c6 3d fd 72 07 3d 38 1a 9b 3d b6 97 29 3c
       0.09709461 0.033068646 0.0757336 0.010351112
000310 e5 3f da 3c 0b 12 8c 3d 3a 42 98 3d c8 4a cf 3d
       0.026641795 0.06839379 0.07434507 0.10121685
000320 34 5e 35 bd d5 8c c3 3d ab 48 ec bc f7 e3 a4 3c
       -0.044279292 0.09548346 -0.028843245 0.020128233
000330 f0 d6 c1 bc fa db b5 3d 2a 72 16 3e 87 72 28 bd
       -0.02366206 0.08879848 0.14691988 -0.041124847
000340 a8 41 e3 3d 9a b0 2a 3d 94 18 e6 3c 1b 4b af 3b
       0.11096507 0.041672327 0.028087892 0.0053495294
000350 50 e6 ad 3d 0e 18 45 3c f7 93 b6 3d 16 38 88 3d
       0.08491194 0.012029661 0.08914941 0.066513225
000360 27 1f e4 3c fe 63 77 bc a9 f4 9a bd 29 02 3a 3d
       0.027846886 -0.015099524 -0.075661965 0.045412216
000370 4a 83 8b bc 64 97 08 bd a8 23 0e bd fa 7b 67 bc
       -0.017030377 -0.033347502 -0.034701973 -0.014128679
000380 7d 94 9d 3c b6 dc 9e bd 42 57 65 bb 86 8f e3 3c
       0.019235844 -0.07756941 -0.0034994637 0.027778398
000390 bb 7c 21 bd 28 29 88 bd 13 b0 e0 bb 26 16 92 bd
       -0.039425593 -0.06648475 -0.006856927 -0.07133131
0003a0 ea f3 bb 3b 0a db 99 3c fd b0 b0 3d c5 ed c2 3c
       0.005735864 0.018781204 0.08627508 0.023795018
0003b0 8c b6 30 3e 2a be 0b 3d f6 dc a5 3c 29 33 a7 bd
       0.17257136 0.0341169 0.020246964 -0.08164055
0003c0 77 f9 65 3d 9d 0e b3 3d c1 38 34 3e d5 2f 6d 3d
       0.05614611 0.08743022 0.17599775 0.057906944
0003d0 98 3f dc 3d 23 08 b5 bc b3 ac 04 3d 3e 23 d1 3d
       0.10754317 -0.022098606 0.03239126 0.102118
0003e0 f7 08 d3 bc 79 4a b4 3d c4 b8 2c 3c a2 b3 f3 bb
       -0.02576111 0.08803267 0.010542098 -0.0074371854
0003f0 23 11 2d 3d 15 6f 0f bd 2f 10 d2 bd d7 a8 42 bd
       0.04225267 -0.035018045 -0.10256993 -0.0475243

encoder.layers.0.bias f4 [64]
000000 73 3a 61 3d 1f f0 12 3d 46 3c 43 bd 51 9e 51 3d
       0.054987382 0.03587353 -0.047664903 0.051176373
000010 92 ef 3c 3d d3 c5 08 3d fb f5 2b 3d d3 76 43 3c
       0.04612691 0.033391785 0.041982632 0.011930185
000020 42 de 44 3d 2e d6 f2 3c 19 48 ca 3c c1 69 0e 3d
       0.048063524 0.029643144 0.024692582 0.034768824
000030 b3 e8 18 3d 59 41 8b 3c 53 9c 2a 3d d7 0c a8 3c
       0.037331294 0.016998934 0.04165299 0.020513935
000040 95 09 2d 3d c9 ce 8d 3c 4d 24 25 3d 91 da 33 3d
       0.042245466 0.017310517 0.040317822 0.043909613
000050 05 39 88 3c 8f 2d c0 3c 2c 7b 06 3d 48 e5 d8 3c
       0.016628752 0.023459224 0.03283231 0.026476517
000060 42 24 98 3c f3 85 48 3d d8 a8 43 bd 17 34 d2 3c
       0.018571977 0.04895587 -0.047768444 0.025659604
000070 67 3f 85 3c 2e 49 4a bd b0 da 02 3d 6d 76 1b 3d
       0.016265584 -0.049386196 0.031946838 0.037954737
000080 9b 30 9d 3c 49 8c b9 3c 24 44 2f 3d 9c de 88 3d
       0.019188216 0.022649901 0.042789593 0.06683084
000090 f9 5a 28 bd e3 9c 4b 3d 38 38 27 bd 4e 16 22 3d
       -0.041102383 0.049710166 -0.0408251 0.039572053
0000a0 fa 97 4e 3d 25 03 38 3d 41 bb fc 3c 87 7c 33 bd
       0.050437905 0.044924874 0.030851008 -0.04381993
0000b0 9b 6e 49 3d ae d7 20 bd c7 d0 4d 3d 3d 6f 1b 3d
       0.049177747 -0.03926819 0.050247934 0.037947882
0000c0 1f 51 c4 3c f1 f5 9a 3c 23 e1 08 3c f7 a2 e5 3c
       0.023964463 0.018916102 0.008354458 0.02803181
0000d0 16 2e b8 3b 83 59 45 3d d1 48 90 3c 2d f2 a6 3c
       0.0056207282 0.04818107 0.017612847 0.02037915
0000e0 29 32 80 3c 79 b7 ed 3c 8b a1 33 bd 72 87 15 3d
       0.015648918 0.02901815 -0.04385523 0.036506124
0000f0 b4 43 d3 3c 12 bf 33 3d 94 5b 52 3d 1b 35 07 3d
       0.02578912 0.04388339 0.051356867 0.03300963

encoder.layers.2.weight f4 [32, 64]
000000 53 e6 4b bd 39 af c7 3c 65 9a 7d 3d 0c dd da 3b
       -0.0497802 0.024375545 0.06191482 0.006679183
000010 01 04 f0 bd 57 5c 81 3e 0c 83 0c 3e 87 fe e2 3d
       -0.11719514 0.25265762 0.13721865 0.110837035
000020 28 01 9f 3d c2 47 39 3e e0 0a ab 3c 6f ac 8e 3d
       0.077638924 0.1809378 0.020879209 0.06966483
000030 49 b7 63 3c f4 0b c0 3d 17 0f 88 be f9 99 d1 3d
       0.013898679 0.0937728 -0.26574013 0.10234446
000040 17 3a fe 3d 13 e4 79 3e 5d d2 6d 3d 8e 9c 90 3d
       0.124134235 0.2440341 0.058061946 0.070611104
000050 eb e5 14 3e 45 ac f0 3d 3f 95 0d 3e 64 5a 4d be
       0.14540832 0.11751608 0.13826464 -0.20054013
000060 03 63 65 3e cf 1e 21 bd 0f 3c 9c bd 13 47 9f 3d
       0.22401051 -0.039336022 -0.07628643 0.07777228
000070 8e 33 4a 3e db e1 9c 3d eb c9 ab bd d7 4d 1e 3e
       0.19746229 0.07660266 -0.08388122 0.15459381
000080 28 4a 6d 3e 14 25 52 3e 16 c3 2b bd 79 52 67 bd
       0.2317282 0.20521957 -0.041934095 -0.056475136
000090 55 d3 cf 3d 55 29 c2 3d 28 a0 a4 bd 4f 18 68 bd
       0.1014773 0.0948054 -0.0803836 -0.056663807
0000a0 b9 0d 43 be 77 93 0b be 90 2f 48 3e 54 2b 13 3d
       -0.19048204 -0.13630472 0.19549394 0.035929993
0000b0 64 35 f1 3d 00 b0 60 bb 9d 21 8c 3d af 30 d3 bc
       0.117777616 -0.0034284592 0.06842349 -0.02578005
0000c0 63 75 d0 3d 5a f4 39 3e de 11 a4 3e 90 c3 69 3e
       0.1017864 0.18159619 0.32044882 0.22828507
0000d0 cb ee 30 3e 25 5c 94 be 97 26 71 3e db f6 79 be
       0.17278592 -0.2897655 0.23549877 -0.24410574
0000e0 6c 3b 45 3e 64 41 81 be c4 56 03 3e b4 41 33 bb
       0.19260949 -0.25245202 0.12826067 -0.0027352395
0000f0 94 96 ff 3c 6f 7c b0 3d bc 82 0d bd 53 39 7f 3d
       0.031199731 0.08617484 -0.034548506 0.062310528
000100 bc 31 35 bd 08 45 03 3d 00 80 c6 3c c0 9c 34 3d
       -0.044236884 0.032048255 0.024230957 0.0440948
000110 20 af 99 3d ca 7c c4 3d 54 72 b7 bd 38 94 c4 bc
       0.075041056 0.09594114 -0.08957353 -0.023996457
000120 cc 7c 48 3d e2 31 f3 3d 66 75 cd 3d 8c a0 82 3d
       0.04894714 0.11874749 0.100321576 0.06378278
000130 b0 3f 15 3d 56 90 c2 3d b4 45 ce bd 0e 98 eb bd
       0.03643769 0.09500186 -0.100718886 -0.115036115
000140 b6 9f 91 3d 04 64 83 3d 78 64 da bd 08 17 36 3d
       0.071105406 0.06415561 -0.10663694 0.044455558
000150 a4 f2 3f 3d d0 13 3b bd f8 80 c9 bd c4 85 70 bd
       0.04686226 -0.04567319 -0.09839052 -0.05872132
000160 48 43 bc bc 74 a6 5c bd 64 72 68 bd 80 f6 8c bd
       -0.022981301 -0.05386968 -0.056749716 -0.06882954
000170 3c 8f 24 3d 48 18 37 3d e0 58 b1 3b 40 ec e4 3d
       0.04017566 0.04470089 0.005412206 0.111778736
000180 54 05 c9 bd 1c ce f3 3d 72 10 93 3d ac e6 54 bd
       -0.098154694 0.119045466 0.07180871 -0.0519778
000190 1e 4c 8e 3d ca f1 d4 bd 90 01 c8 bc 28 43 4f 3d
       0.06948112 -0.1039768 -0.024414808 0.050601155
0001a0 4c ba 7b 3d 04 46 d6 bd a8 c6 7b 3d 00 b2 04 3b
       0.061456963 -0.10462573 0.06146875 0.0020247698
0001b0 6c 20 56 3d 58 27 97 bd dc b8 92 3d 7c 6d c6 bd
       0.052277014 -0.07380551 0.071641654 -0.09688851
0001c0 2c 98 dd bd e4 a7 34 bd 64 25 34 3d ce 70 98 bd
       -0.1082004 -0.044105425 0.04398097 -0.07443391
0001d0 f4 06 8b bd b0 1a b3 bc 9c 91 13 bd 7c 0a 53 3d
       -0.067884356 -0.021863312 -0.036027536 0.05152367
0001e0 e8 95 a1 3d 3a c5 b5 bd ac 97 10 3d 4e 16 9d 3d
       0.078899205 -0.088755086 0.035300896 0.0767027
0001f0 30 b1 24 bd ec 82 0c bd f0 57 dc 3c d4 91 3f bd
       -0.04020804 -0.034304544 0.0268974 -0.046769932
000200 17 49 c4 bc 76 0b ae bd 75 ed fa 3d 18 bf b5 3c
       -0.023960633 -0.0849828 0.122523226 0.022185847
000210 47 da 9a 3e ee ad cd bd 3a 38 0c be 01 7f 37 be
       0.30244657 -0.1004294 -0.13693324 -0.17919542
000220 c4 81 04 be e2 a8 4e bc 50 cb 7a bd 7b aa 8c 3d
       -0.12940127 -0.012613507 -0.06122905 0.06868454
000230 4b 79 2b 3c a2 ae e4 bd 8e 9b 4c 3e cb 2b 96 bd
       0.01046593 -0.11166121 0.19981214 -0.073325716
000240 89 55 66 3d f0 3e 6a bd 7e f3 ec bd 3a cc 8f 3d
       0.056233916 -0.057188928 -0.1156988 0.07021375
000250 55 6b 82 3c 52 55 c0 bd 2d d2 bf bd 48 ca 83 3e
       0.01592032 -0.093912736 -0.0936626 0.25740266
000260 39 23 eb 3c b9 e2 5f 3e 6a d1 8e bd 59 25 a0 3d
       0.028703319 0.21863832 -0.06973536 0.078196235
000270 cc 02 68 be c0 5c a9 bd 53 03 94 3e 93 44 0e be
       -0.22657317 -0.08269644 0.28908786 -0.13893346
000280 d4 58 99 bd 3b ef 67 be ba 8d f0 bd a4 4e 81 bd
       -0.07487646 -0.22649853 -0.11745782 -0.06313828
000290 76 f1 9d 3d 0b ed f0 bd e6 92 a8 3d 29 f2 d6 3d
       0.07712071 -0.11763962 0.08231144 0.10495407
0002a0 77 be 6d 3e 14 ff 4c 3e b4 00 5b bd 4c 3a e2 3d
       0.23217188 0.2001918 -0.053467467 0.110462755
0002b0 2b 57 1b bd 1e 4f a6 bd 63 5c e8 bd fb 3d 83 3d
       -0.037924927 -0.08120559 -0.11345746 0.06408306
0002c0 f5 46 62 3b 28 ce f5 bd 49 9b bc bd 62 20 3d be
       0.0034527157 -0.12002212 -0.09209306 -0.18469384
0002d0 d7 05 d0 bd 76 70 88 3e 88 2a 5d be e3 ed 41 3e
       -0.10157364 0.266483 -0.21598256 0.18938403
0002e0 b8 da cd bc 80 c4 5d 3e 04 00 de bd bb a5 48 3c
       -0.025128707 0.2165699 -0.10839847 0.0122465445
0002f0 ab 4f 35 bc 52 8b c3 3d 4c 76 7b 3c ae f0 a8 3d
       -0.011066358 0.095480576 0.015348028 0.08249031
000300 0d c8 36 3e b1 32 23 3e ab 70 fd 3d 4f a0 04 3e
       0.17849751 0.15937306 0.12375005 0.12951778
000310 4b 10 3a be 32 38 33 3e 45 c7 3d 3e 6a af 92 3e
       -0.18170278 0.17501906 0.18533047 0.28649455
000320 d6 2f 4d 3e 3c a9 6e 3e 15 f9 80 3e 09 f6 2e 3e
       0.20037779 0.23306745 0.25190035 0.17086042
000330 53 d8 8b 3d 20 07 07 3e 23 ff 7f be f5 42 7e 3e
       0.0682837 0.13186312 -0.2499967 0.2483023
000340 bc a9 63 3d b5 8c cf 3d db 60 d9 3d 01 f7 b3 3c
       0.055581793 0.101342596 0.10614177 0.021968367
000350 80 7f 65 3e 80 f6 85 3d 65 3e db 3d 47 6a 9e be
       0.22411919 0.06541157 0.1070526 -0.30940458
000360 61 8d 24 3e 30 a7 a8 bd a2 32 ef 3d 7d 3e 70 3e
       0.16069557 -0.082350135 0.11679579 0.23461337
000370 1a c9 8a 3e 63 5d 93 bc b0 1f 0e be 4e 7e d2 3d
       0.27106553 -0.017988866 -0.13879275 0.10277997
000380 79 b9 75 3e ed 0d 2a 3d f5 f4 58 3e f2 a5 61 3d
       0.23996533 0.041517187 0.21187194 0.0550899
000390 73 c1 96 bc 03 87 3c 3e e3 5f 51 bb e5 2a db bd
       -0.01840279 0.18410878 -0.0031948022 -0.10701541
0003a0 e3 92 28 be fa 98 91 be 12 ab 32 3e aa c1 b8 3d
       -0.16462283 -0.28437024 0.1744807 0.090213135
0003b0 3e 3f 7e 3d f0 3c b6 3c a5 83 aa 3d 4e 8f fc 3d
       0.06207203 0.022245854 0.083258905 0.12332021
0003c0 43 31 cd 3d b9 87 ea 3d 92 93 34 3e 7a 74 55 3e
       0.100191616 0.11451668 0.17634419 0.20845214
0003d0 2a 06 65 3e 4a 3c 76 be f1 63 42 3e 5b 8e 67 be
       0.22365633 -0.24046436 0.18983437 -0.22612898
0003e0 9f 67 2f bb 88 1f 6b be 06 09 a7 bb 9f 8b 62 3e
       -0.0026764644 -0.22961247 -0.005097511 0.22123574
0003f0 3e ca 18 3e c3 ab db 3d 10 b6 31 3d 60 ce 53 3e
       0.149209 0.1072612 0.04338652 0.20684195

encoder.layers.2.bias f4 [32]
000000 91 20 88 3d 18 30 bc bd d9 57 8d 3d 93 31 89 3d
       0.066468365 -0.09188861 0.06901521 0.06698909
000010 21 ca 0a 3e f8 31 e5 bd 2c a8 c9 bd 17 08 df bd
       0.13553669 -0.111911714 -0.09846529 -0.10890215
000020 23 a0 18 3d 7b 03 cd 3d c4 0b a3 bd 20 36 21 bd
       0.037262093 0.100104295 -0.079612285 -0.03935826
000030 cb 6e af 3d ce 91 16 3e 6c 35 9c 3d dc bc e7 bd
       0.08566054 0.14704058 0.07627377 -0.11315319
000040 bc 86 a9 bd db 0b 28 bd a7 1b 9a 3d 12 12 00 3e
       -0.08277652 -0.04102693 0.075248055 0.12506893
000050 7c 84 bc bd be 6b b3 bd 4c f8 ae 3d 78 aa e5 3d
       -0.09204957 -0.087607846 0.085434526 0.11214155
000060 39 95 ad 3d 0f 64 0e bc fe 4d d8 bd e6 7d b4 3d
       0.084757276 -0.008690848 -0.10561751 0.08813076
000070 e0 69 1f 3e b5 fb 21 3d 98 12 07 bd 97 cd 8f 3d
       0.15567732 0.039546687 -0.032976717 0.07021635

encoder.layers.4.weight f4 [16, 32]
000000 bc 27 4a 3d 68 6b ef bd f1 16 a0 3e 26 ac 81 bc
       0.0493543 -0.11690408 0.31267503 -0.015829157
000010 3e 71 0d be 44 2b 20 bd 01 18 d3 bd 24 0e 12 3e
       -0.1381273 -0.03910376 -0.10307313 0.14263207
000020 e2 73 e7 bd c9 1e 63 3e 0a a7 ec bd 32 0c 34 be
       -0.113014 0.22179712 -0.11555298 -0.17582777
000030 da 8c 96 3d 75 e3 41 bd 54 5d 1d be 1a aa 4a 3c
       0.07351084 -0.04733606 -0.15367633 0.012369657
000040 1a 84 10 3e c2 5c ef bc 58 b3 6a 3e 83 17 d3 bd
       0.14112893 -0.029219035 0.22919977 -0.10307219
000050 9e 17 d3 bc 95 71 86 3d cc 6f fe bd 3a 15 87 3e
       -0.025768097 0.06564633 -0.12423667 0.26383382
000060 f8 9b 5e be d6 d0 5f be c0 e3 fb 3d ae 8f e3 bd
       -0.21739185 -0.21857008 0.12299299 -0.11111389
000070 f8 f8 90 3e db 21 8f 3e c7 ee cb 3d 7a ee 70 be
       0.28314948 0.27955517 0.099576525 -0.23528472
000080 93 0d d1 3d 41 57 7e 3d fd 94 a2 be 3d c0 a4 bd
       0.10207667 0.06209493 -0.31754294 -0.08044479
000090 ef ad 5a 3e 0e e6 a4 3c 3a cd 13 be 8e 80 f1 3b
       0.21355413 0.02012923 -0.14433756 0.0073700612
0000a0 a3 51 35 3e d6 fb 78 be 57 da 07 38 6d 89 f3 bb
       0.17706923 -0.24314818 3.2389853e-05 -0.007432154
0000b0 92 3a 95 bd d1 46 93 3d 31 39 02 3e 3e d0 b3 bd
       -0.07286562 0.071912415 0.1271713 -0.087799534
0000c0 86 0f 65 3d 66 43 36 3c 29 e6 b2 3d 0f 4b 30 3e
       0.055923007 0.0111244675 0.08735306 0.17216133
0000d0 a3 46 e9 3d 06 28 b6 3d 6a 24 83 3e d1 d4 0c be
       0.11390426 0.088943526 0.2561372 -0.13753058
0000e0 40 e6 21 bd a5 09 d2 3d 04 3c a0 3d 37 72 ed 3d
       -0.039526224 0.10255746 0.07823947 0.115940504
0000f0 1a bf 59 3d 70 b6 de bd 5d dd 47 3d ef f6 36 3e
       0.053160764 -0.10874641 0.048795093 0.17867635
000100 18 09 47 bc f8 a3 81 3c 4c 2c 7a 3d 61 25 3e be
       -0.012148164 0.015825257 0.0610774 -0.18568946
000110 96 a1 f3 bd c6 14 e1 bd f1 53 26 3e ad cd 23 3d
       -0.118960544 -0.1099029 0.16242959 0.03999107
000120 b5 e6 45 bd 9a 32 fa 3d df 7d 38 3c 77 95 20 bd
       -0.048315722 0.12216683 0.011260479 -0.03920504
000130 f1 73 7c 3e 5a 55 4f 3d d8 94 d1 bb 31 d6 31 3e
       0.24653603 0.050618507 -0.0063959174 0.17366864
000140 64 1b 22 bd da 55 89 bc ab 56 0d bd 61 4d a5 3c
       -0.039576903 -0.01676457 -0.03450648 0.020178499
000150 81 fd 34 be 2b 89 1e 3e fb 59 6f be f0 0c 1b 3e
       -0.17674829 0.15482013 -0.23374169 0.15141654
000160 c8 ac 82 be 07 79 3a be b3 96 2e 3e a2 8a 35 be
       -0.25522447 -0.18210231 0.17049675 -0.17728665
000170 14 27 87 3e 9d 57 3e 3e 27 b8 68 bd 64 f5 55 be
       0.26397002 0.1858811 -0.056816246 -0.2089439
000180 76 a0 0f 3e 14 ba 20 3d 12 cd 8c be 02 68 24 3e
       0.14026055 0.039239958 -0.27500206 0.16055301
000190 b6 2a 3d bc 5c d9 26 3d b1 c5 9c 3d 41 48 a9 bc
       -0.011545828 0.040734634 0.07654894 -0.020664336
0001a0 21 0f a2 bd 4e c7 58 be 9e 5f 13 3e 23 51 be bd
       -0.07913042 -0.21169779 0.14391944 -0.09292819
0001b0 c4 4a 5d be 07 ac 1c 3e 25 85 36 3c 37 d0 da bd
       -0.21610552 0.15299998 0.011140143 -0.10684245
0001c0 e2 91 c0 bd fb da 0c 3e 5c 36 15 be a7 62 20 3e
       -0.09402825 0.1375541 -0.14571518 0.15662633
0001d0 55 69 a1 3c d2 3c c0 3c 89 79 43 3e dd ff 36 be
       0.019703547 0.023466501 0.1908933 -0.17871042
0001e0 8c 38 88 3d be da a1 3e 45 7c 0c bd 79 37 0f bc
       0.066514105 0.316122 -0.0342982 -0.008741253
0001f0 03 9b 6b be bc ef 18 3d d9 56 b4 bd 84 85 4a 3e
       -0.23008351 0.037338004 -0.088056274 0.19777495
000200 54 81 b5 bc 93 3c b2 3d 21 f8 ac be 65 32 28 bd
       -0.022156395 0.0870296 -0.33783057 -0.041063685
000210 72 31 35 bd 9b 2d f9 3d c7 a2 1b 3e 03 db 1d 3e
       -0.044236608 0.12166902 0.15198813 0.15415578
000220 45 c3 af bd b4 5f 1b be 08 b1 4c bc ad d8 3f 3d
       -0.085821666 -0.15173227 -0.012493379 0.046837498
000230 42 e1 51 be 54 92 43 3e 49 7e 8a 3e 5e cb 19 3e
       -0.20496085 0.19098788 0.27049473 0.15018985
000240 d9 65 a6 3d ea 32 8f bb d8 80 af 3d 0d 86 3d 3e
       0.08124895 -0.004370083 0.08569497 0.18508168
000250 a1 f8 bf 3a 16 00 ad 3d 2f a8 38 bc f4 d9 fa bd
       0.0014646241 0.08447282 -0.011270567 -0.122486025
000260 d7 c6 a8 3c 0b 58 64 3e 83 cf 09 3e d6 10 fd bb
       0.020602627 0.2229921 0.13458066 -0.0077229543
000270 d9 9d 8d bd af 3a 1a be 74 71 98 bd 18 eb 48 3e
       -0.06914873 -0.15061449 -0.074435145 0.19620931
000280 94 3c 07 be 6a c1 ad bd 34 0e 9f 3e bc 8b 52 bd
       -0.13206702 -0.084841564 0.31065524 -0.051402792
000290 34 42 1f bd a3 f4 e3 bb c1 14 34 3d 1f 46 0e bd
       -0.038881496 -0.006956653 0.043965105 -0.03473484
0002a0 2f dd 4d be e5 89 84 3d 1f 9f 5b bd 8d f8 0a 3d
       -0.20103906 0.06471614 -0.053618547 0.033928443
0002b0 d3 75 18 3d d0 75 bd 3d 54 15 17 be 2c 4b 03 3e
       0.03722174 0.092509866 -0.1475423 0.12821645
0002c0 40 78 d3 3d 48 dd 12 3e 2e 74 73 3e ac 3c 6d be
       0.1032567 0.14342225 0.23774788 -0.23167676
0002d0 a6 e7 a1 bd 9e d1 10 be db 27 a6 3c b2 f0 a3 3d
       -0.079055116 -0.14142463 0.020282676 0.08004893
0002e0 96 ff 81 be 78 34 6d be 11 d1 33 be e7 91 8a bc
       -0.2539031 -0.23164546 -0.17560221 -0.016915275
0002f0 1b bc 7a 3e ac 52 7b 3e 26 5f 20 3c 95 ad f6 bd
       0.24485819 0.24543256 0.00978831 -0.12044827
000300 e5 de a2 3d 01 0b 1c 3d ba 57 8d be bf ac 81 3e
       0.0795267 0.03809643 -0.27605993 0.25327107
000310 58 67 02 bd 22 c8 f0 3d 9a 68 e4 3c 6c b8 dd bd
       -0.031836838 0.11756922 0.02788191 -0.10826191
000320 28 fa ed 3d 2a 72 c3 bd e8 41 2f 3e 3b c2 5b bd
       0.11619979 -0.095432594 0.17114985 -0.05365203
000330 d7 44 76 bd cf 0d 14 3e 72 31 db 3c 8b 53 e0 bd
       -0.060124245 0.14458393 0.026756976 -0.109534346
000340 f6 9e cb 3d 94 7a 9c bd db a3 e0 bc 6c c3 7f 3e
       0.09942429 -0.076405674 -0.027421882 0.24976891
000350 91 ca 02 be a7 46 55 bd f2 52 48 3e 2c 07 47 3c
       -0.12772585 -0.052069332 0.19562891 0.012147706
000360 df 09 51 bd 5e 50 dc 3c 1e dd 6d 3d 91 29 93 3d
       -0.051034804 0.02689379 0.058072202 0.071856625
000370 d7 72 be 3d 6f f2 7b be f0 9c 30 3c e0 21 89 3e
       0.09299248 -0.246042 0.010779604 0.26783657
000380 29 de 0d be f7 f4 83 3c 18 2f 00 bd 40 03 1b be
       -0.13854279 0.01610802 -0.031294912 -0.15137959
000390 f9 97 53 3d 4b 74 d1 3d 8f 0d ed bd 21 ef 34 bd
       0.051658604 0.10227259 -0.11574852 -0.044173364
0003a0 1d 91 97 bd 29 82 dd bd 25 51 0c 3e 66 4d 02 3e
       -0.07400725 -0.10815842 0.13702829 0.12724838
0003b0 5a 9f f9 bd 0a 16 bc 3d d7 55 02 3e 14 4d 08 be
       -0.12188597 0.09183891 0.12728058 -0.13310653
0003c0 ce 58 31 be 9d 6f b5 3c 73 16 0a bd 93 3b d2 bd
       -0.17319033 0.022147948 -0.033712815 -0.10265269
0003d0 cd fd de bd 66 a4 f7 3d 9c 66 aa 3d fe dd bd bd
       -0.108882524 0.120919034 0.083203524 -0.09270857
0003e0 c8 c0 74 bd b7 28 3d be c7 2a 1b 3e 55 23 03 be
       -0.059754163 -0.18472563 0.15153037 -0.12806447
0003f0 0a 7c fa bd e0 b2 b9 bd 3a f5 47 3d 8c 15 7f bb
       -0.1223069 -0.09067321 0.04881785 -0.0038922755

encoder.layers.4.bias f4 [16]
000000 65 e2 fb 3c b0 12 2a 3d b7 f4 0b 3e c8 db 5d 3d
       0.030747602 0.041521728 0.1366757 0.054164678
000010 02 12 94 bd 27 85 3f be 09 4a e7 3d de fa 63 3d
       -0.07229997 -0.18703137 0.11293418 0.055659167
000020 cc b7 7e bd f9 57 53 3e 74 4b 21 3e 1c e4 8a 3d
       -0.062187 0.20639028 0.1575144 0.0678179
000030 e8 65 29 be e1 9b 0f bd f1 20 29 bc 29 f4 23 3e
       -0.1654278 -0.035060767 -0.010322795 0.16011108

classifier.layers.0.weight f4 [16, 160]
000000 57 75 25 bc 89 10 ea 3c 14 40 7f bd 9f 3f b7 bd
       -0.010098777 0.028572338 -0.06231697 -0.08947682
000010 d4 e0 15 bd a3 cc 0f bd 6c 68 39 3d 13 29 68 3d
       -0.036591366 -0.035107266 0.0452656 0.056679796
000020 2b a4 12 bc 9f cb ab bc 5a d7 42 bb bc 9a 83 bd
       -0.0089502735 -0.020971118 -0.002973041 -0.064259976
000030 56 42 c7 3b 99 03 37 bd 8f fc 4e bd 00 60 69 3d
       0.006080906 -0.044681165 -0.050533827 0.05697632
000040 29 8e 3c 3d 87 1d 6f bc a2 25 3f bd 9d e9 ce 3c
       0.046034012 -0.014594442 -0.04666675 0.02525788
000050 a1 1d 64 bd 8c 44 a9 bc d9 75 72 3c ee da af 3d
       -0.05569232 -0.020662569 0.014798605 0.085866794
000060 83 aa 50 bd e8 c8 9c bc f0 37 1a bd 06 19 9f 3b
       -0.050943863 -0.019138768 -0.037651002 0.004855278
000070 47 e8 7d 3d a5 46 91 bd a4 4d b6 bd c1 29 b9 3c
       0.061989095 -0.070935525 -0.089015275 0.022602918
000080 ca 3e 3f 3d 24 c0 b1 3d 0b bb 18 bd 29 d9 d0 3c
       0.04669074 0.08679226 -0.037287753 0.025494175
000090 ad fd 04 bc 53 24 15 3d 3d 8b 2c 3d f4 13 07 3d
       -0.008117122 0.036411595 0.042124975 0.032978013
0000a0 5b d8 18 3d 40 e6 01 3d 3c 35 b1 bd 94 5b fc 3c
       0.037315708 0.031713724 -0.08652732 0.030805387
0000b0 cf 81 eb bc b4 4e f8 3b 90 92 04 3c a8 73 b9 3b
       -0.028748421 0.0075777415 0.008091584 0.0056595393
0000c0 38 83 27 bc d7 23 2f 3d 36 b6 85 3d 8e 05 92 3c
       -0.010224156 0.04275879 0.065288946 0.017824914
0000d0 07 3b fd bc ff 0e d0 3c 72 81 b6 bd 93 6d 3c bd
       -0.030911935 0.025397776 -0.089114085 -0.046002936
0000e0 b8 b8 97 bd f5 48 09 bd 0a 89 83 bb 07 56 5f 3d
       -0.07408279 -0.033516843 -0.004014139 0.0545254
0000f0 4e 69 32 3c 03 52 f5 bc 06 d4 92 bd 45 b3 91 3d
       0.010889364 -0.029946333 -0.071693465 0.07114271
000100 8a 3a 80 3b c8 82 03 bd 29 34 7d bd 57 a3 62 bd
       0.0039132284 -0.032107145 -0.061817322 -0.055331554
000110 2f a5 73 3d 4b 0c 8e 3c e6 b5 69 3c e5 30 8b 3c
       0.059483703 0.017339846 0.014264559 0.016991088
000120 9e 7f 9c bb 2c a7 0b bd d1 f2 e3 3c d6 72 89 3c
       -0.0047759553 -0.034094974 0.027825745 0.01677839
000130 14 6d a4 3d 20 89 1d 3d 6f a8 5d bd a1 30 42 bc
       0.080286175 0.03846085 -0.05411571 -0.011852414
000140 0f b3 61 3d 9d 15 1b bd 2f b8 2c 3d f8 d7 6b bd
       0.055102404 -0.03786241 0.04216784 -0.05757901
000150 c1 2a 1a 3d 8f 04 b0 bd d4 97 a6 bc c8 ea a1 bc
       0.03763843 -0.085946195 -0.02033607 -0.019765273
000160 04 ad 85 3d 47 30 a1 ba 07 1e 59 3d f8 18 0d 3d
       0.06527141 -0.0012297713 0.053007152 0.03444764
000170 f4 4d 46 bd df a8 77 bd 49 e7 2b bd ad a0 15 bd
       -0.048414186 -0.060463782 -0.041968618 -0.036530185
000180 ce b7 c0 3c 61 22 38 3d a7 4e a6 bd 3c 2f 10 3d
       0.023525145 0.04495466 -0.081204705 0.035201296
000190 cc 7f 08 3d a1 57 b5 3b 19 20 4a bd 5a 35 b8 bc
       0.033325 0.005534128 -0.049347017 -0.022486378
0001a0 bf d4 c7 3c 3b 2e 5e bd fe af fc 3c 4b d5 b6 bd
       0.024393437 -0.054243308 0.030845638 -0.08927401
0001b0 09 75 57 bd 80 96 0a 3d ac 78 8e 3c 72 e8 46 3a
       -0.052601848 0.033834934 0.017391525 0.00075877376
0001c0 10 7d 18 3d 22 5c da bb 54 40 62 3d 16 7a be bc
       0.037228644 -0.006663815 0.05523713 -0.023251574
0001d0 cd 46 3d 3d 5d 3b 0f bd bd 21 a7 bd d3 29 f1 3c
       0.0462101 -0.034968723 -0.08160732 0.029438889
0001e0 11 97 1b 3d 8b b0 24 3d 11 3a 9d 3c c8 2d 6d 3d
       0.037985865 0.040207427 0.019192727 0.05790499
0001f0 2f df b6 3d 08 9b 97 bc f5 8d 8b 3c ae 1c 4e bd
       0.08929288 -0.018506542 0.017035464 -0.05032032
000200 17 93 85 3d 84 41 69 3b d0 88 b3 bd 5b ad d8 bb
       0.06522196 0.003559203 -0.08766329 -0.0066124625
000210 3a 11 a2 bc 79 ed bc bc 40 58 83 bd fd c4 20 3d
       -0.019783605 -0.023062455 -0.06413317 0.039250363
000220 25 3e d1 3c 74 bb 45 bd 0b 27 3d bd d5 04 69 bc
       0.025542328 -0.048274472 -0.046179812 -0.014222343
000230 c8 83 08 bd fd a9 3e bd 73 70 3c 3d 67 5d 3d ba
       -0.0333288 -0.046548832 0.046005677 -0.0007223696
000240 ed 77 80 bd ae 39 1d ba 55 21 58 3d 44 9b a0 bd
       -0.06272874 -0.00059976697 0.052766163 -0.078421146
000250 44 ce 46 bd df 94 1c bd 0c 58 a1 bd 97 45 f1 3c
       -0.048536554 -0.038227912 -0.07878122 0.029452128
000260 20 7a e0 bc ae 3e 96 bd 4e ae 97 bd e3 28 8a bc
       -0.027401984 -0.07336174 -0.07406293 -0.0168652
000270 88 46 2e 3d 8f f7 3e 3c 74 5e a6 bd 0a 68 7f bd
       0.042547733 0.011655702 -0.08123484 -0.06235508
000280 49 ac 99 bd a8 68 c7 bd 17 89 9f 3d 3b 7a 2b 3d
       -0.07503564 -0.097367585 0.0778982 0.041864615
000290 20 18 b9 bd 14 24 bd 3d a6 fc bf 3d 6a 60 f9 bc
       -0.090378046 0.09235397 0.09374361 -0.030441482
0002a0 6e 00 b8 3d 41 5f 07 3e 5d b8 01 3d 71 16 19 3e
       0.08984457 0.1321993 0.031669963 0.14949967
0002b0 2a de a2 3c be 8f 25 3d 88 a9 0a 3e 25 3f b3 bd
       0.019881327 0.040420286 0.13541234 -0.08752278
0002c0 89 5c f0 bd 5b 91 6e bc be bb 53 3d 9a 2d 08 3d
       -0.117364 -0.014561023 0.051692717 0.033246614
0002d0 06 a3 1e bc f1 10 c0 3d ac 82 a6 3c 25 2d 29 bd
       -0.0096824225 0.09378231 0.020325981 -0.04130282
0002e0 3f 61 11 3e d0 71 bb 3d ce 2b 25 3d cd fd e6 3d
       0.14197253 0.091525674 0.04032498 0.112788774
0002f0 99 81 4f bd 72 90 8a 3c 01 af 0c 3d 75 28 a8 bd
       -0.050660703 0.01691458 0.034346584 -0.082108416
000300 38 50 9c bc 6b 28 cd 3c b7 ee 27 bd dd 4f 35 3d
       -0.01908122 0.025043687 -0.04099914 0.044265617
000310 e6 21 a1 bd 72 4e a4 3c 0a 2c 68 3d 58 f5 2a 3d
       -0.07867794 0.020056937 0.056682624 0.041737884
000320 65 b2 10 3b af 94 06 3d af 49 c4 3d f2 aa df 3d
       0.0022078988 0.03285664 0.095843665 0.10921277
000330 d0 40 b5 bc 1b f6 fb 3d a1 61 c5 3d 49 68 6e bc
       -0.022125632 0.123028 0.09637762 -0.014551231
000340 04 cc ed bd eb fd 8a bd 5d 47 79 bd 3b a3 0a 3d
       -0.116111785 -0.06786712 -0.060859073 0.033847075
000350 2c 09 35 bd cc e6 17 3d ac bc b5 ba c0 72 21 bb
       -0.0441982 0.03708534 -0.0013865433 -0.0024635047
000360 46 fa 24 3d cb ca d7 3d 49 27 e9 3d e2 43 a6 bc
       0.04027774 0.105367266 0.11384446 -0.02029604
000370 7d 3f bc bd b7 c3 26 3d dd 58 06 3d 0a 0f e2 bd
       -0.09191797 0.040713992 0.03279959 -0.11038025
000380 0c ed e7 bd 38 f8 56 bc 01 dd 8b 3d f6 6e ec 3c
       -0.1132451 -0.013120703 0.068292625 0.028861504
000390 af e3 06 bd 79 4b 29 3d 22 0c af 3c 80 0e b9 bc
       -0.03293198 0.041331742 0.02136809 -0.022589922
0003a0 a3 e3 d5 3c 30 fb 49 3d 48 82 e6 3d e8 04 bf 3c
       0.026109522 0.049311817 0.11255318 0.02331777
0003b0 ff 3a 83 3d e6 ba d3 3d 76 ae 54 3c 56 38 0e 3d
       0.06407737 0.103383824 0.012981048 0.034721695
0003c0 62 29 41 bd cc af 14 3d 5f f5 84 3c ca 5a d3 bb
       -0.047158606 0.036300465 0.016230283 -0.006450032
0003d0 5a fc 31 bd 2e 4e fb 3d 79 98 a3 3d 5a e6 c5 bc
       -0.04345355 0.12270771 0.07988066 -0.024157692
0003e0 df c1 86 3d d7 64 07 3e f4 5b 2d 3d b5 b0 05 3d
       0.06579947 0.13222061 0.04232402 0.032639224
0003f0 40 65 6d bd dd 3a b5 bb b8 a0 6b bb d1 4f 1a bd
       -0.057957888 -0.0055306987 -0.003595395 -0.037673775

classifier.layers.0.bias f4 [16]
000000 75 14 40 3c ea 60 44 3d ba 1b fd 3c 4e 5e 8c 3d
       0.011723627 0.047943987 0.03089701 0.06853925
000010 94 dd 26 bd b4 31 81 bd 28 40 4a 3c d6 1f 22 bd
       -0.040738657 -0.06308308 0.012344398 -0.039581142
000020 1e 6c 26 bd 1e d2 ce 3d 92 c1 79 bd c5 ba 99 3b
       -0.040630452 0.100986704 -0.06097562 0.004691454
000030 f2 0e e7 b9 9e 74 f1 bb 9a 2b b0 bd 53 d2 01 bd
       -0.00044070889 -0.007368638 -0.08602066 -0.03169472

classifier.layers.2.weight f4 [5, 16]
000000 f8 53 6e be ea 3e 64 3d 45 0f 3d 3e 11 c4 5f 3d
       -0.23274219 0.055724062 0.18462856 0.054630343
000010 e0 47 97 bd ef a6 0a bd 6b f5 df bd cf 7e 4c 3e
       -0.07386756 -0.033850607 -0.10935482 0.19970249
000020 7a aa 37 3e 40 40 2e 3d b8 11 52 bb c0 0e 36 3d
       0.17936125 0.042541742 -0.0032054018 0.04444766
000030 8d 67 1d be a0 14 f7 3d 99 bf 9f bd 10 2e 54 be
       -0.15371533 0.12064481 -0.07800216 -0.20720696
000040 0d a0 f2 bc ac be 17 be 54 66 71 3e df 1c 1b 3d
       -0.029617334 -0.1481883 0.23574191 0.03786933
000050 a4 1e 9b bd 2b 58 27 3d 71 bf 39 be 71 61 4d 3e
       -0.075742036 0.040855568 -0.18139435 0.20056702
000060 07 07 43 3e a7 59 bc bd 94 58 1f 3e 9f ee c9 be
       0.1904565 -0.09196787 0.15561134 -0.39439866
000070 94 bd 13 3d 81 b6 27 be f4 c2 b1 bc 46 97 42 bd
       0.036069468 -0.16378213 -0.021699406 -0.047507547
000080 06 5d 05 3e cf 30 c9 3c 8a 45 10 3b 5b 2a 03 be
       0.13023767 0.024559407 0.0022014105 -0.12809126
000090 78 98 fc 3d 93 ae e2 3d 04 cf ab bd e7 84 50 bd
       0.123337686 0.11068454 -0.083890945 -0.050907996
0000a0 ab d5 df 3c d2 25 a0 3c ea 50 bd 3d 5e 0e 42 be
       0.027323565 0.019549284 0.09243949 -0.18950793
0000b0 42 bc 64 3e 80 a9 21 be d7 1d 10 3e 50 e7 64 3e
       0.2233744 -0.15787315 0.14073883 0.22353864
0000c0 c6 aa 45 3e 31 18 6e 3d 06 06 aa 3d 40 93 0a 3e
       0.19303426 0.05812854 0.0830193 0.13532734
0000d0 38 bc e7 bd 77 86 07 3e 81 9e ab 3c 42 15 85 bc
       -0.11315197 0.13234888 0.020949604 -0.016245488
0000e0 91 b6 80 bc 21 67 1d 3e 24 84 18 3e 2d 65 09 be
       -0.015712054 0.15371372 0.14894158 -0.13417502
0000f0 cc 46 6d 3e da 05 42 3c 6e fd 66 bd d7 f4 0b be
       0.23171538 0.011842215 -0.056394033 -0.13667618
000100 0d 40 a7 3d d6 93 3b 3e 0f f5 d5 3c 2e d9 5b 3e
       0.081665136 0.18318114 0.02611783 0.21469566
000110 74 1b 83 bd c8 d8 a4 bd 9d 25 6f 3e 97 e6 35 3d
       -0.06401721 -0.0804916 0.23354192 0.04440936
000120 84 9a 3e be d2 9f 1b be 39 18 05 bd 8e 76 52 3e
       -0.1861363 -0.15197685 -0.032493804 0.20553038
000130 ae c1 ab 3d 0f b1 2b be 2c fc 23 be 08 5a 59 be
       0.08386551 -0.16766761 -0.16014165 -0.2122575

classifier.layers.2.bias f4 [5]
000000 b6 51 bb 3d 83 d6 80 be 17 bf a9 bd a8 ae 82 3e
       0.091464445 -0.2516366 -0.082884006 0.25523877
000010 1b f4 3e be
       -0.18647806

pool.gate_nn.0.weight f4 [16, 16]
000000 a0 ac 6b be ce a8 19 be 68 b1 2e 3d c0 5e cc bb
       -0.2301507 -0.150058 0.042649657 -0.006236881
000010 ca 19 31 3e b2 64 2a be 5c b7 d4 bd 48 be 15 bd
       0.17294994 -0.16639975 -0.103865355 -0.03655842
000020 70 11 a6 bc 1c ca 8a bd 68 ce 57 3e c8 7d 77 3d
       -0.020271987 -0.067768306 0.21074831 0.06042269
000030 a4 90 e2 bd 7c d1 69 be 70 6f ac bd 08 10 03 3e
       -0.11062744 -0.22833818 -0.084196925 0.12799084
000040 90 0c 96 bc e0 3d 9c bc ea d9 07 be 5a cd 6f 3e
       -0.018316537 -0.019072473 -0.13266721 0.23418179
000050 10 2a b6 3d 8c c9 1d 3e c2 2a 3f be 32 48 19 3e
       0.088947415 0.15408915 -0.18668655 0.14968947
000060 86 db 4f 3e 90 cc 78 3d 28 9a a0 3d 90 85 96 3c
       0.20298585 0.06074196 0.07841903 0.018374234
000070 f4 ab 69 3e a8 1e 5b bd 40 9c 10 3d 74 31 52 3e
       0.22819501 -0.053496033 0.03530526 0.20526677
000080 50 71 4d 3d 1c de 2d be ec f3 d1 bd 80 f6 4a 3c
       0.05015689 -0.16979259 -0.102516025 0.012387872
000090 ac 92 54 be 78 5f 3c 3e cc 32 0f be 00 1d fd bb
       -0.20759076 0.18395793 -0.13984221 -0.0077244043
0000a0 7c ab 7e be 98 fa 5a 3e a0 09 46 bc ce 0f 2a be
       -0.24870104 0.21384656 -0.012087256 -0.16607592
0000b0 54 ce 1b be 20 aa bc 3c 30 f4 19 3e 80 d2 c7 bd
       -0.15215427 0.02303034 0.15034556 -0.097569466
0000c0 dc 98 83 3d 0c f4 5d be e0 d3 4b 3e 00 95 c4 bb
       0.0642564 -0.21675128 0.19905043 -0.0059992075
0000d0 40 11 ec 3b 8a 46 65 3e c4 2b f3 3d c0 5a 8a 3b
       0.007204205 0.2239019 0.11873582 0.004222244
0000e0 6a 4b 41 be 90 11 22 bd e4 12 23 3e f0 90 f2 3c
       -0.18876424 -0.03956753 0.15925175 0.029610127
0000f0 3c 8a 07 3e 98 9a 7e 3e 58 96 61 3d 0a 16 42 3e
       0.13236326 0.2486366 0.05507502 0.1895372
000100 b8 1a 53 3e 38 07 3a bd 36 d6 4a be 50 95 df 3d
       0.20615661 -0.04541704 -0.19808277 0.10917151
000110 f0 de da 3d e2 62 39 3e d0 02 49 bd 40 54 6d 3e
       0.10687053 0.18104127 -0.049074948 0.2317667
000120 8c c1 98 3d 70 b7 4e be 7c c9 e0 bd ba 17 1e 3e
       0.07458791 -0.20187163 -0.1097593 0.15438738
000130 fc 8f 52 be 2c 0c 9a bd 74 ae f0 bd c6 8e 4f 3e
       -0.20562738 -0.07521853 -0.11752024 0.20269307
000140 e2 b6 2d 3e a8 bf 04 bd be de 30 be 40 02 4d be
       0.16964296 -0.03240934 -0.1727247 -0.2002039
000150 80 4a 13 bd 80 6a 7a be aa a6 49 be 9a c5 18 3e
       -0.03595972 -0.24454689 -0.19692484 0.14919129
000160 cc e5 f3 3d 88 ad 00 3d 4e 01 66 3e 2c a9 19 be
       0.11909065 0.031415492 0.22461435 -0.1500594
000170 98 e3 07 be ee a5 16 be f2 c7 18 be 04 8a 0c be
       -0.13270414 -0.14711735 -0.14920023 -0.13724524
000180 14 20 02 be 48 ec 79 3d e2 09 0a 3e e4 2d 14 be
       -0.1270755 0.06101635 0.13480332 -0.14470631
000190 a0 f9 1b 3e 26 65 16 be 80 8d c6 bd 10 80 af 3d
       0.15231943 -0.14687023 -0.09694958 0.08569348
0001a0 66 e2 79 3e 20 df e5 bc a0 ec 17 be 98 c4 ff bd
       0.2440277 -0.028060496 -0.14836359 -0.12488669
0001b0 20 ab 61 bc b4 da 41 3e 94 76 c6 bd 90 d4 1b bd
       -0.01377371 0.18931085 -0.09690586 -0.038044512
0001c0 58 fa 53 3e da 4e 30 be a8 40 90 bd 10 1a 5c be
       0.20700967 -0.1721758 -0.07043582 -0.21494317
0001d0 be ee 63 3e e0 7b e6 3c c4 23 48 3e 50 9b 88 3c
       0.22259042 0.02813524 0.19544894 0.016675621
0001e0 4a 39 1f 3e 78 fa 5a bd 90 84 9c bd 7a ba 00 3e
       0.15549198 -0.053461522 -0.07642472 0.12571135
0001f0 28 f6 0c 3d 98 8b 0a 3e 04 47 01 3e 80 aa 8d 3d
       0.03441444 0.13529813 0.12624747 0.06917286
000200 20 18 ff 3d 48 0e 62 3e 8e c5 58 3e a4 57 9c 3d
       0.12455773 0.2207576 0.21169111 0.076339036
000210 94 3b a1 bd 30 6c ae bd b6 5c 25 be 12 e9 7b be
       -0.07872692 -0.08516729 -0.16148648 -0.24600628
000220 30 bf cd 3d a0 22 25 3c 78 71 3c be 40 b6 f6 3b
       0.10046232 0.010079056 -0.1840266 0.00752905
000230 3e c6 0d 3e e6 4d 4d be 20 d9 57 bd 78 79 12 be
       0.13845155 -0.20049247 -0.0526973 -0.14304149
000240 2e dd 29 3e 6a d8 11 3e 9c 5a 11 be 40 d0 57 bd
       0.1658828 0.14242712 -0.14194721 -0.052688837
000250 50 ac 76 3d 54 39 fd bd bc e3 0f be 34 4a ab bd
       0.060222924 -0.1236445 -0.14051718 -0.083637625
000260 00 ae ad bd 94 a0 95 bd a8 7c 28 be a2 02 26 be
       -0.084804535 -0.073060185 -0.16453803 -0.16211942
000270 80 4a 1f 3b 80 ac 1d 3e 4c f6 48 be 90 35 48 be
       0.002430588 0.15397835 -0.19625205 -0.19551682
000280 28 71 78 be 3c 0a 12 3e a4 54 27 3e 80 e9 49 3d
       -0.24261916 0.14261717 0.16340882 0.04929495
000290 fa 55 60 be 80 80 af 3b a4 64 c0 bd 00 c9 c2 bc
       -0.21907797 0.0053558946 -0.09394196 -0.023777485
0002a0 52 39 64 3e 80 3e 3d bd 06 7b 72 be b0 e4 ac bc
       0.22287491 -0.046202183 -0.23679742 -0.02110514
0002b0 b0 65 1e be 80 5f 81 bc 3e 90 10 be 80 4a 2d bc
       -0.15468478 -0.015792608 -0.14117524 -0.010576844
0002c0 72 20 1a 3e c0 a9 75 3e f8 ad 47 be c0 44 90 bd
       0.1505144 0.23990536 -0.19499958 -0.07044363
0002d0 36 82 3d be c0 94 93 3b 00 26 bd bb b8 4a f9 bd
       -0.18506703 0.0045038164 -0.005772352 -0.121724546
0002e0 d0 55 f4 3d cc 78 46 be 24 43 39 be 30 f5 64 3e
       0.1193043 -0.19382018 -0.18092018 0.22359157
0002f0 64 d6 0f 3e 00 0b 03 3e da 6f 4a be 84 4f 0e 3e
       0.14046627 0.12797165 -0.1976923 0.1389752
000300 18 2b 79 3d 18 2d 7e 3d 60 35 c0 3c 60 bc 19 bc
       0.060832113 0.062054724 0.023462951 -0.009383291
000310 7c ef 67 be 80 a4 ab bc e0 8b 7c bc a8 c7 45 bd
       -0.2264995 -0.020952463 -0.015414208 -0.04828611
000320 60 91 27 bd 7c 41 a8 bd 5c 00 83 bd 60 de f7 bc
       -0.040910125 -0.08215615 -0.06396553 -0.030257404
000330 50 57 77 bd 80 08 a3 3d 8c 26 3f 3e c0 4f 66 be
       -0.060386002 0.079606056 0.18667048 -0.2249136
000340 8a d1 6f 3e 84 cc b6 3d a0 c1 b7 bc 90 ad 5d bd
       0.23419777 0.08925727 -0.022431195 -0.0541206
000350 e0 d9 c0 bd 50 d2 9e 3d 90 bd 60 bd 38 74 42 3d
       -0.09416556 0.07754958 -0.05486828 0.047474116
000360 20 05 45 3e 74 b2 b8 bd 42 d6 71 be 90 b1 5a 3d
       0.19240236 -0.09018412 -0.23616889 0.053391993
000370 80 93 c8 3b 80 4f 4f bb 3a 15 7b be e8 4f d7 3d
       0.006121099 -0.003163308 -0.24519816 0.10513288
000380 60 82 a4 bd 36 53 61 3e a0 7a 54 bd a0 31 b2 bc
       -0.080326796 0.22004399 -0.051874757 -0.021752179
000390 4c a0 5d be 8c 1e 63 3e ba f4 37 be fc e6 eb 3d
       -0.2164318 0.22179621 -0.1796445 0.11518666
0003a0 40 e5 40 be 38 01 9b bd 84 fa ac 3d f8 7c 28 3e
       -0.18837452 -0.07568592 0.084462196 0.16453922
0003b0 26 c8 21 be 2c 89 d8 bd b0 f2 99 3d d0 0a c3 3c
       -0.15799007 -0.105730385 0.07516992 0.023808867
0003c0 30 d3 f7 3c 74 64 af 3d 00 aa 19 bc a4 35 48 3e
       0.03025207 0.08564082 -0.00937891 0.19551712
0003d0 9c 87 ed bd 38 b7 60 3e 8e d2 68 3e ca 1d 36 be
       -0.11598131 0.21944892 0.2273657 -0.17784801
0003e0 fc 43 80 3d 10 0f c3 3c 50 cc fd bc 0c 54 8e 3d
       0.06262967 0.023810893 -0.030981213 0.069496244
0003f0 28 68 22 bd a4 f0 60 be 82 93 1f 3e 00 cc f9 bc
       -0.039650112 -0.21966797 0.15583614 -0.030492783

pool.gate_nn.2.weight f4 [1, 16]
000000 cc 10 3e 3e 58 46 1e bd 28 09 65 3d 7c d4 ce bd
       0.18561095 -0.038641304 0.055916935 -0.10099122
000010 52 d9 1d 3e a2 7d 01 be 00 87 d3 3c 90 38 92 bd
       0.15414932 -0.12645581 0.025821209 -0.07139695
000020 d0 07 e5 3c 1e 51 42 be d0 5d dd bc e0 09 7f 3c
       0.027957827 -0.18976256 -0.027022272 0.015566319
000030 fa d3 1c 3e c0 98 a2 3c 80 c1 57 bd 80 ed 5a bd
       0.15315238 0.019848228 -0.05267477 -0.053449154

pool.nn.layers.0.weight f4 [16, 16]
000000 1b 9d 18 3e b7 4d 2c 3e c9 28 0d 3e 0b 68 4f be
       0.14903681 0.16826521 0.1378509 -0.20254533
000010 34 d9 23 be 15 aa 86 3e b3 14 6a bd ed 34 3a 3d
       -0.16000825 0.26301637 -0.057148647 0.04546063
000020 dd af 6a bd d7 e3 26 bd f4 12 58 be e9 39 57 3e
       -0.057296623 -0.04074463 -0.2110098 0.21018185
000030 1f 1e 93 be a6 a0 09 3e a9 e8 c4 3d 64 0d 35 bc
       -0.28733918 0.13440189 0.09614689 -0.011050556
000040 d4 f2 77 be 98 66 3c bd 74 55 1d 3e 2c 6c a2 3d
       -0.24213725 -0.04599628 0.15364629 0.079307884
000050 30 f3 6a 3e 54 46 ed 3d f8 35 01 3e 80 0c 16 bc
       0.22944331 0.1158568 0.12618244 -0.009158254
000060 e8 81 54 3e f0 fd d0 3d 0c d9 d9 bd 90 6d 78 3e
       0.2075268 0.10204685 -0.106371015 0.24260545
000070 6a 24 3c be 56 66 25 3e 3c d9 7c be c0 4b 5c be
       -0.18373266 0.1615232 -0.24692243 -0.21513271
000080 e4 4b ad be 66 00 88 3e 8e 2f 21 be 5f 54 9d 3e
       -0.33846962 0.26562804 -0.15740797 0.30728433
000090 3a 5b 65 bd 6d c4 1b be 89 68 c4 3d e7 a3 1d 3d
       -0.055995204 -0.15211649 0.09590251 0.038486388
0000a0 eb f1 fa 3c 66 0d 10 3e e5 8c 89 3e d2 e6 6a be
       0.030632934 0.14067611 0.26865306 -0.22939613
0000b0 fa 17 82 bd 5d 73 82 be b0 fe d8 bd 21 85 b9 3d
       -0.063522294 -0.2547864 -0.10595453 0.090585954
0000c0 86 44 23 be da 6a 54 3e c4 42 86 bc a4 ae ae 3e
       -0.15944108 0.20743886 -0.016389258 0.34117615
0000d0 98 23 a0 3e 13 95 a9 3d 1c c4 21 3e 1b c8 a7 be
       0.31277156 0.08280387 0.15797466 -0.32769856
0000e0 bc 20 20 3d ff 3b 8c 3e c0 84 d3 3d 7e 2b e0 3c
       0.039093718 0.27389523 0.103280544 0.027364489
0000f0 d9 ca 05 3e a1 52 5a 3d 78 cc 12 be df 1e 02 3e
       0.13065661 0.053301457 -0.14335811 0.12707089
000100 8b ca 21 3d 88 d5 80 3e 5a f4 81 be 35 3a 07 3d
       0.0394998 0.2516291 -0.25381738 0.033014495
000110 e1 c4 91 3e 10 7d d5 3d eb 1c 68 3e d2 ec 17 3d
       0.2847052 0.104242444 0.22667281 0.037091084
000120 06 48 be 3d 9f bf 8c 3e fc 58 d9 3c 5d a4 4f be
       0.09291081 0.27489945 0.026531689 -0.20277543
000130 0a 23 7a 3e b4 74 6f be 86 73 03 be da fa 22 3e
       0.24427429 -0.23384362 -0.12837037 0.15916005
000140 76 1b 44 3d 59 01 62 3c 09 07 3c bd 61 fd 10 be
       0.04787775 0.013794267 -0.045905147 -0.14159156
000150 fd 4a 7e be e3 db ee 3d 67 68 7e bd 28 91 c3 3d
       -0.24833293 0.11663034 -0.062111285 0.09549171
000160 18 61 f2 bd 92 0b 3d 3d ea 48 23 be e6 b2 26 3e
       -0.118349254 0.046153612 -0.15945783 0.16279182
000170 58 1b 20 be 83 25 8b 3e 7f 6e 51 3e fa 06 a4 3c
       -0.15635431 0.27177057 0.20452307 0.020022858
000180 c3 66 4e bd 54 b4 07 be 55 4e b0 3d 73 e1 3f 3e
       -0.05039097 -0.13252383 0.08608691 0.18738346
000190 71 25 ea bd 45 e9 66 3e 16 2f 69 bd 9a da ba 3c
       -0.11432923 0.22549923 -0.05692967 0.022809315
0001a0 8a 55 aa bb 48 2a 15 3e 75 db eb 3c aa 00 27 be
       -0.0051981853 0.1456691 0.028791169 -0.16308847
0001b0 13 25 60 be 5a 4b d5 bb ce d2 72 3e d0 46 0a be
       -0.21889143 -0.0065092267 0.23713228 -0.13503575
0001c0 70 3f 83 bc a0 24 40 be fa d4 08 3e cc c3 f9 3d
       -0.01602146 -0.18763971 0.13362494 0.121955484
0001d0 f4 5f 21 be a6 d9 30 3e 00 cc 02 3a 68 fe 0c be
       -0.1575926 0.17270526 0.0004989505 -0.13768923
0001e0 30 92 e3 3c 8c d0 5c be f4 49 98 bd 9e 25 44 be
       0.027779669 -0.2156393 -0.074359804 -0.19154975
0001f0 94 e7 43 3e 52 bb 60 3e 36 0c 5a be 22 f6 79 3e
       0.19131309 0.21946457 -0.2129372 0.24410298
000200 e8 66 7c 3b 1d 30 06 3e 63 11 21 be d0 36 f6 bd
       0.0038513485 0.13104291 -0.15729289 -0.120221734
000210 fc e6 5b be 8d c1 e9 3b b8 e5 a1 bd 70 91 f3 3d
       -0.21474832 0.0071336688 -0.079051435 0.118929744
000220 1a 30 5c be f0 0a 1d 3e 77 de f7 3d 52 fd 1b 3e
       -0.21502724 0.15336204 0.12102979 0.15233353
000230 ab f8 a9 3c af c2 03 3e 66 4f 62 3e d5 52 94 bd
       0.020748457 0.12867235 0.221006 -0.072423615
000240 bf 41 b6 3e ac fc 0a be 18 eb 94 3e e1 a8 a2 be
       0.35597035 -0.13572949 0.29085612 -0.3176947
000250 63 5b 27 be 79 00 81 bd f1 da ac 3e c7 73 7b be
       -0.16343455 -0.06298918 0.3376079 -0.24555884
000260 22 7d cb 3c 04 cd f1 bd de 06 07 be 7e 3d 37 3c
       0.024839941 -0.11806682 -0.13186213 0.0111840945
000270 a4 c8 ac be 9f 5b b3 3e e1 6a 0b be 12 58 47 3e
       -0.33746827 0.3503084 -0.1361499 0.1946719
000280 44 c4 27 be c5 1d 7a 3e 73 ab ab 3d 47 a0 8d 3e
       -0.16383463 0.24425419 0.08382311 0.27661344
000290 c2 97 5b 3e 00 65 43 3b 02 07 0c bd c7 f0 8a 3e
       0.2144461 0.002981484 -0.03418637 0.27136824
0002a0 0e 49 75 3e 00 0e 84 bd e7 fb 9f 3e ee 48 22 3d
       0.2395365 -0.06447983 0.31246874 0.039620332
0002b0 b1 4e ab bc 1e 6e 52 bd 83 8c 82 be d0 f2 77 3b
       -0.020911546 -0.051374547 -0.25497827 0.0037833937
0002c0 c1 4a 59 be ee 65 dc 3c 9e 68 98 be 31 44 a0 3e
       -0.21219923 0.026904073 -0.29767317 0.31302026
0002d0 5d 58 12 be 4f 8f 6b be 27 88 59 3e f0 d7 fd bc
       -0.1429152 -0.23003887 0.21243344 -0.030986756
0002e0 59 4c a4 bd e4 cc 94 3e fb d2 4b bd dc 7c 8f be
       -0.08022375 0.2906257 -0.049761754 -0.28024948
0002f0 b6 99 56 3e 3e 80 94 be 40 b3 80 be 18 09 c7 3d
       0.20957074 -0.2900409 -0.25136757 0.09718531
000300 00 b8 2f 3c dc 49 e0 bd c2 f8 4c be e0 e8 61 bc
       0.010725021 -0.109515876 -0.20016769 -0.013788432
000310 d0 2c a4 3d fc 1e 84 bd c8 be 5b be 80 1d 08 3e
       0.0801636 -0.06451222 -0.21459496 0.13292503
000320 38 fd b0 3d e0 d9 5f 3c 6c 0e 57 be 10 d0 5e bd
       0.08642048 0.013662785 -0.21001595 -0.054397643
000330 40 57 5e 3c 50 4e b9 bc 3c 31 a5 3d 40 80 96 bb
       0.013570607 -0.02262035 0.08066031 -0.0045929253
000340 7c 95 72 be 8d f6 54 3e f8 47 65 3e 55 c8 d3 3d
       -0.23689836 0.20797177 0.22390735 0.10340945
000350 74 66 36 3e 15 07 9c bd 57 95 17 be 0d 3a 96 3d
       0.1781252 -0.07618538 -0.14803062 0.07335291
000360 11 ef 5f be 63 3f f6 3c 3f 1d 04 3d ca b9 4e 3e
       -0.2186854 0.030059522 0.032254454 0.2018806
000370 fa 88 42 bc 1c ca 6b be c4 98 30 be ea 5f 24 3e
       -0.011873478 -0.23026317 -0.17245775 0.16052213
000380 e1 85 72 be 3d 96 ff 3d 24 bd 0c 3e 3f c0 94 3e
       -0.23683883 0.124798276 0.13744026 0.29052922
000390 d4 11 8c 3e 1e 8d 1c be 7d 73 70 3d 83 f6 51 be
       0.27357352 -0.15288207 0.05870389 -0.20504193
0003a0 fa e1 98 3e 8d 9d bb bc b1 2a 47 3e 0d 9c 9d be
       0.29859906 -0.022902275 0.19449879 -0.3078312
0003b0 d7 a2 50 bd 4e 0e 76 bd b1 57 14 3d c1 77 46 bd
       -0.050936546 -0.060072236 0.03621644 -0.04845405
0003c0 f5 13 53 3e a8 85 2a be 06 ba 4e 3e 52 08 91 bd
       0.20613082 -0.16652548 0.2018815 -0.07081665
0003d0 55 ca a3 3d 81 62 54 3e f4 aa c9 3d 8e 22 de 3d
       0.07997576 0.20740701 0.0984706 0.108464345
0003e0 95 1d d4 bd 74 91 a9 bd 2e 88 46 3e dd d5 38 be
       -0.10357205 -0.08279696 0.19387886 -0.18050332
0003f0 a3 45 53 bd b9 56 f2 bd 34 c8 04 be 2b 58 0e be
       -0.051580083 -0.11832947 -0.12966996 -0.13900821

pool.nn.layers.0.bias f4 [16]
000000 d7 8b 1c bd fc b7 f9 bd ab c1 0a be ae ba 71 bd
       -0.0382193 -0.12193295 -0.13550441 -0.059015922
000010 f2 c4 4e 3e bc 7d 50 3e c8 ef 33 be b8 20 df bd
       0.20192316 0.20360464 -0.17571938 -0.108949125
000020 f5 9f f2 3d 96 b8 3c bd 50 0f ac 3d 0e a4 80 3e
       0.11846916 -0.046074472 0.08401358 0.25125164
000030 94 a2 54 be 49 b6 76 be 75 10 3d 3e 58 54 5e be
       -0.20765144 -0.24092974 0.18463309 -0.21711862
