models_spike/lolcat_head1_NN_syn_01.pt (torch, 156894 bytes, 16 tensors)

encoder.layers.0.weight f4 [64, 499]
0.0316391 0.010149754 0.034381267 0.009735515 0.0055890763 -0.009866645 -0.029257927 0.013323951
0.034109034 -0.03301446 0.03855869 -0.040505942 0.043479335 -0.0037504407 0.041491713 0.030019332
-0.031764083 -0.03787031 0.015783051 -0.034450904 -0.010610323 -0.0024693294 0.05521025 -0.016137667
0.038906448 0.02183295 -0.023244675 0.014273906 -2.0130188e-05 -0.0016082732 -0.027760858 0.03017482
-0.01741426 0.017882839 -0.0071564503 0.017441602 0.04606101 0.059996616 0.021241235 0.01598676
-0.0031301738 0.027591867 -0.0027666404 -0.01871091 -0.007921688 -0.008982858 0.03001659 0.015399891
0.05451825 0.054132905 0.008813986 0.03880011 -0.0013139634 0.011909597 0.030174969 -0.0070049227
-0.006460988 -0.030106336 0.048648566 0.0027858668 -0.031949572 0.054399468 -0.0011420443 0.016025176
0.05337591 0.04124082 0.03975028 0.02761039 -0.01743765 0.034583308 0.043066017 0.012197415
0.017469233 -0.00566494 -0.029134782 0.025527148 -0.040662263 -0.044413112 0.04853665 -0.02542872
0.011638034 0.014939809 -0.019420858 -0.033913206 -0.026543155 0.0049634986 0.04499742 0.008814821
0.033801097 0.0055436594 0.0064366413 -0.029098194 -0.019995218 0.0075131217 0.03283511 -0.0008339326
0.03612115 -0.016458713 0.007816298 -0.026104886 0.017356992 0.04557236 0.043721065 0.02811606
0.05385286 0.05577912 0.020197188 0.049362037 0.035129216 -0.01951079 0.0032719562 0.0042686616
0.022537867 -0.023531238 0.01148493 -0.016253483 0.041245956 0.013623083 -0.025245467 -0.028742462
0.022890832 0.038099512 0.044378366 0.0006327448 0.019564515 -0.00043815066 0.007800617 -0.017855404
-0.028448131 0.023295179 -0.0269054 -0.011191426 -0.025599986 0.041853 -0.010138586 0.01951178
-0.013507505 0.02050317 0.031961054 0.045567185 -0.025753504 0.039659332 0.052217353 0.03190278
0.054043163 -0.014821831 0.049536932 -0.025683451 -0.026039634 0.024826935 0.0093022445 0.053232342
-0.032410268 0.025535902 -0.048858114 0.041118544 0.018682335 0.040066242 -0.016767548 0.02933557
0.04635692 -0.02367165 0.01128461 0.03954484 0.009957069 0.024636637 -0.026811076 -0.011345804
0.029872026 0.0076572485 0.02738479 0.006478012 0.045588076 0.033106074 -0.0005900022 0.0273812
0.012216512 -0.03378984 0.022835061 -0.015058609 5.730643e-05 -0.015050736 0.033316556 0.022143573
0.0036259594 -0.011583204 0.05515486 0.031901397 0.024641197 -0.011147221 0.04608864 0.02337158
0.025647264 -0.01897446 0.03976862 -0.0034003695 0.05170793 0.0588258 0.042833857 0.034615893
0.027468031 0.010474836 0.012424105 -0.0033632067 0.0073161423 0.00998846 -0.014374944 0.004373312
0.011229514 0.013542023 0.039848216 -0.018280193 -0.021660157 0.004056048 -0.021067856 -0.02391838
0.05345251 -0.00352211 -0.01680636 0.03511467 -0.0055780807 0.03678459 0.052399814 0.016417759
-0.020097774 0.052185114 -0.00077052816 -0.008629015 -0.02872238 -0.020673985 0.015203958 -0.029710153
-0.0024994987 0.023012424 0.024733074 0.04475665 -0.008711812 0.027476037 0.0043792278 0.033413645
0.028039284 -0.009294317 0.049381826 0.055449415 -0.022846805 0.047018424 -0.006553884 -0.028684208
-0.018358752 -0.032004733 0.042534478 -0.02668756 0.05008446 -0.006203681 -0.011431423 -0.0018315079
00000000: 0098 013d 274b 263c 5fd3 0c3d b681 1f3c
00000010: 9224 b73b b5a7 21bc 52ae efbc b34c 5a3c
00000020: eab5 0b3d 2c3a 07bd b8ef 1d3d 8fe9 25bd
00000030: 6317 323d f4c9 75bb 37f3 293d 1aeb f53c
00000040: 0e1b 02bd e61d 1bbd 754b 813c 641c 0dbd
00000050: ecd6 2dbc 79d4 21bb 2524 623d 2433 84bc
00000060: 5e5c 1f3d 04db b23c 9e6b bebc 1add 693c
00000070: 40dd a8b7 b2cc d2ba bd6a e3bc 2f31 f73c
00000080: 5aa8 8ebc 087f 923c a880 eabb b1e1 8e3c
00000090: 78aa 3c3d 03bf 753d 1902 ae3c aaf6 823c
000000a0: 9a23 4dbb 5708 e23c 8650 35bb 9f47 99bc
000000b0: f8c9 01bc d62c 13bc 5ae5 f53c d34f 7c3c
000000c0: 874e 5f3d 77ba 5d3d 8968 103c ddec 1e3d
000000d0: 4c39 acba 7820 433c 7f31 f73c 8d89 e5bb
000000e0: b2b6 d3bb 90a1 f6bc b843 473d 1793 363b
000000f0: 8edd 02bd fad1 5e3d a6b0 95ba 3b47 833c
00000100: b3a0 5a3d 22ec 283d 31d1 223d 2f2f e23c
00000110: 67d9 8ebc 3aa7 0d3d fe65 303d abd7 473c
00000120: a31b 8f3c f6a0 b9bb 11ac eebc 4f1e d13c
00000130: 798d 26bd 86ea 35bd 5ece 463d e44f d0bc
00000140: 74ad 3e3c 1ac6 743c 7e18 9fbc 93e8 0abd
00000150: 0871 d9bc d8a4 a23b 374f 383d 0a6c 103c
00000160: 0573 0a3d 96a7 b53b 76ea d23b 565f eebc
00000170: 03cd a3bc a230 f63b 1c7e 063d 459c 5aba
00000180: c5f3 133d 6cd4 86bc ee0f 003c ead9 d5bc
00000190: 4030 8e3c 15aa 3a3d dc14 333d a753 e63c
000001a0: d194 5c3d a678 643d 9374 a53c d92f 4a3d
000001b0: a7e3 0f3d 18d5 9fbc 516e 563b 21e0 8b3b
000001c0: 55a1 b83c 95c4 c0bc 4a2b 3c3c 0626 85bc
000001d0: 85f1 283d 5a33 5f3c 95cf cebc 5075 ebbc
000001e0: 8e85 bb3c 3c0e 1c3d 17c6 353d c9de 253a
000001f0: c345 a03c 96b7 e5b9 519c ff3b 7f45 92bc
00000200: 0e0c e9bc 88d5 be3c b768 dcbc 3e5c 37bc
00000210: 10b7 d1bc 0d6e 2b3d 501c 26bc 2bd7 9f3c
00000220: 954e 5dbc 44f6 a73c 98e9 023d a8a4 3a3d
00000230: 03f9 d2bc d371 223d dde1 553d 7dac 023d
00000240: 5d5c 5d3d 44d7 72bc 3de7 4a3d 1a66 d2bc
00000250: 1251 d5bc db61 cb3c 7168 183c 280a 5a3d
00000260: a1c0 04bd ab30 d13c 721f 48bd eb6b 283d
00000270: b20b 993c 801c 243d 195c 89bc 2651 f03c
00000280: c1e0 3d3d 0ceb c1bc 16e3 383c c5f9 213d
00000290: f922 233c c6d2 c93c e7a2 dbbc c0e3 39bc
000002a0: 2eb6 f43c a8e9 fa3b 1156 e03c 8145 d43b
000002b0: 90ba 3a3d 3c9a 073d 61aa 1aba 8a4e e03c
000002c0: c427 483c 3767 0abd 9810 bb3c 62b8 76bc
000002d0: 505c 7038 5d97 76bc f176 083d 7066 b53c
000002e0: 81a1 6d3b 7bc7 3dbc 10ea 613d 0aab 023d
000002f0: 56dc c93c d5a2 36bc 71c7 3c3d c175 bf3c
00000300: 361a d23c 5470 9bbc 6ce4 223d bcd8 5ebb
00000310: b2cb 533d 52f3 703d 8e72 2f3d 65c9 0d3d
00000320: a304 e13c a69e 2b3c 798e 4b3c 3f69 5cbb
00000330: 40bc ef3b a3a6 233c e384 6bbc 004e 8f3b
00000340: fffb 373c 5cdf 5d3c e237 233d 58c0 95bc
00000350: a470 b1bc 99e8 843b 7f96 acbc 7af0 c3bc
00000360: 05f1 5a3d 33d3 66bb 7ead 89bc 66d4 0f3d
00000370: 55c8 b6bb 70ab 163d 30a1 563d 897e 863c
00000380: 16a4 a4bc 0fc0 553d 45fd 49ba b660 0dbc
00000390: 324b ebbc 7d5c a9bc 061a 793c b562 f3bc
000003a0: a1ce 23bb 8d84 bc3c 049d ca3c c052 373d
000003b0: fdbb 0ebc 6d15 e13c a07f 8f3b bfdc 083d
000003c0: a4b2 e53c 3147 18bc 9944 4a3d ed1e 633d
000003d0: 3929 bbbc 6496 403d f7c1 d6bb 25fb eabc
000003e0: 1865 96bc 6517 03bd a238 2e3d df9f dabc
000003f0: 5d25 4d3d 4048 cbbb dd4a 3bbc 350f f0ba

encoder.layers.0.bias f4 [64]
0.055325657 -3.8288534e-05 0.027845372 0.012919321 0.035692308 -0.007032639 -0.003371433 -0.029896049
0.030086488 -0.008119 -0.014531241 0.0073830476 0.008230698 -0.024814837 0.050470162 -0.02074973
-0.030963516 -0.0065669934 -0.017821068 -0.004992887 -0.0148354815 0.04152885 -0.031583644 0.013045214
-0.034126498 -0.00064326875 0.0044665094 0.028767291 -0.019726295 0.020159708 0.026137652 0.013752353
-0.029940503 -0.024175497 0.005641736 -0.017517738 0.042687725 -0.031009855 -0.014274464 0.029646387
-0.006923182 -0.01948704 -0.030981867 -0.03377747 -0.009025053 0.03525939 0.037139054 0.023875626
0.02543197 -0.021716382 -0.008809152 -0.02596018 0.0016057433 -0.043633558 0.04211726 -0.026704602
0.025988959 -0.03865537 -0.042524926 -0.023542 -0.0052594403 -0.016633213 0.024607074 0.0044047744
00000000: 289d 623d 0098 20b8 fa1b e43c 8fab 533c
00000010: 1932 123d 0d72 e6bb 42f3 5cbb 8fe8 f4bc
00000020: f077 f63c 8e05 05bc 7114 6ebc 7eed f13b
00000030: 0dda 063c 7c48 cbbc cdb9 4e3d 56fb a9bc
00000040: 33a7 fdbc ef2f d7bb 7dfd 91bc 5f9b a3bb
00000050: 8510 73bc 281a 2a3d da5d 01bd 98bb 553c
00000060: 3ac8 0bbd 09a1 28ba cc5b 923b 62a9 eb3c
00000070: 0a99 a1bc f925 a53c a11e d63c 8d51 613c
00000080: c945 f5bc b10b c6bc 50de b83b 5c81 8fbc
00000090: 53d9 2e3d 6108 febc 71df 69bc fbdc f23c
000000a0: dcdb e2bb 49a3 9fbc afcd fdbc 3f5a 0abd
000000b0: d1dd 13bc 266c 103d 1f1f 183d d196 c33c
000000c0: b556 d03c 8ee6 b1bc 4354 10bc 72aa d4bc
000000d0: ce77 d23a 1ab9 32bd 2683 2c3d 9cc3 dabc
000000e0: cce6 d43c 1855 1ebd 9e2e 2ebd 27db c0bc
000000f0: 6257 acbb 6042 88bc c694 c93c ed55 903b

encoder.layers.2.weight f4 [32, 64]
-0.023632377 0.01240921 -0.07009831 -0.009433851 0.048905835 0.10048626 0.03276083 0.065898255
-0.12448643 0.0386149 0.030054122 2.5168061e-05 -0.117764115 0.042198926 0.08157489 -0.08167325
-0.0233417 0.1084346 -0.08283958 0.10772234 -0.09881979 -0.066537455 -0.006996587 -1.8328428e-05
-0.10064623 0.065198734 -0.08430223 -0.06906848 -0.015272707 0.020704031 -0.030663088 -0.050451502
0.0766761 0.038314864 0.026217192 0.075631246 0.012570038 0.011886135 -0.10493259 -0.04161255
-0.08276354 0.07408151 -0.03182806 -0.08465427 -0.09944002 -0.021008879 0.06498122 -0.10500538
0.07482968 -0.09025924 0.10277155 0.02547951 -0.05352953 -0.0625653 -0.07555552 -0.028856784
-0.012921095 -0.101225436 0.11466363 0.053772524 0.0034740567 -0.0009266287 -0.013716668 -0.04014027
-0.030057713 0.017378286 -0.022164509 -0.07357627 0.066051334 -0.05274695 0.0023573786 -0.09599733
0.1082357 0.115655154 -0.11264256 0.036770508 -0.0017096698 -0.11279808 -0.015712142 -0.05506161
-0.04085177 0.0136298835 -0.00048685074 0.021341473 0.11852114 -0.066857904 -0.021871299 -0.0660681
0.08017436 -0.047476202 -0.031606898 0.050651923 -0.041183814 -0.087219656 -0.05853212 -0.047132686
0.09700075 0.027738556 0.10049057 0.10020816 -0.015496597 -0.00091932714 0.10332632 0.10291356
-0.09261574 0.0146020055 -0.009154543 -0.043796986 0.107708916 -0.009377077 0.10216811 0.06031528
0.062422216 0.03378825 -0.086274356 0.09805821 0.03596516 -0.0006649792 0.11169198 0.065832585
0.08094858 0.09473862 0.040556848 -0.09766014 0.00087185204 -0.11621781 -0.014236197 -0.056358367
-0.015427405 0.02541775 0.01843399 -0.065768115 0.023013048 -0.0964907 0.096335195 -0.060950723
0.0023949249 0.060256094 0.10630313 -0.023682034 -0.026960712 0.09396649 -0.120606 -0.00060706114
-0.032760277 -0.09027181 -0.069644675 -0.08324393 -0.07632338 0.08046663 0.07974588 0.062164694
-0.0054345126 0.10718993 0.044532314 -0.036518104 -0.022350585 -0.10491427 -0.039985307 0.05877187
-0.064879455 0.005296146 0.020977715 -0.050585303 -0.014015319 0.007492571 0.08808235 -0.13344435
0.11290004 -0.020112058 -0.004404405 -0.00795795 -0.117116414 0.02487635 -0.08404119 0.07049029
0.040447857 0.0022414164 0.089730345 0.010837686 0.074142955 -0.06893259 -0.05583816 0.02349164
0.031580657 0.039771345 -0.108008 0.007701835 0.07276792 0.027061464 0.06607767 0.050103225
-0.009678498 0.10454562 -0.058864057 0.10203378 0.04632947 -0.11195223 0.086289644 -0.03407292
-0.107642174 0.07662588 -0.08875616 0.013340339 -0.04067555 -0.008017227 -0.056457534 0.0139544755
0.024051681 -0.064147815 -0.029105455 0.00062170625 -0.094654694 -0.08089493 0.10918753 -0.12027106
0.041338354 0.11608824 0.047149733 0.06610371 -0.08469689 0.117076054 -0.11423229 0.06741898
0.074785545 0.055584937 -0.08597593 -0.05861178 0.063199 -0.058038473 0.05313176 -0.068227395
-0.040641442 0.10657768 -0.084028244 -0.121416524 0.11866446 0.051944792 -0.02046378 -0.09160687
0.061908156 0.11091222 0.09859392 0.11720605 -0.07083018 0.015779719 0.04015404 0.0021052808
0.011703536 0.013441771 -0.111862496 0.029172137 -0.05821471 -0.11932972 0.07522003 0.09865466
00000000: b098 c1bc 0050 4b3c b48f 8fbd 7090 1abc
00000010: 7c51 483d becb cd3d 3830 063d aaf5 863d
00000020: bef2 febd a82a 1e3d 1034 f63c 0020 d337
00000030: 502e f1bd c8d8 2c3d bc10 a73d 4e44 a7bd
00000040: 1837 bfbc f612 de3d cca7 a9bd 889d dc3d
00000050: 0862 cabd ca44 88bd a043 e5bb 00c0 99b7
00000060: 9c1f cebd ea86 853d a6a6 acbd c673 8dbd
00000070: 603a 7abc 809b a93c 2831 fbbc 3ca6 4ebd
00000080: 5c08 9d3d 0cf0 1c3d 70c5 d63c 8ee4 9a3d
00000090: 90f2 4d3c 10be 423c e6e6 d6bd ec71 2abd
000000a0: ee7f a9bd 0cb8 973d 245e 02bd 385f adbd
000000b0: 36a7 cbbd d01a acbc e014 853d 100d d7bd
000000c0: 4e40 993d d6d9 b8bd e479 d23d 68ba d03c
000000d0: c841 5bbd 3c22 80bd dabc 9abd 1065 ecbc
000000e0: 00b3 53bc 484f cfbd c4d4 ea3d 9440 5c3d
000000f0: 00ad 633b 00e9 72ba e0bb 60bc 206a 24bd
00000100: 983b f6bc e85c 8e3c 5892 b5bc 28af 96bd
00000110: ec45 873d 300d 58bd 407e 1a3b 409a c4bd
00000120: aeaa dd3d 9cdc ec3d 24b1 e6bd ac9c 163d
00000130: 0017 e0ba ae02 e7bd c0b6 80bc 4888 61bd
00000140: 3054 27bd e04f 5f3c 0040 ffb9 50d4 ae3c
00000150: 36bb f23d ccec 88bd 702b b3bc b64e 87bd
00000160: 7432 a43d 6876 42bd 3c76 01bd 6478 4f3d
00000170: 5cb0 28bd 38a0 b2bd 60bf 6fbd 340e 41bd
00000180: 54a8 c63d f83b e33c 00ce cd3d f039 cd3d
00000190: 70e5 7dbc 00ff 70ba c09c d33d 58c4 d23d
000001a0: 52ad bdbd 403d 6f3c f0fc 15bc 7864 33bd
000001b0: 7e96 dc3d 50a2 19bc 843d d13d 280d 773d
000001c0: 70ae 7f3d 8c65 0a3d 9cb0 b0bd bed2 c83d
000001d0: 3450 133d 0052 2eba c4be e43d 3cd3 863d
000001e0: 5ec8 a53d 5206 c23d f01e 263d 0a02 c8bd
000001f0: 008d 643a 9a03 eebd f03e 69bc 08d8 66bd
00000200: 3ac3 7cbc e338 d03c e102 973c 6fb1 86bd
00000210: dc85 bc3c eb9c c5bd 634b c53d 77a7 79bd
00000220: 2cf4 1c3b 18cf 763d 75b5 d93d d300 c2bc
00000230: b6dc dcbc 8171 c03d 4700 f7bd 2f23 1fba
00000240: a42f 06bd 6de0 b8bd dea1 8ebd cb7b aabd
00000250: 6f4f 9cbd b0cb a43d cf51 a33d 68a0 7e3d
00000260: ff13 b2bb 6586 db3d 8467 363d 0294 15bd
00000270: 9318 b7bc 4bdd d6bd a2c7 23bd c6ba 703d
00000280: 85df 84bd 4b8b ad3b 75d9 ab3c 8932 4fbd
00000290: 82a0 65bc 3e84 f53b 8564 b43d a3a5 08be
000002a0: 2338 e73d 0bc2 a4bc d452 90bb 1062 02bc
000002b0: bbda efbd 7dc9 cb3c ca1d acbd 375d 903d
000002c0: a7ac 253d bae4 123b 8bc4 b73d 8d90 313c
000002d0: 43d8 973d 882c 8dbd 8eb6 64bd 8a71 c03c
000002e0: b85a 013d 47e7 223d 4c33 ddbd ad5f fc3b
000002f0: 5907 953d 01b0 dd3c bb53 873d 0a39 4d3d
00000300: 9092 1ebc 041c d63d 701b 71bd 16f7 d03d
00000310: f8c3 3d3d 3647 e5bd a0b8 b03d 0c90 0bbd
00000320: 8073 dcbd 08ee 9c3d cac5 b5bd 7091 5a3c
00000330: 689b 26bd b05a 03bc 0440 67bd 50a1 643c
00000340: 0808 c53c ee5f 83bd 906e eebc 00fa 223a
00000350: 52da c1bd 3eac a5bd b69d df3d ac50 f6bd
00000360: 6852 293d acbf ed3d 1420 413d 6261 873d
00000370: 9075 adbd 92c5 ef3d 9ef2 e9bd f612 8a3d
00000380: 2a29 993d 08ad 633d 2614 b0bd e812 70bd
00000390: 7a6e 813d c0b9 6dbd b0a0 593d ceba 8bbd
000003a0: a477 26bd 6645 da3d 0017 acbd 3aa9 f8bd
000003b0: 5a06 f33d 10c4 543d a8a3 a7bc 629c bbbd
000003c0: 6893 7d3d f225 e33d 9ceb c93d ba09 f03d
000003d0: 6a0f 91bd 7844 813c 9078 243d c0f8 093b
000003e0: 30c0 3f3c e03a 5c3c 2a18 e5bd 68fa ee3c
000003f0: 8c72 6ebd 2463 f4bd f60c 9a3d 740b ca3d

encoder.layers.2.bias f4 [32]
-0.03343685 -0.048184663 0.106122114 -0.04611492 0.009947988 -0.09282777 -0.029686928 0.09033956
0.026313538 0.03021007 -0.053557366 0.087064415 0.05566008 -0.096553504 0.028966604 0.030172257
0.11884104 0.1280813 -0.01854711 -0.06471625 -0.032731697 0.10758422 -0.03494671 0.04260109
0.008060176 -0.06915362 -0.078284666 -0.0068796524 -0.089804426 0.09568221 0.010515736 0.11358716
00000000: 14f5 08bd 485d 45bd 8d56 d93d 00e3 3cbd
00000010: e3fc 223c 7c1c bebd 0032 f3bc f203 b93d
00000020: 7d8f d73c 1c7b f73c f85e 5bbd d44e b23d
00000030: d3fb 633d d8bd c5bd 5f4b ed3c cf2b f73c
00000040: ee62 f33d bf27 033e 1cf0 97bc f489 84bd
00000050: ac11 06bd 1e55 dc3d 4824 0fbd 7b7e 2e3d
00000060: d40e 043c 6aa0 8dbd b653 a0bd b56e e1bb
00000070: 62eb b7bd 09f5 c33d 324a 2c3c 63a0 e83d

encoder.layers.4.weight f4 [16, 32]
-0.06762036 0.066437066 0.0057778917 0.13766836 0.060886182 -0.15022588 0.060563125 0.07709224
0.036158446 0.119064644 -0.07192096 0.018865423 -0.01543282 -0.0658331 -0.0405731 0.029401993
-0.17500716 -0.15623976 0.048034295 0.024958922 -0.0977024 -0.06542815 -0.07165242 0.14583106
0.044554476 0.14811748 -0.07339825 0.05057434 -0.14748642 0.16400424 -0.16528755 0.00053768326
0.070437014 0.038333822 0.096541874 0.09491632 0.05621709 0.11586259 -0.13178726 -0.07159786
0.02758532 -0.15084988 0.038412955 0.10384249 0.11249722 0.0033375877 -0.12219278 -0.11855218
-0.1461127 0.15288731 0.11502404 -0.09811276 -0.00012241551 -0.1275971 0.055158906 0.08843621
0.034718204 0.12751189 -0.10460991 -0.12727678 0.17462395 0.11069546 0.108131304 0.09462458
0.15875736 -0.1547597 -0.15094142 -0.173397 -0.053076413 0.07128537 -0.088596 -0.12553768
0.067335345 0.10875702 -0.004943425 -0.11118267 -0.0791173 -0.0038592815 -0.108180664 -0.026075043
0.16728792 0.079288974 -0.1636727 -0.072312966 -0.0018816249 -0.11891805 -0.08593009 -0.084556386
-0.08923798 0.03259161 -0.12970228 -0.02589424 0.13331124 -0.10100001 0.09870412 -0.088774815
-0.14148962 0.0072425143 0.060232483 -0.16430019 0.078165025 -0.096877836 -0.062362645 -0.1310143
-0.022899516 0.1007249 0.026797345 -0.053440914 -0.08195984 0.15151708 -0.14026015 -0.17683664
-0.12795812 -0.11406088 -0.13906236 -0.015826816 0.13244912 -0.018117778 0.03145042 -0.068496965
0.12936015 -0.12185965 0.040383022 0.029259061 -0.03527278 0.07691008 -0.055566557 -0.14314781
-0.117469735 0.003475703 0.12148148 -0.023603078 -0.10530114 -0.04487853 0.011735958 0.08409106
0.067519516 -0.07599156 0.09777938 -0.19085366 0.15950859 0.05142575 -0.0057862373 -0.16088969
-0.00043309014 0.0739398 0.14342207 -0.0012428473 -0.17444023 -0.12516095 -0.068458155 -0.0066290502
-0.14557947 0.14419056 0.02642917 0.13955368 -0.11641684 -0.10293272 -0.08721647 -0.07047459
-0.0020015116 -0.036470406 -0.1826278 -0.037203338 -0.021801066 -0.046271864 0.06726245 0.024559055
-0.11005575 0.07517313 0.031254165 0.048488516 0.1506821 -0.09739167 -0.13330889 0.061885335
-0.077154495 -0.16054532 -0.0015227208 -0.01774983 -0.14828342 0.030616 0.09197269 -0.07683397
-0.13739914 -0.13518156 -0.16021825 0.12665278 0.17587982 -0.069827594 -0.04374597 -0.052277382
0.16601631 -0.15415676 -0.074995354 0.15886675 0.07630282 -0.083337 -0.111019224 0.18973112
-0.0046518454 0.004672877 -0.05201802 0.095242515 -0.017209709 -0.13764963 -0.055653296 0.0027816507
0.12721656 0.12436949 0.06769846 -0.08683831 -0.022119276 -0.012592981 0.14912389 -0.13522083
-0.14617781 -0.14018792 -0.092405744 -0.009116046 -0.045066886 -0.034096934 -0.15334521 -0.09948611
0.15569827 -0.16268964 0.108585946 0.010914917 0.03888293 0.12147939 -0.040882844 -0.04607075
-0.09298525 -0.047420356 -0.0471548 -0.11021679 -0.1678465 -0.14793152 -0.051628172 0.08280855
-0.15879087 0.05118056 -0.13545978 -0.07485278 0.13346191 -0.17885658 0.051900156 0.028398626
-0.07465914 -0.016401656 -0.13793167 0.11749695 -0.023314478 0.035080295 0.165938 0.013602529
00000000: 8b7c 8abd 2810 883d 7854 bd3b eff8 0c3e
00000010: ca63 793d d0d4 19be 0a11 783d 89e2 9d3d
00000020: e11a 143d 2ad8 f33d 4c4b 93bd a98b 9a3c
00000030: f0d9 7cbc 81d3 86bd fb2f 26bd 73dc f03c
00000040: 1435 33be 51fd 1fbe 9cbf 443d a776 cc3c
00000050: 3218 c8bd 32ff 85bd 81be 92bd bd54 153e
00000060: c17e 363d 1cac 173e d251 96bd 0a27 4f3d
00000070: ae06 17be baf0 273e 2441 29be 50f3 0c3a
00000080: 4841 903d ed03 1d3d bfb7 c53d 7d63 c23d
00000090: e443 663d 5e49 ed3d 3df3 06be e6a1 92bd
000000a0: 9cfa e13c 6478 1abe e756 1d3d 5fab d43d
000000b0: f164 e63d 6ebb 5a3b 3540 fabd 7ccb f2bd
000000c0: 919e 15be 7e8e 1c3e b991 eb3d 58ef c8bd
000000d0: aa5c 00b9 d0a8 02be 4eee 613d 0b1e b53d
000000e0: ad34 0e3d 7a92 023e b83d d6bd d854 02be
000000f0: 9fd0 323e 4db4 e23d f273 dd3d 88ca c13d
00000100: 4a91 223e 5479 1ebe 6390 1abe fc8e 31be
00000110: a766 59bd 10fe 913d d271 b5bd f38c 00be
00000120: 1de7 893d 00bc de3d 74fc a1bb bdb3 e3bd
00000130: 4008 a2bd 00ec 7cbb d38d ddbd 549b d5bc
00000140: 864d 2b3e 4262 a23d d199 27be d218 94bd
00000150: dba0 f6ba 4e8b f3bd 1dfc afbd e62b adbd
00000160: 67c2 b6bd c87e 053d add0 04be 2820 d4bc
00000170: be82 083e 18d9 cebd 6325 ca3d 92cf b5bd
00000180: a8e2 10be 9d52 ed3b 56b6 763d 4f3e 28be
00000190: fc14 a03d e367 c6bd f96f 7fbd 9d28 06be
000001a0: c497 bbbc db48 ce3d 1b86 db3c dce4 5abd
000001b0: 90da a7bd 4b27 1b3e 5ba0 0fbe aa14 35be
000001c0: 7407 03be c098 e9bd 5d66 0ebe 3da7 81bc
000001d0: bea0 073e bc6b 94bc 28d2 003d 2348 8cbd
000001e0: fd76 043e 8d91 f9bd ab68 253d b3b0 ef3c
000001f0: 317a 10bd 0883 9d3d c299 63bd 5795 12be
00000200: f993 f0bd 9fc8 633b 48cb f83d 3e5b c1bc
00000210: 20a8 d7bd 8dd2 37bd 2d48 403c ef37 ac3d
00000220: ac47 8a3d 77a1 9bbd 8e40 c83d 246f 43be
00000230: 3856 233e cfa3 523d 7a9a bdbb 44c0 24be
00000240: 6010 e3b9 c06d 973d 3cdd 123e 09e7 a2ba
00000250: 76a0 32be 312a 00be ca33 8cbd 8138 d9bb
00000260: c912 15be b1a6 133e fd81 d83c 29e7 0e3e
00000270: f46b eebd 64ce d2bd 8c9e b2bd fb54 90bd
00000280: cb2b 03bb fe61 15bd c802 3bbe 8762 18bd
00000290: 2698 b2bc 9187 3dbd e5c0 893d 1230 c93c
000002a0: e964 e1bd 5ff4 993d 5e04 003d e59b 463d
000002b0: 694c 1a3e 4975 c7bd 2082 08be 7a7b 7d3d
000002c0: 2d03 9ebd fe65 24be 0896 c7ba 1768 91bc
000002d0: 9cd7 17be 68ce fa3c 2d5c bc3d 215b 9dbd
000002e0: 5cb2 0cbe 096d 0abe 4110 24be 44b1 013e
000002f0: d719 343e c501 8fbd f92e 33bd cf20 56bd
00000300: 2e00 2a3e 45db 1dbe 2a97 99bd f7ad 223e
00000310: a744 9c3d 97ac aabd 0c5e e3bd e048 423e
00000320: 826e 98bb ef1e 993b d910 55bd 820e c33d
00000330: 60fb 8cbc 06f4 0cbe b6f4 63bd 5b4c 363b
00000340: 0f45 023e 6eb5 fe3d 7da5 8a3d 49d8 b1bd
00000350: 7c33 b5bc ca52 4ebc efb3 183e 5477 0abe
00000360: a3af 15be 6c8d 0fbe 393f bdbd 785b 15bc
00000370: 0e98 38bd 3aa9 0bbd 8706 1dbe 60bf cbbd
00000380: 5e6f 1f3e 1d98 26be 4f62 de3d 7bd4 323c
00000390: b543 1f3d 30ca f83d c574 27bd afb4 3cbd
000003a0: 0d6f bebd d93b 42bd 6425 41bd 57b9 e1bd
000003b0: f4df 2bbe 5c7b 17be 1078 53bd 8797 a93d
000003c0: 139a 22be b5a2 513d f8b5 0abe 6a4c 99bd
000003d0: 3daa 083e 2e26 37be 4295 543d 3ca4 e83c
000003e0: e4e6 98bd c45c 86bc f63d 0dbe 3ea2 f03d
000003f0: 01fe bebc 5bb0 0f3d a7eb 293e 24dd 5e3c

encoder.layers.4.bias f4 [16]
-0.0833226 0.16192426 0.15692362 0.041145023 -0.06618077 -0.06856077 -0.07401461 -0.07491194
0.08313636 -0.07782235 -0.055645373 -0.12251798 -0.1313609 -0.06009401 0.0181289 0.07858786
00000000: 0aa5 aabd 79cf 253e 96b0 203e af87 283d
00000010: c989 87bd 9769 8cbd f994 97bd 6e6b 99bd
00000020: 6543 aa3d 5361 9fbd 67ec 63bd b5ea fabd
00000030: 7983 06be 2325 76bd 0f83 943c acf2 a03d

classifier.layers.0.weight f4 [16, 128]
-0.004768811 0.03456858 0.009016017 -0.06189214 -0.04924582 -0.0803843 0.028646689 -0.07685028
0.023853743 0.104485884 0.057236087 -0.040636845 0.008341856 0.029492773 0.032385472 -0.046546303
-0.06249374 0.101964496 0.004812383 -0.088861175 0.04274248 0.012551129 -0.0040563196 0.04444345
0.048090123 -0.024469245 -0.0026911236 0.01385332 0.037373636 -0.01397222 -0.093111016 0.005631552
0.06864907 -0.0657608 -0.003826088 -0.051630627 0.0020619375 -0.10606368 0.00045446848 -0.061949626
0.09515415 0.05788418 0.037575405 0.10259523 -0.024483602 0.06443317 -0.1000679 -0.020717172
0.10578484 0.03762606 -0.049383182 0.0017493911 -0.037129484 -0.05429131 0.018907461 -0.040393032
0.056894343 0.067545034 -0.014739612 0.024849277 0.06561533 0.091922104 -0.033355184 -0.05580144
0.076993965 0.03792756 0.06327006 -0.0878704 0.0964414 -0.070742786 0.0061792894 0.025613062
-0.03091198 0.09046515 -0.091162495 -0.060188945 0.0011174146 0.062889606 -0.0836492 -0.105704285
0.038208023 0.085336134 0.07502298 0.06406489 -0.06266646 -0.06621161 0.06028698 -0.047106173
0.06577886 0.0075670998 0.011845577 -0.016763583 0.046257243 -0.04117973 -0.094814874 -0.096015885
-0.056899324 -0.031704698 0.06476601 -0.07353097 0.03811172 0.057728395 -0.00352858 -0.08221016
0.0920162 0.032425474 0.05912947 0.048373364 -0.03956265 -0.030515408 -0.07994927 0.019506918
-0.0126003735 -0.031584695 0.02377741 -0.03117032 0.018740058 0.03389804 0.013415569 -0.028195385
-0.066033475 0.059809253 -0.028344935 0.04995532 -0.057796963 0.03349553 -0.063287824 -0.015944798
-0.08031708 0.0014761407 -0.030079467 0.008311074 -0.013728176 -0.0597372 -0.020905754 0.08597114
-0.01820511 -0.028144453 0.085140206 0.036984567 0.034819715 -0.03608513 -0.066278554 -0.022574516
-0.008284016 -0.08263438 -0.007467094 0.080689855 0.056963246 -0.03964091 -0.04015894 0.0820253
0.038221903 -0.06784347 0.06669919 0.0022057975 0.03131399 -0.045900237 -0.06701961 -0.06736536
0.06756815 0.0074893683 0.023382006 -0.0028775549 0.063387625 0.029899258 0.01640896 0.0053337575
-0.07047915 0.06522105 0.07627976 -0.05193601 -0.03912472 0.035565723 -0.043202046 0.012341082
0.0061352956 -0.0024347391 0.06547375 -0.03576985 -0.03259654 0.074459575 -0.004626965 0.06078133
0.04613669 -0.048113514 -0.043376334 0.039965738 0.013379432 -0.025257878 0.0063532265 0.04298163
-0.01397364 -0.028285014 0.026965005 -0.0630248 -0.061594993 0.08280104 -0.08668042 0.031920653
0.021562992 0.018098509 -0.06926945 0.08488021 -0.03912767 -0.072207704 0.033213634 0.025917403
0.08704866 -0.07241872 0.08517094 0.068451166 0.043614127 0.041376255 -0.08432202 -0.08360674
-0.0093974825 0.07087299 -0.00075531367 -0.034691986 0.01729969 -0.08544132 0.03594631 0.056496818
-0.04228692 -0.051627718 -0.014128298 -0.07213518 -0.0074313954 0.02937785 -0.01567082 0.07628211
0.017408544 0.074886836 -0.0072786342 0.0029240218 -0.013095489 -0.07215901 -0.07911389 0.086351566
-0.031536177 -0.013708947 -0.009288691 0.058588006 -0.04235621 -0.07333127 -0.051126644 -0.07615827
-0.006916498 -0.07395642 0.081722334 -0.009547399 0.02137311 -0.086677924 -0.020934656 -0.06651056
00000000: b043 9cbb c997 0d3d ebb7 133c 9d82 7dbd
00000010: fcb5 49bd 86a0 a4bd 76ac ea3c ae63 9dbd
00000020: ed68 c33c b2fc d53d 6370 6a3d d272 26bd
00000030: 48ac 083c d49a f13c a1a6 043d 56a7 3ebd
00000040: 70f9 7fbd c3d2 d03d 32b1 9d3b d9fc b5bd
00000050: bd12 2f3d 40a3 4d3c e0ea 84bb 560a 363d
00000060: 26fa 443d ba73 c8bc 905d 30bb 09f9 623c
00000070: 1915 193d bdeb 64bc fdb0 bebd e288 b83b
00000080: e297 8c3d 99ad 86bd 1bbf 7abb a37a 53bd
00000090: 9221 073b ea37 d9bd ba45 ee39 e4be 7dbd
000000a0: 2ee0 c23d f617 6d3d abe8 193d 731d d23d
000000b0: d691 c8bc 8af5 833d 66f0 ccbd 0fb7 a9bc
000000c0: b9a5 d83d c91d 1a3d 0546 4abd d34b e53a
000000d0: 1615 18bd 9160 5ebd d2e3 9a3c 2a73 25bd
000000e0: 0b0a 693d 0d55 8a3d 6a7e 71bc b690 cb3c
000000f0: 5561 863d a841 bc3d 729f 08bd 0d90 64bd
00000100: 03af 9d3d ee59 1b3d bc93 813d 65f5 b3bd
00000110: 1283 c53d 98e1 90bd a37b ca3b 7cd2 d13c
00000120: 1f3b fdbc cb45 b93d 67b3 babd af88 76bd
00000130: 3676 923a 44cc 803d 4650 abbd 7d7b d8bd
00000140: 0480 1c3d b6c4 ae3d a6a5 993d 7434 833d
00000150: 4657 80bd f499 87bd 7bef 763d 67f2 40bd
00000160: 11b7 863d 6ff5 f73b f313 423c c853 89bc
00000170: 3c78 3d3d 14ac 28bd 4d2e c2bd faa3 c4bd
00000180: 440f 69bd c9dc 01bd 0ba4 843d 6897 96bd
00000190: 091b 1c3d 9c74 6c3d c03f 67bb cd5d a8bd
000001a0: fd72 bc3d 93d0 043d be31 723d 2623 463d
000001b0: 720c 22bd 73fb f9bc 71bc a3bd f9cc 9f3c
000001c0: cc71 4ebc f45e 01bd d8c8 c23c e658 ffbc
000001d0: c084 993c acd8 0a3d facc 5b3c 02fa e6bc
000001e0: 8f3c 87bd 8cfa 743d a333 e8bc f39d 4c3d
000001f0: 82bc 6cbd 9c32 093d 0c9d 81bd aa9e 82bc
00000200: 487d a4bd 107b c13a 3769 f6bc 2c2b 083c
00000210: 25ec 60bc ffae 74bd 8b42 abbc a311 b03d
00000220: e222 95bc 328f e6bc fd5d ae3d 217d 173d
00000230: 1e9f 0e3d 00ce 13bd 0dbd 87bd 31ee b8bc
00000240: aeb9 07bc 373c a9bd 86ae f4bb b940 a53d
00000250: 4b52 693d 825e 22bd b37d 24bd e1fc a73d
00000260: 928e 1c3d 84f1 8abd 9699 883d 248f 103b
00000270: 1943 003d e301 3cbd 9441 89bd daf6 89bd
00000280: 2c61 8a3d 6069 f53b 9f8b bf3c 5c95 3cbb
00000290: 5fd1 813d 4aef f43c 156c 863c cdc6 ae3b
000002a0: 5f57 90bd 9d92 853d 9038 9c3d dbba 54bd
000002b0: 3e41 20bd 5dad 113d a1f4 30bd 4032 4a3c
000002c0: 970a c93b 2590 1fbb 1a17 863d 6883 12bd
000002d0: f383 05bd 437e 983d cc9d 97bb d8f5 783d
000002e0: d3f9 3c3d ad12 45bd 62ab 31bd 1db3 233d
000002f0: 6835 5b3c 9ce9 cebc ba2e d03b 810d 303d
00000300: b2f1 64bc f9b5 e7bc b7e5 dc3c 2513 81bd
00000310: 084b 7cbd 9793 a93d 8185 b1bd 3bbf 023d
00000320: dfa4 b03c 5343 943c 24dd 8dbd add5 ad3d
00000330: 5644 20bd a2e1 93bd 050b 083d bc50 d43c
00000340: 9146 b23d 4450 94bd 1a6e ae3d 2030 8c3d
00000350: baa4 323d 267a 293d 06b1 acbd 033a abbd
00000360: e6f7 19bc dc25 913d 3e00 46ba 2f19 0ebd
00000370: 14b8 8d3c dcfb aebd 703c 133d 3569 673d
00000380: 0d35 2dbd 9677 53bd 607a 67bc 9cbb 93bd
00000390: 1083 f3bb d1a9 f03c 1760 80bc cb39 9c3d
000003a0: 5d9c 8e3c 455e 993d 9c81 eebb f2a0 3f3b
000003b0: 768e 56bc 1ac8 93bd 7706 a2bd 17d9 b03d
000003c0: 142c 01bd 7e9b 60bc 982f 18bc faf9 6f3d
000003d0: b57d 2dbd b42e 96bd 2c6a 51bd def8 9bbd
000003e0: caa3 e2bb 7776 97bd 0a5e a73d b26c 1cbc
000003f0: a916 af3c 3284 b1bd 287f abbc b036 88bd

classifier.layers.0.bias f4 [16]
0.091189325 0.06323085 0.08600103 -0.020437418 -0.05887484 0.018587194 0.059754632 -0.03672159
0.048658166 -0.056358892 -0.06882438 -0.06277877 -0.027347578 -0.010008401 0.05079143 0.03170055
00000000: 78c1 ba3d 2d7f 813d 4f21 b03d 5f6c a7bc
00000010: bf26 71bd 2c44 983c 46c1 743d 6169 16bd
00000020: c94d 473d 95d8 66bd ccf3 8cbd 2892 80bd
00000030: 0708 e0bc 47fa 23bc ad0a 503d 70d8 013d

classifier.layers.2.weight f4 [5, 16]
0.12387177 -0.22911382 -0.066589 -0.18148342 0.20357606 -0.19268095 -0.065829955 -0.23166797
0.25720865 -0.0433062 0.009139329 -0.25085926 0.09316931 -0.1707089 -0.16827759 -0.14400414
0.13148603 0.15089825 0.1146059 0.19177297 0.0076465188 -0.17259233 0.18852802 -0.0013301373
0.062064633 -0.020186752 -0.04738131 -0.16692631 -0.117235266 0.22761387 -0.14533219 0.19251946
-0.0925551 0.070011556 0.057759523 0.21303329 0.058881223 0.113007665 0.06724089 -0.09479749
0.037497137 0.19844982 0.18065721 0.008262996 0.075921424 0.035809636 -0.10264379 -0.14060518
0.16034581 -0.03733763 -0.24057642 -0.16229585 -0.23280561 -0.0039419634 -0.2125133 -0.1798375
0.13089278 0.053795874 0.008027554 -0.0698698 -0.15902834 -0.06309652 -0.23378687 -0.16419041
0.10932572 0.2329078 -0.21052268 0.21717906 0.027392145 0.15068986 -0.15395252 0.10415837
0.19855516 0.22500864 -0.23583615 -0.17806724 -0.1749268 -0.23936713 0.19207129 0.23263937
00000000: 7cb0 fd3d d09c 6abe d05f 88bd cad6 39be
00000010: 3e76 503e 284e 45be dbd1 86bd 5e3a 6dbe
00000020: dab0 833e d861 31bd 20bd 153c a070 80be
00000030: 8dcf be3d 50ce 2ebe f650 2cbe d275 13be
00000040: 46a4 063e 1285 1a3e 80b6 ea3d 2260 443e
00000050: a68f fa3b 0bbc 30be 7d0d 413e 0058 aeba
00000060: 7c37 7e3d b05e a5bc e812 42bd bbee 2abe
00000070: 0b19 f0bd 9c13 693e f6d1 14be d223 453e
00000080: 878d bdbd 3862 8f3d 4095 6c3d 6625 5a3e
00000090: 702d 713d 9070 e73d 97b5 893d 3025 c2bd
000000a0: 9996 193d 6e36 4b3e 34fe 383e 8461 073c
000000b0: b17c 9b3d 20ad 123d e836 d2bd cefa 0fbe
000000c0: b131 243e 58ef 18bd aa59 76be e230 26be
000000d0: 9864 6ebe 962b 81bb 169d 59be 5227 38be
000000e0: c208 063e 1059 5c3d 0086 033c e617 8fbd
000000f0: 53d8 22be c038 81bd d365 6fbe 8821 28be
00000100: 2ae6 df3d 627f 6e3e 4293 57be 3064 5e3e
00000110: 7e65 e03c 714e 1a3e bba5 1dbe fc50 d53d
00000120: 0b52 4b3e aa68 663e 087f 71be 4257 36be
00000130: 0320 33be a81c 75be 56ae 443e 0439 6e3e

classifier.layers.2.bias f4 [5]
-0.16835792 0.14542979 0.010711922 -0.23953775 0.15360649
00000000: 0566 2cbe 8ceb 143e 0f81 2f3c 6249 75be
00000010: 054b 1d3e

pool.gate_nn.0.weight f4 [16, 16]
-0.16365883 0.24183565 0.13583216 0.097468436 -0.13465098 -0.08408284 0.08465356 -0.06591815
0.20437911 -0.1216768 -0.18275046 -0.11369845 -0.24843422 -0.007098466 0.16879085 -0.051924616
0.1306786 -0.20269877 0.11721799 -0.09319517 -0.15262851 -0.08401433 -0.17445526 0.015992105
0.027369618 -0.028006583 -0.17476118 -0.027721733 0.0054082572 0.023590535 0.021545202 -0.056083053
-0.03660816 -0.18668333 0.08155355 -0.022052348 -0.1641247 0.04034981 0.18381944 -0.1110844
-0.036650926 0.049690157 0.17699805 0.019404173 0.103309184 0.12925398 -0.11767337 -0.24722809
0.08271417 -0.06310624 -0.093011975 0.0899058 -0.048266888 0.11439049 0.2443577 -0.18233731
-0.13217434 0.13111338 0.15092057 -0.04063657 -0.14083514 0.0537104 -0.12097585 0.030709535
-0.18287924 -0.10114905 -0.20426744 -0.02537489 0.1592381 0.1687991 0.21506688 -0.08754784
0.17619187 0.1550582 0.14965463 0.050280392 0.22775248 -0.18025663 0.22537729 0.0334765
-0.0117791295 -0.19434434 0.007036984 -0.09715366 -0.16800159 -0.08921394 -0.06422147 0.0030769408
-0.10142177 -0.23893768 -0.21187627 -0.18266979 0.015229821 -0.24560389 0.044887275 0.05396256
-0.20548657 0.03606993 -0.14975208 -0.17764571 0.036122054 -0.12846431 -0.086687565 -0.09230685
-0.06915897 0.22542667 0.1794742 -0.010967582 0.16125476 -0.21342438 -0.23106793 0.2050417
0.20932752 0.08895022 0.13342309 0.022796214 -0.21294206 -0.20054647 -0.10301605 -0.17013153
-0.0351007 0.19529971 -0.11816499 -0.017146707 0.118686914 0.027515233 -0.20427677 0.20554832
-0.23254728 -0.22130945 -0.2402451 -0.21664098 0.060890794 -0.02365622 0.12084898 -0.0048380494
0.21682468 0.0009811223 0.13896692 0.11842075 0.1679098 -0.09387505 -0.10902923 0.16931245
-0.08353996 0.108593434 -0.1490404 -0.06436813 -0.048760116 0.20878059 -0.010164231 -0.23939925
-0.08368799 0.22064415 -0.005173743 -0.19360211 0.16531402 0.11323702 -0.101059586 0.1201272
0.040787965 -0.23534763 0.12093815 -0.09078437 -0.017939508 -0.07943967 0.18411165 -0.13802832
-0.0455212 0.037022322 -0.08368045 0.14642519 0.112707764 0.15553793 -0.13022614 -0.24349466
-0.15606025 -0.13273528 0.0711945 0.0800384 -0.025008887 -0.19722545 0.035324425 -0.2285744
0.037294656 -0.19726443 0.1615878 0.14265242 0.09874293 0.24861258 -0.22193843 0.123607814
-0.117620766 -0.1755721 -0.14462444 0.158748 -0.18543115 0.06626296 -0.0741891 -0.16492257
0.054063886 0.040385336 0.20830235 -0.15874305 0.1504905 0.20702294 -0.010129303 -0.19841003
0.07319713 -0.15547091 -0.18127748 -0.13047862 -0.23678938 0.19248518 -0.21010002 -0.04950604
0.21551856 -0.13252383 -0.01660806 0.18729657 -0.012029499 0.09289709 0.014928848 0.21721292
-0.17127609 -0.0890992 -0.06771591 0.15435636 0.14099121 0.010060161 -0.12628296 0.08356941
0.08903223 0.19001079 0.14592841 0.16446671 -0.14513528 -0.23427564 -0.1305806 0.101968676
-0.10881376 -0.14017004 -0.04903549 -0.24000356 0.1585232 0.056112736 -0.16157112 0.14302793
0.19477472 0.15431494 -0.20134786 -0.16593516 -0.125987 -0.069693476 0.22305873 0.17514703
00000000: 2e96 27be c4a3 773e 9617 0b3e 889d c73d
00000010: f2e1 09be a033 acbd d85e ad3d 1800 87bd
00000020: c248 513e b031 f9bd f022 3bbe bcda e8bd
00000030: 8a65 7ebe 409a e8bb 82d7 2c3e e8ae 54bd
00000040: 9cd0 053e 4490 4fbe fc0f f03d 1cdd bebd
00000050: a64a 1cbe b40f acbd 66a4 32be e001 833c
00000060: 4036 e03c 106e e5bc 98f4 32be b018 e3bc
00000070: c037 b13b f040 c13c 907f b03c 58b7 65bd
00000080: 70f2 15bd ea29 3fbe 8c05 a73d 20a7 b4bc
00000090: 4e10 28be d845 253d 2a3b 3c3e 3880 e3bd
000000a0: 481f 16bd e887 4b3d fa3e 353e 80f5 9e3c
000000b0: c493 d33d 285b 043e bcfe f0bd 5c29 7dbe
000000c0: 0c66 a93d d83d 81bd 107d bebd 8820 b83d
000000d0: 80b3 45bd 9045 ea3d e838 7a3e a2b6 3abe
000000e0: b658 07be 9642 063e ec8a 1a3e 8872 26bd
000000f0: 1637 10be 70ff 5b3d 30c2 f7bd 9092 fb3c
00000100: b244 3bbe 3c27 cfbd 7c2b 51be 00df cfbc
00000110: 500f 233e acd9 2c3e 7e3a 5c3e 484c b3bd
00000120: a46b 343e 94c7 1e3e 103f 193e d0f2 4d3d
00000130: f237 693e 3295 38be 4ec9 663e a81e 093d
00000140: 40fd 40bc 3402 47be 8096 e63b 80f8 c6bd
00000150: 9c08 2cbe ccb5 b6bd 8c86 83bd 80a6 493b
00000160: 38b6 cfbd 14ac 74be 18f6 58be ca0d 3bbe
00000170: 8086 793c 967f 7bbe b8db 373d d807 5d3d
00000180: 126b 52be 10be 133d 9c58 19be c2e8 35be
00000190: b8f4 133d 268c 03be 4089 b1bd 600b bdbd
000001a0: 38a3 8dbd 40d6 663e 16c8 373e 60b1 33bc
000001b0: f81f 253e ec8b 5abe 129d 6cbe 74f6 513e
000001c0: f459 563e 882b b63d 10a0 083e 20bf ba3c
000001d0: 7c0d 5abe 0e5c 4dbe 14fa d2bd f636 2ebe
000001e0: c0c5 0fbd a6fc 473e 7c00 f2bd 4077 8cbc
000001f0: 2012 f33d a067 e13c ee2d 51be 427b 523e
00000200: e020 6ebe f29e 62be d002 76be 22d7 5dbe
00000210: a068 793d b0ca c1bc ac7f f73d 8088 9ebb
00000220: 4a07 5e3e 0099 803a 584d 0e3e 9486 f23d
00000230: 8cf0 2b3e 9041 c0bd b84a dfbd 3e60 2d3e
00000240: 0017 abbd 3c66 de3d 0c9e 18be 70d3 83bd
00000250: b0b8 47bd 94ca 553e e087 26bc 1425 75be
00000260: 9c64 abbd 8af0 613e 8088 a9bb a23f 46be
00000270: 1448 293e d0e8 e73d 54f8 cebd 4005 f63d
00000280: 4811 273d f8fe 70be 6cae f73d 28ed b9bd
00000290: e0f5 92bc 44b1 a2bd c487 3c3e 4c57 0dbe
000002a0: 7074 3abd b8a4 173d a860 abbd 7cf0 153e
000002b0: 54d3 e63d 5645 1f3e 005a 05be aa56 79be
000002c0: 42ce 1fbe c2eb 07be 6cce 913d 2ceb a33d
000002d0: 70df ccbc 78f5 49be 58b0 103d 680f 6abe
000002e0: 48c2 183d b0ff 49be 4677 253e 7a13 123e
000002f0: bc39 ca3d 4c94 7e3e d443 63be 1826 fd3d
00000300: 28e3 f0bd 2cc9 33be 6e18 14be d68e 223e
00000310: aae1 3dbe e0b4 873d 74f0 97bd 76e1 28be
00000320: 1872 5d3d 186b 253d 364d 553e 8a8d 22be
00000330: 2e1a 1a3e d2fd 533e 60f5 25bc 002c 4bbe
00000340: 60e8 953d c433 1fbe cea0 39be 309c 05be
00000350: ea78 72be d61a 453e 7624 57be d8c6 4abd
00000360: e6b0 5c3e 54b4 07be a00d 88bc acca 3f3e
00000370: 6017 45bc d440 be3d 2098 743c 106d 5e3e
00000380: 0063 2fbe a479 b6bd a4ae 8abd 980f 1e3e
00000390: 0060 103e 60d3 243c 5250 01be 7026 ab3d
000003a0: 8856 b63d 3092 423e 426e 153e f669 283e
000003b0: 589e 14be f4e5 6fbe ecb6 05be f4d4 d03d
000003c0: c0d9 debd bc88 0fbe 70d9 48bd 7ec3 75be
000003d0: e853 223e 78d6 653d e672 25be ea75 123e
000003e0: 0673 473e bc04 1e3e 222e 4ebe e8ea 29be
000003f0: bc02 01be 74bb 8ebd 8269 643e be59 333e

pool.gate_nn.2.weight f4 [1, 16]
0.20971581 -0.013673812 0.1789445 -0.21128967 0.019727498 -0.0383434 0.14151594 -0.20190418
0.004235059 -0.0967426 -0.14294863 0.121010184 -0.014190614 0.13196039 -0.078848004 -0.24284068
00000000: bebf 563e 2008 60bc 3a3d 373e 525c 58be
00000010: 909b a13c f80d 1dbd 8ee9 103e f8bf 4ebe
00000020: 40c6 8a3b fc20 c6bd 2061 12be 30d4 f73d
00000030: c07f 68bc a020 073e 107b a1bd 3aab 78be

pool.nn.layers.0.weight f4 [16, 16]
0.1401989 -0.22303282 0.15068844 0.15905097 -0.23058464 0.1011633 0.2331282 0.13864836
-0.13436194 0.09041357 -0.22834711 0.2122783 0.0040597734 0.030456612 -0.18612832 0.09619393
-0.19575979 0.2204902 0.19219123 -0.24312662 0.20362963 -0.14769536 -0.07371798 -0.19004579
0.047159813 -0.105958454 -0.1663422 0.1551093 -0.008438603 -0.24179845 -0.20673569 0.15892524
0.254712 0.10676435 -0.098077 0.09071755 0.022101523 0.1145244 -0.11116211 0.13398084
0.09309516 0.070721544 0.12948775 -0.22675388 0.021889627 0.1078656 0.23824568 -0.0521412
-0.057921793 0.2088547 0.21692015 0.10861596 0.25210616 0.08106775 0.050696287 0.23166478
0.052594192 0.00993158 -0.009078915 0.24440546 -0.07117304 -0.16873442 -0.075763315 0.0012422337
0.011558082 -0.12352222 -0.1361593 0.13135435 -0.19619408 0.019512786 0.11421451 -0.039839804
-0.12069049 -0.13622263 -0.21885762 -0.072765514 -0.20006453 -0.039950475 0.23627016 0.13618825
0.11284458 0.09557056 0.050634913 -0.18265997 0.053181805 -0.18118154 0.044212986 -0.0005632478
0.026542585 -0.18593645 -0.08688867 0.16540147 0.2124634 -0.15573671 -0.09213213 0.08517986
0.22954738 -0.16241246 -0.1543158 -0.08422336 -0.055137694 0.21015537 -0.16488314 -0.049490422
0.13001096 -0.14304104 -0.18793333 -0.1792244 0.030522883 -0.08018753 0.017918706 -0.20577449
0.21988341 0.22779709 -0.20137155 0.114250034 0.048116446 0.08465043 -0.1065591 0.23943478
-0.1397658 -0.039833754 0.13419703 0.10628587 -0.07351023 -0.058343142 -0.17154565 0.10736227
0.13676208 -0.048645563 0.007840649 -0.039800968 0.044346508 -0.16884647 0.14692028 -0.23073821
0.1762187 0.123397104 0.21257865 0.12469265 -0.22537678 -0.10897557 -0.06754198 0.10988292
0.22400811 -0.17942008 -0.21044782 -0.03136787 -0.0562526 -0.19399813 0.03172502 0.20996666
-0.20872295 -0.005815327 0.11723015 0.14322555 -0.1284118 0.008182973 0.16794303 -0.057877034
-0.009028703 0.18382555 0.06396937 -0.13809225 -0.032119364 -0.20643225 0.15511954 0.24956548
-0.2397185 -0.16182902 0.144499 -0.067248195 0.056696862 -0.038176417 0.074712515 0.2283296
0.11275438 0.13900983 -0.05158285 -0.16192254 -0.095884375 0.13359086 -0.20293245 -0.2470218
-0.00965275 -0.16945681 -0.19944261 -0.12179971 0.054256357 0.2168909 -0.22169112 0.08528062
-0.22910878 -0.17342886 -0.06025502 0.24900335 0.20983645 -0.03757748 -0.03735152 0.015680343
0.037747145 0.095411986 0.21591172 -0.0512096 -0.13592634 -0.21456122 0.17518365 -0.09052551
-0.1648922 0.1667742 0.057134468 0.037619237 -0.08065575 0.12661569 -0.14370692 0.11739855
0.22916181 -0.036496956 -0.08267511 -0.16192955 0.23085965 -0.24034433 -0.1953397 0.08349048
0.23398969 -0.08803019 -0.11181384 -0.0345259 -0.24966621 0.1732029 -0.07968387 0.16107482
0.11126077 -0.0934262 0.046902627 -0.1332533 -0.041572332 0.003372699 -0.1343224 -0.23598683
0.100786775 0.06813744 0.09854272 0.24077016 -0.0053138137 -0.092244565 0.12052035 -0.08369312
0.1364406 -0.084644645 0.033250988 0.079618245 0.19741061 -0.2400065 0.012913346 -0.051146448
00000000: 4d90 0f3e b762 64be 124e 1a3e 42de 223e
00000010: 611e 6cbe b42e cf3d 29b9 6e3e d6f9 0d3e
00000020: 2d96 09be c02a b93d d3d3 69be 7c5f 593e
00000030: d907 853b 2580 f93c 6c98 3ebe 5301 c53d
00000040: 4175 48be 2fc8 613e c7cd 443e 2ff6 78be
00000050: 4984 503e 743d 17be 74f9 96bd 5d9b 42be
00000060: a62a 413d bf00 d9bd 9c55 2abe f9d4 1e3e
00000070: 1142 0abc 039a 77be 85b2 53be 4cbd 223e
00000080: 9c69 823e 44a7 da3d 98dc c8bd 1fca b93d
00000090: 410e b53c c58b ea3d f6a8 e3bd 4632 093e
000000a0: ada8 be3d 75d6 903d 7098 043e 2b32 68be
000000b0: e051 b33c a4e8 dc3d adf6 733e 0392 55bd
000000c0: 673f 6dbd 02de 553e 5120 5e3e 0b72 de3d
000000d0: 0f14 813e d906 a63d e9a6 4f3d 8839 6d3e
000000e0: 026d 573d 11b8 223c bbbf 14bc 6d45 7a3e
000000f0: 2cc3 91bd b7c8 2cbe cc29 9bbd 72d2 a23a
00000100: 1c5e 3d3c 38f9 fcbd 586d 0bbe c181 063e
00000110: 1ae7 48be 47d9 9f3c 4ce9 e93d 102f 23bd
00000120: 932c f7bd f27d 0bbe 361c 60be 1606 95bd
00000130: b7dd 4cbe 1ca3 23bd cef0 713e ef74 0b3e
00000140: 0f1b e73d 7fba c33d 8e66 4f3d 370b 3bbe
00000150: 2ad5 593d a787 39be ad18 353d eca6 13ba
00000160: d66f d93c 2066 3ebe b0f2 b1bd 015f 293e
00000170: 0190 593e 7279 1fbe c5af bcbd c772 ae3d
00000180: 780e 6b3e 744f 26be f604 1ebe 4c7d acbd
00000190: 10d8 61bd f832 573e 20d7 28be 78b6 4abd
000001a0: 9821 053e 5a79 12be 9871 40be 9a86 37be
000001b0: 200b fa3c 5c39 a4bd 40ca 923c 8cb6 52be
000001c0: 1e29 613e a443 693e 5834 4ebe ecfb e93d
000001d0: c015 453d 345d ad3d a83b dabd 642e 753e
000001e0: c41e 0fbe b828 23bd f26a 093e 68ac d93d
000001f0: 888c 96bd 38f9 6ebd aaa9 2fbe c0e0 db3d
00000200: 5c0b 0c3e 9240 47bd 1176 003c 5706 23bd
00000210: afa4 353d 17e6 2cbe 4572 163e a346 6cbe
00000220: ad72 343e 9fb7 fc3d 38ae 593e dc5e ff3d
00000230: 2cc9 66be 952e dfbd 7353 8abd 4c0a e13d
00000240: 6262 653e e6b9 37be a27f 57be 987b 00bd
00000250: 2069 66bd 72a7 46be 18f2 013d 8001 573e
00000260: 78bb 55be 808e bebb 5c16 f03d b8a9 123e
00000270: 627e 03be e011 063c 42f9 2b3e 7810 6dbd
00000280: 20ed 13bc c43c 3c3e 6002 833d 0e68 0dbe
00000290: 988f 03bd fa62 53be a8d7 1e3e 188e 7f3e
000002a0: c478 75be 82b6 25be 8cf7 133e 6cb9 89bd
000002b0: f83a 683d e05e 1cbd e002 993d 3ccf 693e
000002c0: c5eb e63d 9858 0e3e 8a48 53bd 06cf 25be
000002d0: 075f c4bd 0bcc 083e 86cd 4fbe 48f3 7cbe
000002e0: 9126 1ebc 1686 2dbe af3a 4cbe 2072 f9bd
000002f0: ea3b 5e3d a618 5e3e ff02 63be 9ba7 ae3d
00000300: 7e9b 6abe 5697 31be f8cd 76bd bcfa 7e3e
00000310: 5edf 563e d8ea 19bd e8fd 18bd 1074 803c
00000320: c09c 1a3d 5c67 c33d f617 5d3e 28c1 51bd
00000330: 4630 0bbe f0b5 5bbe 5863 333e 7065 b9bd
00000340: 80d9 28be dbc6 2a3e d505 6a3d a116 1a3d
00000350: d82e a5bd 8ba7 013e e827 13be a76e f03d
00000360: 65a9 6a3e d57d 15bd 9151 a9bd dcd0 25be
00000370: 7966 6c3e d31c 76be 2107 48be 0ffd aa3d
00000380: fe9a 6f3e 2c49 b4bd a8fe e4bd 086b 0dbd
00000390: 80a8 7fbe 1a5c 313e 4c31 a3bd ccf0 243e
000003a0: b0dc e33d 3c56 bfbd f81c 403d 8e73 08be
000003b0: c047 2abd 8008 5d3b d08b 09be 88a6 71be
000003c0: 4c69 ce3d a48b 8b3d c4d0 c93d 748c 763e
000003d0: 801f aebb b8ea bcbd 60d3 f63d 4c67 abbd
000003e0: 16b7 0b3e 2c5a adbd 3032 083d e40e a33d
000003f0: 0226 4a3e 44c4 75be 8092 533c f07e 51bd

pool.nn.layers.0.bias f4 [16]
0.23137616 0.13807052 0.13662934 0.06636079 0.2550159 0.10615027 -0.099090695 -0.2110579
0.06507401 -0.08931556 -0.04646942 -0.030698916 -0.107340544 0.15943846 -0.20050111 -0.14572364
00000000: dfed 6c3e 5c62 0d3e 90e8 0b3e 2ae8 873d
00000010: 7291 823e 5065 d93d 10f0 cabd 901f 58be
00000020: 8645 853d 14eb b6bd b856 3ebd 4b7c fbbc
00000030: 5cd5 dbbd d643 233e 2a50 4dbe 9438 15be

pool.nn.layers.2.weight f4 [16, 16]
0.13234217 -0.20094088 -0.1143174 0.037219398 0.018747564 0.02092647 -0.055704832 -0.17263275
-0.002343662 -0.11719763 -0.21376187 -0.19069307 0.1250464 -0.2229701 0.18804702 0.2101388
0.22941765 0.052075934 -0.0835279 0.03549175 0.16005929 0.18939099 -0.20181924 -0.2359077
0.23293199 0.00061130524 0.16478223 -0.15780783 0.2197352 0.18745425 0.11069372 0.07592863
0.10006215 -0.21438615 0.04992346 0.17370433 -0.100824215 0.0954965 0.119466186 0.20483851
0.22672428 0.24124354 0.13866872 -0.04030858 0.2430388 -0.05635953 0.12053168 0.24231422
-0.17555968 -0.2523569 -0.16446064 -0.00057909434 -0.09032844 -0.17516911 -0.2315059 -0.18589008
0.18338351 -0.053007573 0.16221586 -0.16804644 -0.037057847 0.08356354 -0.032295465 -0.24165505
-0.16412346 0.05740221 -0.21634468 -0.20694251 0.13901171 -0.075834736 0.029725045 0.08412272
-0.25280976 0.14149666 -0.016771942 0.0009461942 0.03499767 0.025504952 0.15544066 -0.22596377
-0.22398761 -0.14851148 0.06301488 0.15564814 -0.093230516 -0.26062387 -0.08438471 0.062232167
0.03253204 0.17930838 -0.24528268 0.037769414 0.14917016 -0.17047146 -0.20071277 -0.13959256
0.16146293 0.124172926 0.123326026 -0.045168795 0.14101467 0.021068364 0.0028086007 0.20894396
0.13049912 -0.21136987 0.18092775 0.04295439 -0.15192595 0.11636761 -0.012615502 0.041404486
-0.13233359 -0.15694456 -0.1928609 -0.1873555 0.18272032 0.017195737 0.23553443 -0.06249976
-0.26191843 0.15528846 -0.020697027 -0.071975045 -0.072904795 0.16922392 0.11581293 -0.051203847
-0.08659515 0.052258898 0.07083141 -0.13964027 0.22721183 0.18614477 -0.019651175 -0.15459907
0.21436606 -0.0033716261 -0.12753955 0.14339207 -0.040965438 -0.13180858 -0.065693825 -0.089484274
-0.13931325 0.1444235 -0.12170296 0.0091355555 0.11714646 -0.19741559 0.02581948 -0.21762437
0.07496183 -0.0022098422 0.20681879 0.22965242 -0.09439689 0.1492149 -0.20968372 -0.19648194
0.018156588 -0.027371926 0.0888984 -0.24105056 -0.025601443 -0.10904503 -0.08883324 -0.072843075
0.025125008 -0.20251545 0.018233985 -0.16303322 -0.008911341 -0.103876136 0.24278268 0.08850667
0.021986231 -0.015381188 0.24539949 -0.062447146 0.08540219 0.15369923 0.19004828 0.072815746
-0.2207249 0.0048803985 -0.24847752 -0.047223214 0.11002767 -0.16153072 0.18756312 -0.24829307
-0.07950042 0.1270493 0.16742188 -0.096288495 -0.10198284 -0.17617564 -0.12820113 0.097438365
-0.13816167 -0.23896101 -0.10828012 0.17073764 0.047037214 0.081970684 0.113294125 0.07623744
-0.1908665 0.11683015 -0.13313863 -0.061616916 0.08155509 0.12208949 0.07057384 -0.11098197
0.20077917 -0.15994349 0.062368333 0.07954475 -0.23229876 0.23612523 -0.03238815 -0.115659714
-0.047478653 -0.055926204 0.15944673 0.03495186 -0.061453577 0.08794904 -0.09312391 0.07351166
-0.111282 0.14072737 0.069812626 0.051084224 0.2320005 -0.14595504 0.04161942 0.056571394
0.049104888 0.0983162 0.014517464 0.03706396 -0.11978261 0.08864908 0.074762166 0.14909929
0.1697446 0.23361555 0.15912747 -0.059534006 0.24150711 -0.18984263 0.19927442 0.033304036
00000000: b584 073e 72c3 4dbe 3e1f eabd 5e73 183d
00000010: 7e94 993c fd6d ab3c c02a 64bd a4c6 30be
00000020: 2098 19bb 5005 f0bd 64e4 5abe 0b45 43be
00000030: 2a0c 003e 4652 64be 668f 403e a02e 573e
00000040: 76ec 6a3e 934d 553d ad10 abbd cc5f 113d
00000050: 95e6 233e b6ef 413e b4a9 4ebe ca91 71be
00000060: b985 6e3e 0040 203a acbc 283e 6098 21be
00000070: 4402 613e 02f4 3f3e 64b3 e23d 7880 9b3d
00000080: 62ed cc3d 0b88 5bbe 8b7c 4c3d 8cdf 313e
00000090: ed7c cebd ab93 c33d b0aa f43d 30c1 513e
000000a0: 692a 683e 8c08 773e 2cff 0d3e 9c1a 25bd
000000b0: 2adf 783e 40d9 66bd 50d9 f63d 3821 783e
000000c0: ebc5 33be ec34 81be 5f68 28be 5dce 17ba
000000d0: 1efe b8bd 885f 33be e20f 6dbe f859 3ebe
000000e0: e3c8 3b3e 781e 59bd ea1b 263e 5e14 2cbe
000000f0: f8c9 17bd 5c23 ab3d 4048 04bd 6c74 77be
00000100: fb0f 28be 941e 6b3d 7689 5dbe bde8 53be
00000110: 1659 0e3e 3e4f 9bbd f081 f33c 8848 ac3d
00000120: 4870 81be 80e4 103e 5065 89bc 050a 783a
00000130: b859 0f3d c3ef d03c d62b 1f3e 0c63 67be
00000140: 025d 65be 6513 18be f20d 813d 3a62 1f3e
00000150: a4ef bebd 7e70 85be e4d1 acbd 28e7 7e3d
00000160: 5140 053d 9e9c 373e 622b 7bbe 1ab4 1a3d
00000170: 10c0 183e 1290 2ebe a687 4dbe 5af1 0ebe
00000180: 8a56 253e 604e fe3d 5b92 fc3d ea02 39bd
00000190: 2666 103e 9097 ac3c 8010 383b 68f5 553e
000001a0: 90a1 053e 5871 58be 2045 393e f1f0 2f3d
000001b0: 7a92 1bbe 2452 ee3d 40b1 4ebc c097 293d
000001c0: 7582 07be 13b6 20be 547d 45be 1fda 3fbe
000001d0: 091b 3b3e 13de 8c3c f02f 713e c0ff 7fbd
000001e0: 2c1a 86be f003 1f3e d08c a9bc a767 93bd
000001f0: 1c4f 95bd 0949 2d3e 542f ed3d 20bb 51bd
00000200: cc58 b1bd 6d0d 563d 0f10 913d dcfd 0ebe
00000210: 38aa 683e bc9c 3e3e 80fb a0bc 384f 1ebe
00000220: c782 5b3e 80f6 5cbb ba99 02be 5fd5 123e
00000230: 60cb 27bd d4f8 06be 7c8a 86bd 8843 b7bd
00000240: 22a8 0ebe c1e3 133e 673f f9bd 4cad 153c
00000250: 7cea ef3d 5027 4abe 6083 d33c ecd8 5ebe
00000260: 9785 993d 00d3 10bb 4ec8 533e 012a 6b3e
00000270: 2853 c1bd cacb 183e 54b7 56be 9032 49be
00000280: 20bd 943c 173b e0bc 5d10 b63d f5d5 76be
00000290: 1eba d1bc 0053 dfbd 34ee b5bd c02e 95bd
000002a0: f6d2 cd3c 3660 4fbe 705f 953c 2ef2 26be
000002b0: e000 12bc 03bd d4bd 069c 783e fc42 b53d
000002c0: 781c b43c 6101 7cbc 014a 7b3e 94c8 7fbd
000002d0: 58e7 ae3d 5563 1d3e 049c 423e 6c20 953d
000002e0: b505 62be c0eb 9f3b e470 7ebe 216d 41bd
000002f0: 3056 e13d 4f68 25be 8c10 403e 8a40 7ebe
00000300: 1ed1 a2bd 3619 023e a470 2b3e e732 c5bd
00000310: 61dc d0bd 6367 34be 2847 03be c48d c73d
00000320: 417a 0dbe 32b2 74be f8c1 ddbd d9d5 2e3e
00000330: 18aa 403d 3fe0 a73d c006 e83d 6022 9c3d
00000340: 8272 43be a544 ef3d 7e55 08be 0562 7cbd
00000350: 5b06 a73d 0e0a fa3d 0489 903d 844a e3bd
00000360: 0e99 4d3e 3ac8 23be f075 7f3d 5ce8 a23d
00000370: badf 6dbe d0ca 713e 70a9 04bd 00df ecbd
00000380: fa78 42bd e012 65bd 0146 233e ae29 0f3d
00000390: bfb6 7bbd a01e b43d c0b7 bebd 488d 963d
000003a0: d1e7 e3bd d61a 103e ecf9 8e3d b13d 513d
000003b0: 8a91 6d3e 3d75 15be 2079 2a3d 68b7 673d
000003c0: 3522 493d 015a c93d a8da 6d3c 61d0 173d
000003d0: 9650 f5bd a68d b53d e81c 993d 7cad 183e
000003e0: 87d1 2d3e ea38 6f3e 50f2 223e eed9 73bd
000003f0: a44d 773e 1b66 42be 980e 4c3e d069 083d
