models_spike/lolcat_head1_AD_HF02_4.pt (torch, 158942 bytes, 16 tensors)

encoder.layers.0.weight f4 [64, 499]
000000 2a ea 41 3d 91 d4 8d bc 59 6f 8a 3c d3 d3 14 bd
       0.047342457 -0.017313274 0.016898798 -0.036334824
000010 c1 cd d8 bc f7 a0 0e bd c4 98 a1 3c be 63 50 3c
       -0.026465299 -0.034821477 0.019726165 0.012719093
000020 8e 04 b6 3c 81 3f 1e bd 61 fb 37 3c 01 47 e8 bc
       0.022218969 -0.03863478 0.011229367 -0.02835417
000030 4f 89 a4 3c 02 27 20 bc 09 c5 2e bc d1 bd 8d bc
       0.020085005 -0.009774925 -0.010667094 -0.017302426
000040 31 04 40 3c 09 d1 10 3b b5 fe 2f 3c bf 61 d7 ba
       0.011719749 0.002209725 0.010741879 -0.0016432329
000050 28 e3 c4 bc 2a d3 2a 3d 34 0b 60 3a 56 7e 92 bc
       -0.024034098 0.041705288 0.0008546591 -0.017882507
000060 b6 dc 42 3b 79 0b a1 bc d4 0c b8 ba bb 10 47 3d
       0.0029733605 -0.01965879 -0.0014041909 0.04859994
000070 41 8c 14 3d c9 3f b1 3c 99 bf 65 bc dd 2f f3 bc
       0.03626657 0.02163686 -0.014022731 -0.029685909
000080 61 02 d7 3c 6e 34 12 bc b7 a8 e4 bc e8 7e 4e 3c
       0.026246252 -0.008923633 -0.02791248 0.012603499
000090 ec 6b 0f bd 4f de 04 bd 3c 54 05 3d f1 62 9c bc
       -0.03501503 -0.032438572 0.032551035 -0.019090148
0000a0 c5 c8 1b 3c 1a 20 00 bd 06 46 1f 3d 51 96 72 3c
       0.009508316 -0.031280614 0.03888514 0.014806346
0000b0 3b ed 59 3b f5 fb ba 3c 09 d4 55 3d c3 09 fe 39
       0.0033252973 0.02282522 0.052204166 0.00048453928
0000c0 56 94 61 3d 5c 48 5c ba 14 d0 80 3d 18 c1 4e 3c
       0.055073105 -0.00084031164 0.06289688 0.012619279
0000d0 25 50 fb 3c 6d 8c 04 3d ee ed 34 3c 73 31 25 3d
       0.030677864 0.032360483 0.011043055 0.04033036
0000e0 1d 40 50 3d 6b 82 ff 3c ab 51 db bc 06 6d 8b bc
       0.050842393 0.031190118 -0.02677234 -0.01701976
0000f0 08 48 ba bc fa e6 11 bd 7e dd 12 3d 5a dc 0c 3c
       -0.022739425 -0.035620667 0.035855763 0.008597458
000100 70 b5 f2 bc 25 07 f0 3c 9b 48 36 3c 54 b6 46 bd
       -0.029627532 0.029300282 0.011125709 -0.048513725
000110 1a 02 67 bb 10 88 f3 bc 55 de 56 3c 4d 9f f2 3b
       -0.0035249055 -0.029727966 0.0131145315 0.007404244
000120 fa a1 b6 39 6c ce 4a bb f6 62 70 3c 17 7d c7 3c
       0.00034834427 -0.003094579 0.014672032 0.02435164
000130 45 9c 96 3b bf 58 15 3d fc ca 09 bc 6a 75 96 3c
       0.0045962655 0.036461588 -0.008410212 0.018366534
000140 6b 7f 66 3d ee 6a 86 bb 2e 9b 2a bd 5c 04 41 bc
       0.05627386 -0.0041021025 -0.041651897 -0.0117808245
000150 c8 59 c6 bc d8 71 07 3d 80 91 12 bd 67 95 a3 3c
       -0.024212733 0.033067554 -0.03578329 0.019968702
000160 b9 74 f8 3c cd fe 30 3d ea ea ff 3c ae 68 21 3d
       0.030329095 0.043211747 0.031239945 0.03940647
000170 6d 73 89 bc 11 7d 26 bb 37 d8 ff bb ca e0 8e ba
       -0.016778672 -0.0025404135 -0.0078077572 -0.0010900733
000180 93 31 fc 3c 06 7c f5 3c 08 ec fe 39 ac 83 5c 39
       0.030785358 0.029966366 0.00048622512 0.00021029887
000190 2b 62 2a bc d9 2e 08 bc 18 37 7a bc 8f 01 03 3d
       -0.010399382 -0.008311951 -0.015271924 0.03198391
0001a0 f9 47 59 3d 8b 88 23 3d 4d 60 66 3d e2 5b 08 3d
       0.053047154 0.03992514 0.056244183 0.03329075
0001b0 cc 06 da 3c 33 29 65 bc 09 d2 a3 3c 5c 1a 64 3c
       0.02661457 -0.013986873 0.019997614 0.0139223
0001c0 87 3b 64 3c fe b1 75 bc 01 9b fa 3c 6b 8a 9d 3c
       0.013930208 -0.01499605 0.03059149 0.019231042
0001d0 8d cf ca 3c 62 f7 6d bc 59 f9 6a 3d 30 02 48 3d
       0.024757171 -0.014524313 0.057366703 0.04883021
0001e0 70 bd 7c 3d cf 52 2a 3c 89 f2 37 3c ab 3f 21 3c
       0.0617041 0.01039572 0.0112272585 0.00984184
0001f0 4d c6 6e 3d fe 57 65 3d 71 15 80 3b ca f8 69 3d
       0.058294583 0.05599212 0.003908806 0.05712203
000200 21 fd b8 bc 6a 56 30 3d c8 3d be bb b5 11 7c 3c
       -0.022581639 0.04305116 -0.0058057047 0.015385081
000210 49 8b 57 3c 00 d6 7d 3b 1d b9 6f 3d b3 5a a2 3c
       0.013155767 0.003873229 0.058526147 0.01981864
000220 47 34 72 3d 4f 2f 1b 3d 90 d0 0d 3b a1 ec 71 3d
       0.059131887 0.037886914 0.0021639206 0.059063558
000230 31 03 15 3d 19 a5 5e bc bb 78 3d 3c 5e be a7 3c
       0.036379997 -0.013589167 0.011564429 0.020476516
000240 93 02 fb 3c 01 7f 2a 3d c8 ca 96 3c 98 f5 cb ba
       0.030640876 0.041625027 0.01840724 -0.0015560864
000250 ed 00 03 bd 93 59 63 3d de 02 c4 bc ca eb c8 bb
       -0.031983305 0.055505347 -0.023927148 -0.006131624
000260 30 e4 c6 3c 85 aa 9c 3c dc f7 a0 bc c4 e9 f7 bb
       0.02427873 0.019124279 -0.019649439 -0.007565709
000270 e4 15 52 bc f2 10 78 3a 5e 4e 23 3d 58 bc 0b 3d
       -0.012822602 0.0009462974 0.03986966 0.034115165
000280 4e 11 4c 3c 9a 18 20 3c 5e e1 0d 3d ab 4c bf 3c
       0.012455298 0.0097714905 0.034638755 0.023351988
000290 96 bb 5f bc e7 57 14 3d bf fd 41 3c ac 62 4c 3d
       -0.013655564 0.036216643 0.011840283 0.04989879
0002a0 3f 77 13 3d f7 cd 68 bc 81 69 65 bc ca b4 28 3d
       0.036002394 -0.014209262 -0.014002205 0.04118804
0002b0 ac f9 71 3c 48 60 66 3d bc d9 35 3b 70 4e 84 bc
       0.014768999 0.056244165 0.0027748188 -0.016150683
0002c0 7c b7 a2 bc cb 15 38 3c e1 6b 58 3d af 20 08 bc
       -0.019862883 0.011235665 0.052837256 -0.008308574
0002d0 12 d9 4c 3d 90 ee 1a 3d 97 82 6d 3d 53 d9 c4 bc
       0.050011702 0.037825167 0.05798587 -0.02402941
0002e0 87 c6 86 3b fa d4 8e 3c 2f bf 8f bc 15 0e 87 3c
       0.004113022 0.01743554 -0.017547218 0.016486207
0002f0 40 f7 1b bc 5c 21 ad bc 30 83 f1 3a eb b8 9a ba
       -0.009519398 -0.021134071 0.0018425938 -0.0011804377
000300 96 4b e0 3c 0a 9b b4 bc 51 39 2a bc c9 83 51 3c
       0.027379792 -0.022046585 -0.010389642 0.012787768
000310 45 ea 54 3d 89 15 5a 3d 75 6d 52 3c 65 99 6f ba
       0.05198123 0.053243194 0.012843479 -0.0009139984
000320 ad 8b d5 3c 54 96 c6 3b 9f c0 ce bc 27 46 5c 3d
       0.02606758 0.006060401 -0.025238333 0.05377784
000330 77 1f 1f 3d 71 ac 2e 3d 3b 92 2d bb 38 2b e1 3c
       0.038848367 0.04264492 -0.0026484865 0.027486429
000340 46 4b 94 3c cb b7 88 3b 57 33 92 bc dd 28 79 3d
       0.0181023 0.0041723005 -0.017846746 0.060829986
000350 88 6e af bb 7a 19 21 3d ea e3 07 3d 6b 17 f7 3b
       -0.0053537525 0.039330937 0.03317634 0.0075406334
000360 8a 15 ac bc 5d 9a 8e bc 0d 27 9c 3a 94 c2 be bc
       -0.021006364 -0.01740759 0.0011913494 -0.023286141
000370 52 c4 bc 3b 22 43 b9 3b e4 1d a0 3b da 08 c0 3c
       0.005760708 0.005653755 0.0048863757 0.02344172
000380 51 ab 37 3d 8a e5 80 bb b0 6e 86 3c 02 92 39 3d
       0.044841114 -0.003933613 0.016410202 0.04530526
000390 4d e0 67 3d 64 fc 0c 3d 16 8a 27 3d f4 c2 cf ba
       0.056610394 0.034420386 0.040903173 -0.0015850947
0003a0 06 13 27 bc 29 e8 48 3d c0 6e fc 3c b6 5b ff 3b
       -0.010197407 0.04904953 0.030814528 0.007792915
0003b0 6e 8a 1d bc 7b 46 72 bc 78 9b ec ba 88 6f 9b 3c
       -0.009615524 -0.014787312 -0.0018051704 0.01897408
0003c0 a5 e4 5f 3d f2 b6 f7 3c 62 fe 73 3d 83 d2 ab 3c
       0.05466141 0.030238602 0.05956877 0.020974403
0003d0 de a2 86 3c 52 03 f9 bc d2 b3 24 3d 4a b2 27 bc
       0.016435083 -0.030397091 0.040210553 -0.0102353785
0003e0 39 35 d5 3c c4 b2 da bc 25 40 39 3d 30 30 c5 3c
       0.026026355 -0.02669657 0.04522719 0.02407083
0003f0 ef c6 51 3c fa 5e 6a bc bd 78 37 bc 48 36 85 bc
       0.012803777 -0.014304871 -0.01119822 -0.016261235

encoder.layers.0.bias f4 [64]
000000 f4 fc 58 3d 99 78 f4 bb 2f 3a 15 3c 5f 98 24 bd
       0.05297561 -0.0074606654 0.00910811 -0.040184375
000010 f5 17 18 bc d3 dd 03 bc 6c 3e c4 3c 14 c7 cb 3c
       -0.009283056 -0.0080484925 0.023955546 0.024875201
000020 92 bd 4b 3c b6 ad 1d bd c2 8c fe 3a c9 0e 68 bc
       0.012435334 -0.03849574 0.0019420611 -0.014163681
000030 62 0e 21 bc d8 34 81 3d 28 04 a8 bc 39 51 9f 3b
       -0.009830089 0.06308907 -0.020509794 0.0048619774
000040 ea 1e ab bc 73 80 36 3d 15 7f 0f 3d d3 1e f0 bc
       -0.020888764 0.044556092 0.035033304 -0.029311573
000050 bf 66 38 bd 28 6a d4 3c ae 31 22 bd f2 a7 55 bc
       -0.04501986 0.025929525 -0.03959816 -0.01304053
000060 ec e1 17 bd 56 03 a1 3c 01 cd e3 3c de 6d 6d bc
       -0.03708069 0.019654911 0.027807714 -0.014491526
000070 91 c1 d0 bc 50 d5 c7 bb f2 fa 47 bc 27 78 1f 3d
       -0.025482925 -0.006098427 -0.012205826 0.038932946
000080 81 90 2a bd 3e 05 59 3c 2f 09 f8 3b 64 d5 73 3d
       -0.041641716 0.013245879 0.007569454 0.059529677
000090 59 e3 cf bc 12 72 dc 3c 88 ec 73 3d 1f 25 a2 3c
       -0.025376962 0.026909862 0.059551746 0.019793091
0000a0 fd 6d 09 bd 4a 35 61 3d 7c f5 6a 3d e6 dd c0 ba
       -0.03355216 0.05498246 0.05736302 -0.0014714568
0000b0 57 f5 35 bd b0 45 17 bc ae a3 2e 3d d1 37 cd 3b
       -0.044423427 -0.009232923 0.042636566 0.0062627573
0000c0 06 8e a6 bc c2 63 82 3c e2 74 ba ba 23 35 b3 ba
       -0.020331394 0.015916709 -0.0014225508 -0.0013672452
0000d0 c3 1d 87 3c 8a 42 57 3d c1 2c b9 bc 46 6f 3a 3d
       0.016493684 0.05255369 -0.022604348 0.045516275
0000e0 0e e3 12 bd a7 01 48 3d ef 93 5a bc 2a a0 f2 bc
       -0.035861067 0.0488297 -0.013340934 -0.029617388
0000f0 2c fb cb 3c 2b b4 96 3b 99 74 c1 3c 40 8b 10 3c
       0.024900042 0.0045991144 0.023615168 0.008822262

encoder.layers.2.weight f4 [32, 64]
000000 03 c3 b3 3d 79 9d 01 3d 15 a8 d7 3d 5a ae b4 3d
       0.0877743 0.03164432 0.10530106 0.088223174
000010 09 32 84 bd 24 ce a0 bd f5 0d a3 3d cd 04 06 bd
       -0.06454856 -0.07851818 0.079616465 -0.032719422
000020 46 e6 a0 bd 2c 3d 2c 3c 25 cb 2e 3d ce 34 bf 3d
       -0.07856421 0.010512631 0.042674202 0.093362436
000030 6b a7 56 3c 28 a2 1d 3d 62 1a 80 3c 9b 5c 04 3e
       0.013101439 0.038484722 0.01563758 0.12925951
000040 bd 43 15 bd 0a 4e c6 3d 22 2a 68 3d 20 a0 95 bc
       -0.036441553 0.096828535 0.056680806 -0.01826483
000050 db 71 e4 3d 66 be 9c bd a6 a2 c2 bd b9 6c 2f bd
       0.11154529 -0.07653503 -0.09503679 -0.042828295
000060 fa a5 df 3d 0b 00 d1 bc 97 d1 e9 3d cb 96 8a bd
       0.109203294 -0.025512716 0.11416929 -0.06767043
000070 dc 6a af bd 87 85 d0 bd c9 d8 0b bc 96 9b c7 3d
       -0.08565304 -0.10181718 -0.008535572 0.097464725
000080 db a7 8b bd 77 9f b5 bc 4e 50 1f bd b8 41 10 3e
       -0.06819125 -0.022170765 -0.038894944 0.1408757
000090 c0 be f1 bc ea 5c 17 bd f1 9d 0d 3e c9 73 ce 3d
       -0.029509902 -0.036953844 0.13829781 0.10080678
0000a0 57 83 a7 bd ba ae ab bd 75 4a 14 3e cb 93 a0 3c
       -0.08179348 -0.08382936 0.14481528 0.019601723
0000b0 d4 a9 6c bd 7b c6 98 3d c5 26 e8 3d 2c 57 e8 3d
       -0.05777915 0.07459732 0.1133552 0.11344752
0000c0 cb f1 12 bc d4 8e 7e 3d 9e fe c0 bd 88 09 97 3d
       -0.008968781 0.06214793 -0.094235644 0.07374865
0000d0 13 c7 5b bd 63 6b 53 bd 29 30 1d bd 62 63 0a 3e
       -0.05365665 -0.051616084 -0.038376007 0.13514474
0000e0 69 83 6d 3c 0f 84 9a 3d 96 c5 ff bd f6 92 8a bd
       0.014496663 0.075447194 -0.124888584 -0.06766312
0000f0 64 a0 93 3d 0c cf 48 bd 2a a4 7e 3d 77 d4 d9 3d
       0.072083265 -0.04902558 0.062168278 0.106362276
000100 96 f9 07 3d 12 47 7e bd e4 8c cf 3c 84 de 85 3c
       0.033197008 -0.062079497 0.025335737 0.016341455
000110 db 35 1f bd 51 61 a0 3d 04 7c 02 be 6a 04 d4 3c
       -0.03886972 0.07831062 -0.1274262 0.025881011
000120 5f d1 d1 3d 9f ca b8 3d d1 84 96 ba 2e ba eb bc
       0.102450125 0.09023022 -0.0011483674 -0.0287753
000130 27 8b 03 be 0b ee ad bd 8c ab d3 bd 65 ee 77 3d
       -0.12846051 -0.08492669 -0.10335454 0.060530085
000140 76 b5 cc bb 1b c3 1e bd b6 32 c1 bb e0 ca 83 3b
       -0.0062472178 -0.038760286 -0.005895938 0.0040219873
000150 bb d9 c6 3d b5 82 ce 3d ce e7 83 bd 1a f3 d0 3d
       0.097094975 0.10083524 -0.064406976 0.10202618
000160 bc fc 23 3d e7 6b 9b bc 3f 78 ed bd 80 3d fb bc
       0.04003595 -0.01897235 -0.11595201 -0.030668974
000170 96 99 05 3e 5a d4 66 3d 76 b8 05 3c 67 5e 13 bd
       0.1304687 0.056354858 0.008161655 -0.0359787
000180 70 aa 8b 3c 17 60 d4 3d a7 dc ef bd 76 1f c2 bd
       0.017049044 0.1036989 -0.11712008 -0.09478657
000190 40 f6 02 3c 3e d3 8d 3d 74 7d af bd e7 23 d6 bd
       0.007993281 0.06925057 -0.0856885 -0.104560666
0001a0 b2 25 e7 bd 25 60 3d bd 64 41 77 bd 62 61 b0 bd
       -0.11286487 -0.04623427 -0.060365096 -0.08612324
0001b0 54 77 5a bd 26 73 f9 bd 1d b4 8a 3c b9 c2 02 be
       -0.053336456 -0.12180166 0.016931588 -0.12769593
0001c0 32 e2 15 bc a0 14 88 3d a6 43 e5 3c b9 69 1c 3d
       -0.009148167 0.06644559 0.027986359 0.038186762
0001d0 7c c8 a0 3d 55 e6 4e 3d 38 ca 16 bd 2b 30 a4 3c
       0.07850739 0.05051263 -0.036813945 0.0200425
0001e0 d1 b6 9f 3c a1 62 2c 3d 24 b2 df 3d 51 7e 20 bd
       0.019496353 0.042086247 0.109226495 -0.039182965
0001f0 1c 30 6e bd b1 13 a8 bd 30 9c df bd 7f 62 fd bd
       -0.05815135 -0.08206881 -0.10918462 -0.12372302
000200 ea b7 18 3c ab 7a 25 3d b5 57 2f 3d 82 32 8d bd
       0.009321192 0.04040019 0.042808253 -0.06894399
000210 9c 79 cd bc f7 47 a6 3d 3f f6 bb bd f2 d9 0c be
       -0.025082402 0.08119195 -0.09177827 -0.13755015
000220 fa 91 93 3b 3a 23 cc 3d cd 4f 5a bd 48 34 04 bd
       0.0045034857 0.099676564 -0.05329876 -0.03227642
000230 d2 63 4d 3d 74 bc d4 bd cd 19 70 bc 38 cc d1 bd
       0.050144024 -0.10387507 -0.014654589 -0.1024403
000240 b9 cb 6e bd 08 69 20 3d f9 67 27 3d d8 b7 ba bc
       -0.058299754 0.039162666 0.04087064 -0.022792742
000250 dd c1 21 bd 75 38 8f 3d 5c 1f 53 bd 2a 07 28 bd
       -0.039491523 0.0699319 -0.05154358 -0.041022457
000260 b9 89 08 3d 34 aa dd bd 04 1c 22 3d 71 65 55 3d
       0.033334468 -0.10823479 0.0395775 0.052098695
000270 a6 b8 13 bd d3 67 ce 3d bb da a7 3d c5 64 39 3c
       -0.036064766 0.10078397 0.081960164 0.011315529
000280 4a b1 d5 bd 9a 9c 08 be 86 7f 90 bd 7b 2b d2 bd
       -0.10434206 -0.13340989 -0.07055573 -0.102621995
000290 d0 11 2a bd b6 07 d4 bd db 1d ac bd 19 cc c2 bc
       -0.041520894 -0.10353033 -0.08404132 -0.023778962
0002a0 b8 d5 bc bd 34 50 92 3d dc 3b 07 3d 4d ac cc 3c
       -0.09220451 0.07144204 0.03301607 0.024984503
0002b0 84 cd ad bd 74 01 a8 bd df 27 8b bd bb 06 7f bb
       -0.084864646 -0.08203402 -0.06794714 -0.0038913924
0002c0 88 d6 6e bd 9e 95 0e be 7d 6d cb bd 5f 8f f1 bd
       -0.05831006 -0.13924262 -0.099329926 -0.11794924
0002d0 3e 37 20 bd 00 ec a6 bd 2a fc f1 bb ec 8e ff bd
       -0.039115183 -0.08150482 -0.0073847966 -0.12478432
0002e0 6b 73 71 bd 5b 2e 61 3d b1 6d 8a bc 10 2c c6 bd
       -0.05894796 0.05497585 -0.016898008 -0.09676373
0002f0 71 79 7b bd cd f8 b5 3c 3b 19 9d 3c 4a eb 00 be
       -0.061395112 0.022213364 0.01917707 -0.12589756
000300 88 86 d7 bd 13 67 dd 3d 3f 71 a4 bd 7c 8b c9 3d
       -0.10523707 0.108106755 -0.080294125 0.09841058
000310 69 ef 8a 3d 7a 5c a5 3d 4c 43 5b bd c5 22 c6 3d
       0.06783945 0.08074279 -0.053530976 0.096746005
000320 24 9e fd 3d 4d 23 7e bd c4 75 cb 3d 6a c5 61 bd
       0.123836786 -0.062045384 0.099345714 -0.05511991
000330 23 2a 82 3d 1e 59 c3 3d f0 a7 da 3d c8 7d c4 bd
       0.06355693 0.09538482 0.10676563 -0.09594303
000340 29 47 f3 bb 71 b1 a3 3d 18 d4 e4 bd 3c f9 c6 bd
       -0.0074242544 0.07992829 -0.11173266 -0.097155064
000350 ea bd 80 bd e2 80 d1 bd c0 63 5e bc 69 ff 16 3c
       -0.06286223 -0.102296606 -0.013573587 0.009216168
000360 e4 f3 14 3c 02 ac cb 3d 16 b4 8a 3d a1 f3 f4 bc
       0.009091351 0.09944917 0.0677263 -0.029901328
000370 2c 79 cc 3d 93 71 ba bd 95 89 b9 3d ac 7a ef bd
       0.09984049 -0.09103694 0.09059445 -0.1169332
000380 5b fd fb 3d 4f 35 dc 3d 92 a0 55 3d 44 a9 da bd
       0.12304183 0.10752355 0.052155085 -0.10676816
000390 f4 cc ea bd d4 98 c1 3d 48 b9 dd b9 40 6a 08 3e
       -0.11464873 0.09452978 -0.0004229045 0.13321781
0003a0 ea ed c6 bd 7a cd f2 3d 1f fe 45 3d 6f 7d bc bd
       -0.09713347 0.11855598 0.048338052 -0.09203612
0003b0 ee 65 a0 3d 9f 48 8e 3d 0d 7b 3b 3d b0 06 d9 3c
       0.078319415 0.06947445 0.045771647 0.026492447
0003c0 3f d9 c6 bd 7b e6 4e bd e3 7b c3 bc be 5c 44 bd
       -0.09709405 -0.050512772 -0.023862785 -0.04794001
0003d0 37 1c 46 3d 18 50 eb bc 5f 10 83 ba 40 96 d3 bd
       0.04836675 -0.028724715 -0.0009999386 -0.10331392
0003e0 01 5e 3a 3d 05 86 f2 bc 6d 54 8b 3d 19 f8 07 3c
       0.045499805 -0.029604921 0.06803212 0.008298897
0003f0 e5 d9 c5 3d db ea 4d bd 94 c4 a1 3d 54 98 c2 3d
       0.09660701 -0.050272804 0.078988224 0.095017105

encoder.layers.2.bias f4 [32]
000000 34 dd e6 3d 50 cd f5 3b af 1a a9 3d 2e ec b7 3b
       0.1127266 0.007501282 0.082570426 0.0056128716
000010 a2 1c 37 3d 1a 2e f4 bd 3c 1e fd 3b 32 d2 91 bb
       0.04470504 -0.11922856 0.0077245515 -0.004450106
000020 fe ff 30 3d e6 0e d5 3d 31 e8 ba 3d fc ba 99 3d
       0.043212883 0.10403232 0.09126318 0.075063676
000030 7e 68 2e 3c f1 d9 9f 3d 00 22 fe bc 84 0c e9 3d
       0.01064503 0.07805241 -0.031022072 0.1137934
000040 63 fb 0e 3e d5 3b ee 3d 2a ea 91 bd d7 38 ee 3b
       0.13963084 0.11632506 -0.071247414 0.0072699594
000050 06 af 5d 3d 89 ed a7 3d 76 24 42 3c 00 23 b7 3a
       0.054121993 0.08199603 0.011849513 0.0013972223
000060 8a 27 a1 3d 39 15 ad 3d fd f8 57 3d 8a 16 e8 bd
       0.078688696 0.084513135 0.052727688 -0.11332424
000070 8b a0 e7 3c b0 1c 66 bc dc cb 8d bd eb bb 5d 3d
       0.028274795 -0.014044926 -0.06923649 0.05413429

encoder.layers.4.weight f4 [16, 32]
000000 9f 5f 31 bd 97 cd df bd a1 9d 6f bd f3 a7 04 be
       -0.043304082 -0.10927885 -0.058499936 -0.12954693
000010 91 13 a1 bd 80 75 af 3c 71 bb 99 bd b9 b2 2f be
       -0.0786506 0.021418333 -0.07506455 -0.17158021
000020 d9 85 0d 3d 62 72 8d 3d 3a 34 c2 bd 20 6d c1 bc
       0.034551475 0.069065824 -0.09482618 -0.023611605
000030 be fc c1 bd 2f c2 c2 bd 34 d2 2e be 63 98 4e bd
       -0.09472035 -0.09509694 -0.17072374 -0.050438296
000040 d6 c8 fb bd a2 f6 8a bd ed 8a 0f bc ca 44 37 3d
       -0.12294166 -0.06785323 -0.00876115 0.044743337
000050 44 96 c5 bd 21 14 2a bd b5 b7 63 bd 39 70 03 be
       -0.096478015 -0.041523103 -0.05559512 -0.12835778
000060 a7 32 02 3e 8d fe 67 bd eb 58 84 bd dd 56 a4 bd
       0.12714635 -0.056639243 -0.06462272 -0.0802438
000070 fe f6 07 3e d7 e9 3c bd b4 1e 8d bc b6 6f 15 3e
       0.13277814 -0.046121445 -0.017226554 0.14593396
000080 21 87 6c bc 85 91 a0 3d d2 84 2b bd ff a3 dd bd
       -0.014436514 0.07840256 -0.041874714 -0.108222954
000090 eb a1 25 3c 14 97 db bc f1 a4 0f 3e 76 f5 36 3d
       0.010109405 -0.026805438 0.14027764 0.044667684
0000a0 91 35 9d 3d cd 95 ee bd d1 17 35 3e 14 80 d1 3d
       0.076762326 -0.11649666 0.17684866 0.10229507
0000b0 e7 68 36 3d 6f 71 1a 3e 5c 1a 01 be de 0e 85 3d
       0.044533636 0.15082334 -0.12607712 0.06496976
0000c0 86 96 c3 3d 53 c7 e9 bd 7f ed d9 3d 2a a2 8f bd
       0.095501944 -0.11414971 0.10641002 -0.07013352
0000d0 bf bd fd bd 87 bc 26 bc 7a 96 13 3c 8f aa d4 3d
       -0.12389707 -0.010176784 0.009008044 0.10384094
0000e0 de 1c 03 3e 76 01 92 3d 88 02 1f be 59 88 c8 bc
       0.1280398 0.07129185 -0.1552831 -0.024479078
0000f0 91 a3 0e 3e cc d2 cc 3a 7b 93 cd 3b 29 d6 72 3d
       0.13929583 0.0015626787 0.0062736846 0.05928627
000100 dd 66 fe 3d e5 a4 a9 bd 37 0b ce bd e8 4f 0a be
       0.12421963 -0.08283404 -0.10060733 -0.13507044
000110 ad 15 c7 bd 72 81 39 bd 09 b1 be bd 9a a1 08 3d
       -0.09720931 -0.045289464 -0.093111105 0.03335724
000120 6f 43 be bd 51 07 3a bd 53 4c d2 3d 57 59 2a 3e
       -0.09290206 -0.045417134 0.10268464 0.16635643
000130 a8 31 56 bc 76 ea bd bd 44 2b ce 3d 38 ad d5 bc
       -0.013073362 -0.092732355 0.10066846 -0.026083574
000140 f5 ef 2d be 8a 1a c1 bc 21 e2 cc 3d 7f 83 1f 3e
       -0.16986068 -0.023572225 0.10004068 0.15577506
000150 e0 76 26 3e 12 ed f5 3d d4 f4 eb bd 83 a1 19 3e
       0.16256285 0.12008108 -0.11521307 0.15003018
000160 c7 63 7e bd 72 79 be 3d 75 09 9a bd 05 b2 b4 bd
       -0.062106874 0.093005076 -0.07521335 -0.08823017
000170 b6 e5 4f 3b bb df 1b 3e 22 01 20 be 7e 98 ac bd
       0.0031722612 0.15222065 -0.15625432 -0.08427523
000180 7f 76 b0 bd 24 8a 17 bd 34 8e 9c 3d 56 e9 8b 3d
       -0.08616351 -0.036996976 0.076443106 0.06831615
000190 3b 2c 1a be af ce 48 bd c3 18 0b 3e 16 01 00 3d
       -0.15055935 -0.049025234 0.13583665 0.031251036
0001a0 48 fa d2 3d 13 45 c0 3d 8d 0f 2b be 83 1f 04 3d
       0.103016436 0.09388175 -0.16705151 0.032256614
0001b0 24 84 5a 3d 2c 25 fc bd 54 76 23 3e c8 3a 1d be
       0.053348675 -0.123117775 0.15963107 -0.15354455
0001c0 13 02 b8 bd a6 e3 df bb 6e f5 fb bd 4a 4f 04 3e
       -0.089847706 -0.0068325577 -0.123026714 0.12920871
0001d0 fd 70 2d be 58 33 13 be d0 63 35 3e 51 62 96 3d
       -0.16937633 -0.14375055 0.17713857 0.07342971
0001e0 60 7f 01 bc 1d 62 0d be 36 06 dc b9 a1 23 04 be
       -0.007903904 -0.13806958 -0.00041966297 -0.12904216
0001f0 be 6d c7 3d cb 3c 02 3b 22 8e 86 bc 97 46 a5 bc
       0.097377285 0.0019872661 -0.016425196 -0.020175261
000200 ec 18 7f bd 6b 95 6e bd b6 97 88 3b 52 4f 25 3e
       -0.062279627 -0.058247965 0.004168476 0.1614354
000210 0f fd 42 bd 06 8f a4 bd ae ce 6a 3d 99 73 1b bd
       -0.047604617 -0.08035092 0.05732601 -0.03795204
000220 79 85 7e bc 5b 43 43 3d 6e 24 14 be 96 a4 10 3e
       -0.015534752 0.047671657 -0.14467022 0.14125285
000230 f6 92 15 3c 2e 7e da 3c e8 2a 10 bc 15 04 03 be
       0.0091292765 0.026671495 -0.008799292 -0.12794526
000240 24 b8 e5 3a dd 12 24 be 7a bf 9d 3d bd 84 32 be
       0.0017526192 -0.16022821 0.07702537 -0.17433448
000250 1d 96 a8 bc 70 7e 06 3d 24 3e 0b 3e 78 e0 12 3d
       -0.020579392 0.032835424 0.13597924 0.0358586
000260 44 19 de bd 1e 40 62 bd 24 c5 13 3d 86 b6 2f be
       -0.10844663 -0.05523693 0.03607668 -0.17159471
000270 14 4d 64 bd af f7 07 3e b7 95 2f be d3 ef 21 3d
       -0.05573757 0.13278078 -0.17146955 0.039535355
000280 92 68 38 3e e2 8d 2d 3e 81 9f 60 3d c0 ff 27 be
       0.1800864 0.16948655 0.054839615 -0.16406155
000290 45 37 b3 bd bc 4a 30 bd 39 bb 74 3c 09 1c a2 bd
       -0.08750776 -0.043040022 0.0149372155 -0.079155035
0002a0 2a e5 f1 3d 20 98 3d bd 9b d8 21 be 0f 9e 18 be
       0.11811288 -0.046287656 -0.15805285 -0.14904045
0002b0 27 19 16 3e db 21 bf 3c 28 22 08 bd 45 ef 94 bc
       0.14658032 0.023331573 -0.0332357 -0.018180499
0002c0 63 e5 12 be 89 f3 ae bd 71 51 b0 3d 36 cc 13 3e
       -0.14345317 -0.085425444 0.08609284 0.14433369
0002d0 b8 bc e8 bd ec e6 ef bd 38 74 de bd af f8 e7 bc
       -0.1136412 -0.11713967 -0.10862011 -0.028316824
0002e0 c5 2e 18 bd 32 d9 28 3e b6 17 12 be f3 f6 1e be
       -0.037153978 0.16489103 -0.14266858 -0.15523891
0002f0 c1 eb 39 3e 17 f4 49 3d 3e a9 91 bd 8a 54 e5 bc
       0.18156339 0.049305048 -0.071123585 -0.027994413
000300 de a3 0c 3b 7c 98 e9 3d 81 5a 0f 3e 05 b2 d6 3c
       0.0021459977 0.11406037 0.13999368 0.026207933
000310 31 ae 26 be 6b 55 bf bd 3c 34 3a be 94 62 06 3e
       -0.16277386 -0.09342464 -0.18183988 0.13123542
000320 cc 05 ee 3d a5 90 cf bd ca bc f2 3d af ee 1a 3d
       0.116221994 -0.10135011 0.11852415 0.037825283
000330 11 97 69 3b 25 95 4e 3c d5 dd c8 bd 32 e5 fe 3d
       0.003564302 0.012608801 -0.09807936 0.12446059
000340 a0 68 e0 3d e9 81 0c be 3c b4 f2 3d b5 6e 07 3e
       0.10957456 -0.13721432 0.11850783 0.13225825
000350 99 95 aa bd de a3 82 bd 3e a9 25 3e c9 7b 19 3e
       -0.08329315 -0.063789114 0.16177842 0.14988627
000360 cc 1a ef 3c 6c 34 61 bc 6d f2 0d 3e a8 d1 70 3d
       0.029187582 -0.0137454085 0.1386201 0.058793694
000370 9f d5 b2 bd ab 56 17 be d7 73 fd bd 06 1c 76 bb
       -0.08732151 -0.14779155 -0.1237561 -0.0037553324
000380 f9 e5 e2 3d 33 12 cb bd 2c 6a 5d bd 84 45 c9 bc
       0.1107902 -0.099155806 -0.05405633 -0.02456928
000390 89 69 10 be 63 37 8d bd 36 ac bd bd 99 41 b4 3d
       -0.14102758 -0.0689533 -0.09261362 0.08801574
0003a0 81 e3 fe bd cc db ba 3d a6 8d ef 3c c0 7f af bd
       -0.12445737 0.09123954 0.029242348 -0.08569288
0003b0 65 cd ef 3d 83 3d a6 3d 79 3d 0b 3d d2 f2 c1 3d
       0.11709098 0.08117201 0.03399417 0.094701424
0003c0 2a 63 22 3e 8f c8 c2 bd 00 48 9c bd 63 22 1b bd
       0.1585814 -0.0951091 -0.076309204 -0.03787459
0003d0 09 07 da bd 74 b0 1e 3e 83 7c 4c 3d 34 9e 2e be
       -0.10645873 0.15496999 0.04992343 -0.17052537
0003e0 18 13 04 be e2 83 8a 3d f0 aa 19 3e 02 f1 cf 3d
       -0.12897909 0.06763436 0.15006614 0.101533905
0003f0 14 25 27 bd 27 45 44 3c 9b 06 1c 3c dd 3d 0b be
       -0.040806845 0.011979378 0.009523059 -0.13597818

encoder.layers.4.bias f4 [16]
000000 89 26 05 be 13 4b 1b be ef aa db bc 46 50 b2 3a
       -0.13002981 -0.15165357 -0.026814906 0.0013604246
000010 ee 2f c7 3d 5a c7 40 bd fc 17 28 be b4 d4 0c 3e
       0.09725939 -0.047065116 -0.164154 0.13753015
000020 3e 20 0d be 7f 5d a3 bd 9b 9e 1e be f9 96 48 be
       -0.1378183 -0.07976817 -0.1549019 -0.19588841
000030 1f 2a 3f be 0e f2 3b 3e c7 52 4e bd 25 b2 d3 bd
       -0.18668412 0.18354055 -0.05037191 -0.10336713

classifier.layers.0.weight f4 [16, 160]
000000 32 fe 89 bd 47 b7 42 3d f5 8c d1 bc 49 52 52 3d
       -0.06737937 0.04753807 -0.025579909 0.051348004
000010 7d f2 ef 3c 19 ea 8c bb c8 c0 1e 3d 8d 63 00 3d
       0.029290432 -0.0043003676 0.03875807 0.03134494
000020 60 70 00 3d 5d f7 e4 3b 57 6d 94 bd 48 6f f5 3a
       0.03135717 0.006987496 -0.072474174 0.0018725181
000030 3a 70 f1 bc d0 12 31 bd 41 c5 f2 3c 09 ac 32 3d
       -0.02947246 -0.04323083 0.029635074 0.043621097
000040 39 4b 30 3d 0e b5 16 bd d4 f9 47 3c 18 24 1a 3c
       0.043040488 -0.03679376 0.01220556 0.0094080195
000050 fb 7b eb bc e6 40 8c bd 86 58 4a 3d 26 f6 00 3d
       -0.028745642 -0.06848316 0.04940083 0.031484745
000060 b0 40 29 3d e7 10 d0 3c b6 2d ac bc 84 29 24 3d
       0.041321456 0.025398685 -0.02101789 0.040078655
000070 54 c9 79 bd d2 7d 04 3d ad 35 8e bd 26 30 24 3c
       -0.060983017 0.032346554 -0.069438316 0.010021245
000080 91 31 6b bd f0 75 e0 3b 77 57 8a 3d 10 72 e9 3c
       -0.057420317 0.0068499967 0.06754964 0.028496772
000090 cc 15 a2 3c c1 c2 07 bd f6 05 88 bd 6b 63 d9 3c
       0.019785784 -0.033144716 -0.06641762 0.026536664
0000a0 d4 91 47 bc bf 94 fc 3b 2e 51 9a bd c3 97 70 3d
       -0.012180764 0.0077081616 -0.07535015 0.05873848
0000b0 5e 5a ae 3c 72 47 13 bd 3c 79 3b 3d 3f ed 9e 3d
       0.021283325 -0.035956807 0.045769915 0.07760095
0000c0 30 8e 9d 3d 7a 39 1b 3c 67 e6 78 3d a3 5a 37 3d
       0.07693136 0.009474153 0.060766604 0.044764172
0000d0 70 e8 b7 3b 9e fe 65 3d 50 56 04 bd 46 f5 81 bd
       0.0056124255 0.056151025 -0.032308877 -0.0634561
0000e0 4b 4d 82 3d 95 3d 9a bc 9c 36 c1 bc 1d 4c 1c 3c
       0.06362399 -0.018828193 -0.02358561 0.009539631
0000f0 94 0b 69 bd 87 a5 8f bd 01 8e 95 bd 38 eb 68 bc
       -0.056895807 -0.07013994 -0.07302476 -0.014216237
000100 24 3c b3 3c b2 04 97 bd 7e 0b 5b bd f0 93 09 3c
       0.021879263 -0.073739424 -0.053477757 0.008397087
000110 65 94 8b 3d 21 60 9d bd 2c 23 93 3d 9a 77 a6 bd
       0.068154134 -0.07684351 0.07184443 -0.08128281
000120 80 1c f2 3b 0d 84 06 bc 1a 18 87 3d 60 7c a9 bd
       0.0073886514 -0.008210194 0.06596394 -0.08275676
000130 97 3e 41 3d 18 2e 80 3d e7 6d a4 3d 87 97 6b 3d
       0.04717883 0.06258792 0.08028775 0.057517555
000140 0d f5 f1 bc ba ac a5 3d d3 f6 49 bb 2d 20 9a 3b
       -0.029535795 0.080895856 -0.0030817285 0.0047035427
000150 0f 37 95 bc e4 30 3d 3d fd 29 20 3d 64 e9 08 bc
       -0.01821473 0.046189204 0.039102543 -0.008356426
000160 d4 e2 e2 3b 19 66 f9 bb 4f 62 46 3b be e6 88 3d
       0.0069240127 -0.007611048 0.0030270999 0.066846356
000170 59 64 95 3d 89 bb 54 bd 6f fc c8 3c a5 f3 92 3b
       0.072945304 -0.05193666 0.024534432 0.004484611
000180 37 8b 85 3b e5 ee 14 3d 66 b1 6e 3d 64 d2 7c bd
       0.0040754336 0.03636064 0.05827465 -0.06172408
000190 aa 8d 90 bd 69 52 85 bd 32 03 1c 3d e6 70 94 bd
       -0.0705827 -0.06509859 0.038088985 -0.07248096
0001a0 3b 80 c9 3b 8b 0f 87 3d 48 49 d6 3c 0a f4 87 bc
       0.0061493195 0.065947615 0.02615799 -0.01659586
0001b0 1d 3f 8b 3d d1 1f e1 bc 1a 7d 6e bd d6 d6 53 bd
       0.06799147 -0.027480992 -0.058224775 -0.051718555
0001c0 74 dc f4 bc a2 15 8f 3d 69 5f 43 3d a1 a3 15 bc
       -0.029890276 0.06986548 0.047698412 -0.00913325
0001d0 36 30 19 3d d1 c7 31 bc 0a 0b 95 bd 08 51 68 bd
       0.037399493 -0.010850863 -0.07277496 -0.056717902
0001e0 6f 19 76 3c b6 05 10 3c 55 78 83 bd d8 4d 71 bc
       0.015020712 0.008790424 -0.06419436 -0.014728032
0001f0 57 35 33 bd 9c 70 e3 bc 16 eb 23 bd 90 c6 39 3d
       -0.04375204 -0.027763657 -0.040019117 0.04535538
000200 2c 28 03 3d bd 06 9d 3d 0e fd 41 3d 1c 36 ee 3c
       0.032020733 0.07667301 0.047360472 0.029078536
000210 52 3e 83 bd 91 d2 cc 3b 89 7d f7 3c 71 87 1f bc
       -0.06408371 0.0062506874 0.030211227 -0.009736882
000220 2b e8 6e bd af 14 43 3d 7b b1 b6 3c 3d d1 99 bd
       -0.05832688 0.047627147 0.022301426 -0.07510612
000230 2d c4 9b bd a0 e4 9b bd d4 3a 5a 3d 4d 83 06 bd
       -0.07605777 -0.07611966 0.05327876 -0.032840062
000240 4f 9a 3c bd 1f 8c 66 3d ef 33 e8 3c fb 92 4c bc
       -0.046045598 0.056285974 0.028345076 -0.012486215
000250 0a 13 a7 bc 8c a1 27 3d a1 29 be 3c 71 f0 88 3d
       -0.02039482 0.040925547 0.02321321 0.066864856
000260 5a 18 91 3d a9 a8 50 bc 21 bf 7b bd 69 91 a9 bd
       0.07084723 -0.012735524 -0.06146157 -0.08279688
000270 10 09 05 bd 66 5c ad 3c a0 ec 78 3d 2b b3 c4 bc
       -0.032479346 0.021162223 0.06077254 -0.024011215
000280 a8 8e 94 3b 92 6e 4e 3d b2 7e 6c 3d f3 63 38 3c
       0.0045336075 0.050398417 0.057738014 0.0112542985
000290 ad 87 10 bd e2 80 75 bc 4b e0 73 3c 41 15 ac bc
       -0.03528564 -0.014984341 0.014885019 -0.021006228
0002a0 d5 b3 97 bd c7 cd 97 bd a2 02 72 bc e1 19 69 3c
       -0.07407347 -0.07412296 -0.0147711355 0.014227361
0002b0 45 4e 1b bd f8 23 34 bd 49 e4 1c bc b6 42 92 bd
       -0.03791644 -0.043979615 -0.009575912 -0.0714163
0002c0 5b b6 d3 3c 66 1e 14 3c a3 8e 81 3d 31 b7 64 bc
       0.02584379 0.009040451 0.06326034 -0.013959692
0002d0 0b 94 54 bd 94 d4 9b bd 8b 86 dc 3c 2c 9c 52 3d
       -0.051898997 -0.076089054 0.026919624 0.05141847
0002e0 65 21 09 3c 43 88 9f 3c 92 ec 5d bd 9b 42 81 bd
       0.008369778 0.019474154 -0.05418069 -0.06311532
0002f0 d3 ca e5 bc b2 bd 2c 3d 5a 97 87 3d 35 69 81 3c
       -0.028050816 0.042173095 0.06620665 0.015797237
000300 7b d0 a2 3c f5 ce 3d bd 50 68 fe bc a2 d6 35 bd
       0.019874802 -0.046339948 -0.0310556 -0.044394143
000310 04 2d 6d 3d f6 3c cc bc 0a dc d5 3b c1 c4 90 3d
       0.05790426 -0.024931412 0.006526475 0.07068778
000320 54 24 11 3c 94 82 45 3d aa 09 de bc cd 02 a0 3c
       0.008858759 0.048220232 -0.027104218 0.019532586
000330 aa c9 31 3d e8 c4 b7 bc 05 19 ce ba cb 52 90 3d
       0.043405212 -0.02243276 -0.0015724009 0.070470415
000340 d7 0e 4a 3d 8e cc 80 3c ca 5a b0 3c b7 5a 82 3d
       0.04933056 0.01572254 0.021527667 0.06364959
000350 93 9e 12 3c fa 2a 3c 3d 09 c1 14 3d 85 0e 20 bd
       0.00894894 0.045939423 0.036316905 -0.039076347
000360 1c 7d e5 3c e9 fa 55 3d f2 73 a9 3c 0d fe 81 3c
       0.028013758 0.05224124 0.02068517 0.015868211
000370 bb ef 9d 3d bc 89 c4 bb 95 ee 31 bd e7 4b 0c 3d
       0.077117406 -0.0059978645 -0.04344042 0.034252074
000380 0a 73 80 bd 90 a5 9e bd da 4b 00 bc 81 00 d6 3c
       -0.06271942 -0.07746422 -0.007830584 0.026123287
000390 d5 52 36 bd e1 3e 49 bc cb 95 1e 3b e8 fc 81 3d
       -0.04451259 -0.012283058 0.002419817 0.06347066
0003a0 87 80 36 bd 1a 60 17 bd 8f d0 85 bd 82 7f 99 bc
       -0.044556167 -0.036956884 -0.0653392 -0.018737558
0003b0 a2 0c 10 3d 16 c6 9c 3d 56 e0 03 3d 35 6a b0 3c
       0.035168298 0.076549694 0.032196365 0.021535018
0003c0 83 be 9b 3c c3 7b 6b ba e9 09 29 3c c7 0f 4f bd
       0.019011742 -0.00089829805 0.010317304 -0.050552156
0003d0 3e 8e 91 3c 4c 57 51 bd e0 17 17 3b 3f 15 c1 3c
       0.017768022 -0.051108643 0.0023055002 0.023569701
0003e0 f3 ee 80 3d fe cc d1 bb 5e 5f 47 bd 8e eb 85 3d
       0.06295576 -0.006402611 -0.048674934 0.06539069
0003f0 52 01 05 3d e4 d6 6f bd cf 2f de 3b 16 34 e6 bc
       0.032471962 -0.058554545 0.0067806016 -0.028101008

classifier.layers.0.bias f4 [16]
000000 46 00 48 3d 70 2b 77 3b 84 5a 48 bc ba 1f 4a bc
       0.048828386 0.00377151 -0.012228612 -0.012336666
000010 3f e9 c9 bc a4 1a 8e bd 0f ec 74 bd 54 1b 52 3d
       -0.024647353 -0.06938675 -0.059795436 0.051295593
000020 8c c0 9c 3d 23 1d a5 3c a3 4c a0 3d ac 89 8d 3c
       0.07653913 0.020155495 0.07827117 0.017277561
000030 ea da 3d 3c 52 6b 36 bd 3e 44 70 3c 43 77 c1 3b
       0.011587838 -0.044535942 0.014664708 0.0059041097

classifier.layers.2.weight f4 [5, 16]
000000 18 ce 35 be 8c a4 f4 bd c9 b7 9c 3d b0 fc 21 3e
       -0.177544 -0.11945447 0.07652242 0.15819049
000010 18 c3 9f 3d 36 4a 4e be d8 2c 23 3e 22 d0 a2 bd
       0.07800883 -0.20145497 0.15935075 -0.079498544
000020 7c d5 d3 3d d8 79 ad 3d c0 ef e9 3b 40 70 00 3d
       0.10343453 0.084705055 0.007139176 0.03135705
000030 54 8b f5 3d fa 0a 20 be a1 36 cc bc 2d 68 28 bd
       0.11989465 -0.15629187 -0.024928393 -0.041114975
000040 42 f2 91 3d 04 76 c6 bd 19 89 3f 3e 06 50 3e bc
       0.07126285 -0.096904784 0.18704642 -0.011615759
000050 5c b5 2c be 4c ce 05 be 40 98 93 bb 24 67 3a be
       -0.16866058 -0.13066977 -0.0045042336 -0.18203408
000060 2e aa 53 be 00 7d de bb 94 a3 e0 3d 0e 5f 42 be
       -0.20670387 -0.0067898035 0.109687 -0.18981573
000070 fd cd e9 bd b8 53 92 3d 0c 60 4c be 26 af 60 3e
       -0.11416242 0.07144874 -0.19958514 0.21941814
000080 52 f1 76 bd fe 00 1f be aa c9 f3 3d c8 cf 3e bc
       -0.060288735 -0.15527722 0.11903699 -0.011646219
000090 46 c0 39 be 06 7d 0d 3e f0 6f 98 bd 8c 23 66 be
       -0.18139753 0.13817224 -0.074432254 -0.22474498
0000a0 c4 87 d5 bd e0 75 bf 3d b0 92 4b be 00 a0 e2 b8
       -0.10426286 0.09348655 -0.19880176 -0.00010806322
0000b0 d2 cf b7 3c 10 96 43 bd dd 02 cc bc 85 28 95 bd
       0.022437964 -0.047750533 -0.02490371 -0.07283119
0000c0 35 7e 0a be 88 8b c8 bd c8 e1 a6 3b bb 8c 1f be
       -0.13524707 -0.097922385 0.005092833 -0.15581028
0000d0 b4 a1 f9 3d cc 38 46 be b8 77 9a bd e6 71 cb bd
       0.121890455 -0.19357604 -0.07542366 -0.09933834
0000e0 88 d8 79 be 68 e3 4c be 06 d5 5c 3e b8 bf a4 bd
       -0.24399006 -0.20008624 0.21565637 -0.0804438
0000f0 9f 73 f2 bd ac 96 e1 bd 80 79 2b bd 2a f4 2a 3e
       -0.11838459 -0.110150665 -0.04186392 0.16694704
000100 e5 88 98 3d 0a 25 0a be 80 65 65 3e fe 3f 11 be
       0.074479856 -0.13490692 0.22402 -0.14184567
000110 58 d8 22 3d 00 dc 02 be b8 fe 7c bd 47 43 c3 bd
       0.039757103 -0.12779236 -0.061766356 -0.095343165
000120 c0 48 44 bd 64 99 dc bd 54 2b 7b be ec 56 cc bd
       -0.047920942 -0.107714444 -0.24528247 -0.099775165
000130 6d 35 2a 3e 30 db 61 3e 56 fc 84 bc db d9 1a 3c
       0.16621943 0.2205627 -0.016233604 0.009451355

classifier.layers.2.bias f4 [5]
000000 12 72 e2 bd e7 bc 03 3e 21 c3 29 be fe 11 a4 3c
       -0.110569134 0.1286503 -0.16578342 0.02002811
000010 e5 be da bd
       -0.106809415

pool.gate_nn.0.weight f4 [16, 16]
000000 46 46 55 be c0 f3 5d be 28 bb 4a 3d 48 af fe bd
       -0.20827588 -0.21675014 0.049494892 -0.12435776
000010 2e c2 17 be 34 b7 7a be fc 41 cf bd b8 bd 77 3e
       -0.14820167 -0.24483949 -0.101200074 0.24193466
000020 48 59 ca bd c4 eb 8a 3d ec 7e e0 bd c4 d5 7f 3e
       -0.0988031 0.0678325 -0.109617084 0.24983889
000030 f4 fe 15 be 38 00 2c 3d 88 69 e2 3d 88 f3 11 be
       -0.14648038 0.041992396 0.11055285 -0.14253056
000040 a0 1b 51 bc 2c 77 ed bd c0 80 5d 3d 1a f2 63 be
       -0.012762934 -0.11594996 0.054077864 -0.22260323
000050 90 31 7a 3d ec 06 dd 3d 08 04 1c 3d 48 c8 37 be
       0.061082423 0.10792336 0.038089782 -0.17947495
000060 7c ca a0 3d cc f7 79 be dc 1a 04 be 52 72 41 be
       0.07851121 -0.24410933 -0.12900871 -0.18891266
000070 dc a1 f9 bd 48 1c 36 3e 40 d5 4c 3e f0 2d 57 3d
       -0.12189075 0.17784226 0.20003223 0.052534044
000080 1e 6b 60 3e 84 08 a7 bd 78 0a 0a 3d 90 d2 65 3e
       0.21915862 -0.08155921 0.03370139 0.22443604
000090 ca 20 58 be 5c 01 47 be 60 24 b7 3c 88 e2 7d bd
       -0.21106258 -0.19434112 0.022356212 -0.061983615
0000a0 00 d0 7d bb 88 1a 7c 3d 6a d9 61 3e 86 38 75 3e
       -0.0038728714 0.06154874 0.22055593 0.23947343
0000b0 c0 0d 19 be cc 71 74 3e 7a 59 46 3e 32 30 71 3e
       -0.14946651 0.23871535 0.1937007 0.23553541
0000c0 b4 63 3c be 92 05 7d 3e e0 42 64 3d 6a a0 29 be
       -0.18397409 0.24709156 0.05572784 -0.165651
0000d0 f0 c7 fb bd 2c 4f 09 3e 08 37 40 3e f2 5e 7a 3e
       -0.122939944 0.13409108 0.18770993 0.24450281
0000e0 40 9a fa 3d 60 f3 56 bd b2 69 04 3e 08 bd 7e 3d
       0.12236452 -0.052478194 0.12930945 0.062191993
0000f0 00 67 17 bc e0 39 2a 3c b2 bb 40 3e 38 64 78 be
       -0.009240866 0.010389775 0.188216 -0.2425698
000100 2c 47 d8 bd f0 8e 32 bd e8 b8 46 bd 80 23 7e bc
       -0.1056045 -0.043593347 -0.048516184 -0.015511394
000110 18 5a 3d 3e 68 71 1f be c8 c3 a5 bd ec a9 c1 bd
       0.184914 -0.15570605 -0.08093983 -0.09456238
000120 20 19 bd bc 3e ec 3b 3e 34 b7 31 3e 0e e1 5b be
       -0.02308327 0.18351838 0.17355043 -0.2147257
000130 62 ee 00 3e 18 80 57 3d 80 7c 31 3b 9c 6d 9b 3d
       0.12590936 0.052612394 0.0027082264 0.07589266
000140 74 7a 0a 3e 14 db d9 3d 40 38 43 bd ae e6 7a be
       0.13523275 0.10637489 -0.047661066 -0.2450206
000150 46 8a 6a 3e 72 83 36 3e f0 09 d6 3c 3c ab f8 3d
       0.2290431 0.1782358 0.026127785 0.12142035
000160 00 45 a7 ba 3c 88 ef 3d 18 ae 6e bd fc 36 27 3e
       -0.0012761652 0.116959065 -0.058271497 0.16329569
000170 60 10 95 bd 60 f4 e5 3c c8 b9 0a bd fa 05 15 3e
       -0.07278514 0.028070629 -0.03386858 0.14553061
000180 a8 5f 7c 3d da 39 2f be 72 77 0e 3e d2 db 5f 3e
       0.061614662 -0.17111912 0.13912752 0.21861199
000190 ae 5f 1b be 64 af c0 3d 70 08 a5 bc b8 dc b8 3d
       -0.15173218 0.09408453 -0.020145625 0.09026474
0001a0 62 73 1c be ce de 79 3e 68 23 03 bd 26 7c 1e be
       -0.1527839 0.244014 -0.032016188 -0.15477046
0001b0 e8 2e 75 be ee 16 28 be 98 9b 70 3e 02 45 3e 3e
       -0.23943675 -0.16414997 0.23496854 0.18581012
0001c0 42 32 22 3e 12 26 56 3e 18 5f 65 3e 8c 36 32 3e
       0.15839484 0.2091296 0.22399557 0.1740362
0001d0 40 46 36 3d a0 21 4d be 74 b9 49 3e c0 a2 d0 3d
       0.04450059 -0.20032358 0.19699651 0.10187292
0001e0 94 a1 e1 bd e4 08 51 be 60 19 3e 3d 80 cf d4 3d
       -0.11017147 -0.20413548 0.04641092 0.1039114
0001f0 62 82 33 be 68 b5 5e 3e 9a d7 16 be 20 cc e8 3d
       -0.17530206 0.21748888 -0.14730683 0.11367059
000200 00 7a 15 3e a4 6b 63 be 80 c9 b6 bb 3c 19 dc bd
       0.1459732 -0.2220903 -0.00557822 -0.107470006
000210 3c 0e f8 bd b0 23 12 bd c4 c8 f5 bd 56 ad 5f be
       -0.1211209 -0.035678566 -0.12001184 -0.21843466
000220 ac 64 bb 3d 4e f6 68 be a0 9d 21 be 98 33 0f 3e
       0.09150061 -0.22750208 -0.15782785 0.13984525
000230 94 19 30 3e d4 a0 5a 3e 00 33 58 be 78 26 7f bd
       0.17197257 0.21350414 -0.21113205 -0.062292546
000240 20 0f e0 3c 8a e4 54 be 40 96 39 3e b0 3b b4 bd
       0.027350962 -0.20790306 0.18123722 -0.08800447
000250 e8 46 d7 3d 28 b0 ee 3d 08 b8 63 3d a0 3d d3 3d
       0.10511571 0.11654693 0.055595428 0.103144884
000260 d0 fa ce 3c 00 02 23 bb 60 9f 6c 3c ba 9a 08 be
       0.025266081 -0.0024873018 0.014442295 -0.13340273
000270 80 4b 05 bd 98 4c 81 bd 30 22 97 3c 68 a6 82 3d
       -0.032542706 -0.06313437 0.018448919 0.06379396
000280 00 c9 b4 3a 48 76 05 be 3c 02 b4 3d 0c 56 fa bd
       0.0013792813 -0.13033402 0.08789489 -0.122234434
000290 06 6f 08 be f8 ac 8e 3d e4 de fc bd 22 e3 7a be
       -0.13323602 0.06966585 -0.123472005 -0.24500707
0002a0 aa a7 7c be 18 c2 7c 3d a0 a0 65 3d 10 27 63 3e
       -0.24673334 0.06170854 0.056061387 0.2218287
0002b0 08 a9 40 bd 40 85 73 3c 80 20 28 bc b8 d0 6c 3d
       -0.0470362 0.014863312 -0.010261655 0.057816237
0002c0 70 c2 8e 3d 70 20 ab 3c 0c 3c 33 be 46 c3 7b be
       0.0697068 0.02088949 -0.17503375 -0.2458621
0002d0 e6 50 0e be d4 6d be bd e8 0a 6b bd 00 73 3e 3b
       -0.13898048 -0.09298292 -0.057383448 0.0029060245
0002e0 30 1e 22 3e 88 c5 b5 bd 7c a7 61 be 40 ea f4 bc
       0.15831828 -0.08875567 -0.22036546 -0.029896855
0002f0 f0 1b e3 3c 74 84 cc 3d 72 4e 7e 3e 28 90 7d 3e
       0.027723283 0.09986201 0.24834612 0.24762022
000300 2a d0 19 be aa 25 52 be e4 99 bf bd be 54 1e 3e
       -0.15020815 -0.2052218 -0.09355524 0.15462014
000310 58 ef 2b 3d a0 90 5b 3e 80 fb 61 3c 20 e1 d7 3c
       0.041976303 0.21441889 0.013792872 0.026352465
000320 96 e8 13 3e a0 5c 46 bd 08 e8 cb 3d 8c f9 41 be
       0.14444193 -0.048428178 0.09956366 -0.18942851
000330 d8 2f 71 bd c0 0b 92 3d 26 0f 67 3e 64 68 1a 3e
       -0.058883518 0.071311474 0.22564372 0.15078884
000340 00 d8 7d be dc 75 6a 3e 84 5c 0a 3e 60 c4 59 be
       -0.24789429 0.22896522 0.13511854 -0.21266317
000350 c0 50 4b be 60 82 9c 3c a0 f4 25 3e a8 64 2b be
       -0.19855022 0.019105136 0.16206598 -0.16737616
000360 a2 37 4a be c8 f3 6f be a6 7c 07 be fa e7 0a be
       -0.19747785 -0.23432839 -0.13231143 -0.13565055
000370 04 f8 60 be 80 75 72 3b 2c 6c 07 be 18 67 13 be
       -0.2196961 0.0036996305 -0.13224858 -0.14394796
000380 6a bb 19 3e 74 28 0d be 2c 41 ee 3d d0 c8 94 bc
       0.15012899 -0.13784963 0.11633524 -0.018162161
000390 74 a2 95 3d 78 8d 0b be 24 ca a3 3d 38 78 61 3d
       0.07306376 -0.13628185 0.0799754 0.05504629
0003a0 ba 21 5f be b6 02 34 3e 1c 7b 78 be 64 ac 84 bd
       -0.2179021 0.17579159 -0.24265712 -0.064781934
0003b0 86 85 12 3e 30 ad 9c bd a4 af 47 3e 18 99 a3 3d
       0.14308748 -0.076502204 0.19500595 0.07988185
0003c0 b8 74 f6 bd 08 64 51 3e 90 f7 1c 3d 90 a4 f1 bd
       -0.12033981 0.20448315 0.03832203 -0.11798966
0003d0 ac 7c c7 bd b8 db 0a bd 78 35 2e be 00 12 67 ba
       -0.09740576 -0.033900946 -0.17012584 -0.0008814633
0003e0 ac 2d 34 3e b0 64 74 bd 0a da 6a be 92 9e 62 be
       0.17595547 -0.059666336 -0.22934738 -0.22130802
0003f0 44 91 e4 bd 8e 02 60 3e 20 1d 39 bc 72 81 71 be
       -0.1116052 0.21875975 -0.011298448 -0.23584536

pool.gate_nn.2.weight f4 [1, 16]
000000 26 6c 51 3e d8 fd ea bd 7e dd 74 be 68 4a a2 3d
       0.20451412 -0.11474198 -0.23912618 0.07924348
000010 b0 1d d3 3d 78 d5 62 3e e0 7b ee bd 20 f6 5b 3e
       0.10308397 0.22151744 -0.11644721 0.21480608
000020 c0 5f 8d 3d 82 05 38 3e 4a 12 56 be 4a 3b 28 3e
       0.069030285 0.17970851 -0.20905414 0.16428867
000030 1e 73 74 be 0c 1c 1c 3e de 7f 76 3e f4 74 29 be
       -0.23872039 0.15245074 0.24072215 -0.1654852

pool.nn.layers.0.weight f4 [16, 16]
000000 9e 49 2c 3e fa f8 9f bd c2 da 57 3e d5 8f 85 be
       0.16824958 -0.078111604 0.21079543 -0.26086298
000010 70 ed 56 3e a7 8f 0a be b3 7e 6b 3e 7b f1 69 3c
       0.20989013 -0.13531362 0.2299755 0.014278765
000020 98 78 ea bc 57 96 ff 3d 0d c5 3d be 80 40 02 be
       -0.028621957 0.12479847 -0.185322 -0.12719917
000030 b6 7d b1 3b dd 99 50 be da c3 f1 bd 23 96 3a be
       0.0054165972 -0.20371194 -0.11804934 -0.18221335
000040 08 99 08 3d 9c 51 b7 bd b0 85 ed 3c 30 42 59 be
       0.033349067 -0.08951113 0.028994411 -0.21216655
000050 e0 cf bd 3c 82 e1 21 be a0 92 5b 3c 9a 69 5b 3e
       0.023170412 -0.1580868 0.013401657 0.21427003
000060 94 d7 b4 bd 1a 87 58 3e ea 0a 43 3e 54 a9 fe 3d
       -0.08830181 0.21145287 0.19047132 0.124346405
000070 f0 fb 4d 3e 60 a0 e0 bd f2 1b 61 3e fc 5a 26 be
       0.20115638 -0.10968089 0.21983317 -0.16245645
000080 66 ed 78 3e df e6 c9 3b 6f 3e 5d 3e b0 a5 0c 3e
       0.2430931 0.006161555 0.21605848 0.1373508
000090 04 91 e1 3c 8a eb 76 3e fc ae 2c 3e ad 44 f2 3d
       0.02753497 0.24113289 0.16863626 0.11829505
0000a0 89 8d ee 3c 78 5c 65 3d c4 2d 2c bd fc bc 7b 3e
       0.029120224 0.05599639 -0.042035833 0.2458381
0000b0 e9 3d 8b bd 0a 2f 33 3e f6 0d 17 3e b6 2c 1b 3e
       -0.06798918 0.17498413 0.1475142 0.15153775
0000c0 08 b3 7b bd 2f e0 3d be 82 57 cd 3a 0b 85 2b be
       -0.061450034 -0.1854255 0.0015666338 -0.1674997
0000d0 cc d6 6d 3e 9d 55 2e bd d6 84 7a bd da 86 65 3e
       0.2322647 -0.042562116 -0.06116184 0.22414723
0000e0 cf dc 36 be 99 e5 ad bd bd ad 79 be a3 06 82 be
       -0.1785767 -0.08491058 -0.24382682 -0.25395688
0000f0 79 27 a2 bd 49 bf ad 3d 18 3b 00 bc d5 b9 18 3e
       -0.07917685 0.084837504 -0.007826589 0.1491464
000100 74 c0 79 3e ea 65 ee bd b7 40 8f 3d 92 b7 1d be
       0.24389821 -0.11640532 0.06994765 -0.15402058
000110 73 0e 2d 3e 21 c3 97 bc e5 3a 7e 3e 0e b4 09 be
       0.16900043 -0.018525662 0.24827154 -0.13447592
000120 05 30 67 be 88 ab 5c bd 7d 96 ca 3d 10 b4 f2 3d
       -0.22576912 -0.053874522 0.098919846 0.118507504
000130 10 b6 12 3d 51 ac 56 bd ad 29 2c be ae 69 58 be
       0.03581816 -0.052410427 -0.16812773 -0.21134064
000140 8c 21 99 bd c0 13 19 be 9c d1 5a 3e 56 5b 2a 3e
       -0.07477102 -0.1494894 0.21369022 0.16636404
000150 e0 1b 45 3c 58 ab 2e 3e fc a3 8c bd b0 fc 4c 3d
       0.012030572 0.1705755 -0.06867215 0.05004567
000160 f0 3f 16 bd e0 44 2e 3c ac 81 4d be b2 65 3d 3e
       -0.03668207 0.010636538 -0.20068997 0.18495825
000170 80 90 5e bb f4 9d e7 3d f8 af d2 3d 4c ed 78 be
       -0.003396064 0.11309424 0.102874696 -0.24309272
000180 a8 f7 a5 3d dc d6 b1 3d 18 37 b2 bd e8 d2 35 bd
       0.08103877 0.08683559 -0.087019145 -0.04439059
000190 38 33 50 3d 38 9d be 3d 3e 2a 68 be bc 9e ef 3d
       0.050830096 0.09307331 -0.22672364 0.11700198
0001a0 30 c6 84 bd 22 18 02 be 40 1a e3 bc f0 e6 05 3e
       -0.06483114 -0.12704518 -0.027722478 0.13076377
0001b0 f0 8f eb bd 7c c6 22 be de 7b 6a be dc d8 cc bd
       -0.11502063 -0.15896028 -0.22898814 -0.100023
0001c0 56 75 a8 bd bd 6d 5d be 32 94 32 3e a8 84 b8 bd
       -0.08225505 -0.21623893 0.17439345 -0.09009677
0001d0 fc 37 ba 3d 50 09 5d be e1 11 85 3e 0b f2 32 bd
       0.090927094 -0.21585584 0.25990203 -0.04368786
0001e0 47 33 34 be 37 30 74 3a 5b 08 92 bd 0e ca 8a bc
       -0.17597686 0.0009315046 -0.071305 -0.01694205
0001f0 f4 19 09 bc 14 19 c8 bc a5 f3 1e be 71 8c 11 3e
       -0.008368004 -0.02442602 -0.1552263 0.1421373
000200 3c 27 34 be fe 73 68 3e 54 87 1a 3e 60 d5 c3 bc
       -0.17593092 0.22700498 0.15090686 -0.023905456
000210 98 29 6c bd 5c a1 a6 bd d8 de f2 bd 42 7d 02 3e
       -0.057656854 -0.081362456 -0.1185891 0.12743095
000220 0c df f4 bd 00 b3 83 bd 26 3f 18 be 24 31 eb 3d
       -0.11956605 -0.06430626 -0.14867839 0.11483982
000230 b8 5f 1f bd 14 e8 42 be 7c 24 10 be 58 fb a5 3d
       -0.038909644 -0.19033843 -0.14076418 0.08104581
000240 50 d4 64 be c0 d4 50 be 50 4e 30 3d e0 67 18 be
       -0.22346616 -0.20393658 0.043043435 -0.14883375
000250 e0 26 c0 3c 40 40 9e bd 7c bd 90 bd f0 9c 89 3d
       0.023456037 -0.077270985 -0.07067391 0.067193866
000260 10 96 25 bd ee bf 09 3e 60 84 5b be a0 07 5e bd
       -0.040426314 0.13452122 -0.21437216 -0.05420649
000270 b8 ba 0f be 7a 98 7c be 78 21 35 bd 80 24 86 3b
       -0.14036071 -0.2466754 -0.04422137 0.0040937066
000280 fa 78 6b 3e ac f9 ba bd b0 97 b8 bd 54 d3 74 be
       0.22995368 -0.091296524 -0.09013307 -0.2390874
000290 74 73 b2 3d 48 e0 da 3d 2c c4 d3 3d 36 59 5d be
       0.08713427 0.106873095 0.10340151 -0.21616063
0002a0 94 af e2 bd cc da 7a be 04 71 ea 3d 98 1a 17 3d
       -0.11068645 -0.24497527 0.11447337 0.036890596
0002b0 50 dc 6c bd e4 9b e5 bd 34 f2 a1 bd 20 8d f9 3d
       -0.057827294 -0.112113744 -0.07907525 0.121851206
0002c0 12 f4 54 be 80 b0 f6 3b 04 6d 55 3e f8 46 07 be
       -0.2079623 0.0075283647 0.20842367 -0.13210666
0002d0 6c b0 c6 bd 70 e0 59 be 50 2a 4a be 64 6f 3e be
       -0.097016186 -0.21277022 -0.19742703 -0.1859718
0002e0 f0 61 0d 3e 58 04 3d be fa 76 43 3e 90 09 d1 3d
       0.13806891 -0.18458688 0.19088355 0.10206902
0002f0 c6 15 20 be ee 1f 71 3e 26 98 1c 3e d8 bc 33 3d
       -0.15633306 0.23547336 0.15292415 0.043881267
000300 d8 be 13 3e 90 92 69 3d 76 66 2e be 40 8d 7a 3c
       0.1442827 0.05702454 -0.17031273 0.015292466
000310 04 90 cb bd 54 7e 82 3d 4c e7 de 3d 64 f7 f1 bd
       -0.09939578 0.063717514 0.1088396 -0.11814764
000320 c6 84 00 be 92 86 2f 3e 80 05 30 bb 7c 77 b9 bd
       -0.12550649 0.17141178 -0.0026858747 -0.09055993
000330 e2 24 6c 3e 68 ef 56 3d 6c a2 49 be e4 d9 db bd
       0.23060945 0.05247441 -0.19690865 -0.10734919
000340 40 77 34 bd 04 9b 76 3e 68 12 68 3e 10 f6 ae 3c
       -0.04405904 0.24082571 0.22663271 0.021357566
000350 70 5a 04 be 7c a3 6e be 24 60 47 be f8 f5 78 be
       -0.12925124 -0.23304552 -0.19470268 -0.2431258
000360 cc a6 27 be 60 d3 7f 3c 5e 47 0f be e6 1f 2c 3e
       -0.16372222 0.015614361 -0.13992068 0.16809043
000370 20 e8 2f bc 3a d4 75 be d4 dc fb 3d b4 86 14 3e
       -0.010736495 -0.2400674 0.12297979 0.1450451
000380 61 63 42 3e 85 bf 93 3d 67 2f f6 3c 3d 49 64 3e
       0.18983223 0.07214264 0.0300519 0.22293563
000390 bf 08 29 3e 48 bd af bd 1a 70 cb 3d 51 b4 0d 3d
       0.16507243 -0.085810244 0.09933491 0.03459579
0003a0 9a cb 67 bc d6 bf 59 3e 99 21 74 be fe a6 96 3d
       -0.0141476635 0.21264586 -0.23840941 0.0735607
0003b0 ab f0 45 3e 23 39 03 be 4a b0 13 3e 36 07 17 be
       0.19330089 -0.12814765 0.14422718 -0.14748845
0003c0 b0 d5 60 3e c8 4c 74 3d 1a c2 60 be 68 d0 09 be
       0.21956515 0.059643537 -0.21949044 -0.13458407
0003d0 38 6c 98 3d 48 49 11 bd 90 b2 83 3d 5c b1 24 3e
       0.07442516 -0.035470277 0.064305425 0.16083282
0003e0 dc 15 67 3e b0 ab 33 3e 40 b8 7e bd d0 46 64 3d
       0.22566932 0.17545962 -0.062187433 0.055731595
0003f0 50 c7 3a 3d fe ba 1a be aa 2c 43 be 7a d5 31 3e
       0.045600235 -0.15110394 -0.19060007 0.17366591

pool.nn.layers.0.bias f4 [16]
000000 4e c6 84 3e b8 23 07 be 23 90 06 3e e5 79 48 3d
       0.25932544 -0.1319722 0.13140921 0.048944373
000010 14 ec cc 3d f8 5c 3e be c8 2a 5f bd ab 8f 30 3e
       0.10005966 -0.18590152 -0.05448416 0.17242305
000020 c6 cb 0d be 66 5b 42 be 8c 61 37 be 58 87 64 be
       -0.13847265 -0.18980178 -0.17908305 -0.22317255
000030 fc 8a 76 be 20 dc 3e 3c 96 fe 69 3e 18 3c 54 be
       -0.24076456 0.011649162 0.22851023 -0.20726049
